best_policy_6_6_4.pt (torch, 421685 bytes, 15 tensors)

conv1.weight f4 [32, 4, 3, 3]
0	0xbe5a83dc	-0.21339363
1	0xbe0ddd72	-0.13854006
2	0xbde46132	-0.11151351
3	0x3e047ae4	0.12937504
4	0x3de131e5	0.10995845
5	0x3e2088cc	0.15677184
6	0x3ed57bf7	0.4169614
7	0x3e3ade74	0.18248922
8	0x3e4d8267	0.20069276
9	0x3cedf888	0.029049173
10	0xbc6ae8a1	-0.01433769
11	0xbe8d1f79	-0.27563074
12	0xbe254a73	-0.16141681
13	0xbd00205d	-0.031280864
14	0x3e88686e	0.26642174
15	0xbdeb0437	-0.11475413
16	0xbddb5828	-0.10710174
17	0x3ed83521	0.42228034
18	0xbab4bc96	-0.0013789113
19	0xbbae702b	-0.00532343
20	0x3da7ea2c	0.081989616
21	0xbe0a8687	-0.1352788
22	0xbdd85a09	-0.10564048
23	0xbd9e71c5	-0.077365436
24	0x3e00f3bf	0.12592982
25	0x3c016d30	0.0078995675
26	0x3d0ef164	0.034898177
27	0xbdafde44	-0.08587316
28	0xbe2b4923	-0.16727118
29	0xbe1046f9	-0.14089574
30	0x3e299e8e	0.1656439
31	0x3d85b03e	0.06527756
32	0xbe225528	-0.15852797
33	0x3e2f3f6f	0.17114042
34	0xbe068c19	-0.1313938
35	0xbd811eac	-0.06304678
36	0xbe336006	-0.17517099
37	0x3d51672c	0.051123783
38	0xbea44247	-0.32081816
39	0x3e71d66b	0.2361695
40	0x3d97f3b1	0.07419527
41	0x3ece611f	0.40308473
42	0xbea2e6d6	-0.3181674
43	0xbf005eb3	-0.501445
44	0xbddbda74	-0.10735026
45	0xbdc662db	-0.09686824
46	0xbe81c7f9	-0.2534788
47	0x3eecab6f	0.46224543
48	0xbd9ad5e9	-0.075603314
49	0xbd4eab35	-0.050456244
50	0x3e97207f	0.2951698
51	0xbd26e94f	-0.040749844
52	0xbe90692c	-0.2820524
53	0xbd60edab	-0.054914158
54	0x3da4e6a5	0.080518045
55	0xbde8931b	-0.11356183
56	0x3d2d8121	0.042359475
57	0xbc60edc8	-0.0137285665
58	0x3e212ca4	0.15739685
59	0xbd35eb36	-0.044413768
60	0x3c81f4e7	0.015863849
61	0x3d2f6b71	0.042827073
62	0x3e2d39a8	0.16916525
63	0xbcc6ee8b	-0.024283668
64	0xbdd15ddc	-0.102229804
65	0x3dfff608	0.124980986
66	0x3b437118	0.0029822048
67	0x3e0ae10b	0.1356241
68	0x3e3bd2c5	0.18342121
69	0xbe230446	-0.15919599
70	0xbcf2c227	-0.029633595
71	0xbd842cdd	-0.064538695
72	0x3eaec640	0.34135628
73	0x3eefe55b	0.46854672
74	0xbe082f78	-0.13299358
75	0x3e85f26a	0.2616151
76	0xbd89f1e7	-0.06735592
77	0x3e2e8755	0.17043813
78	0xbe3eae7c	-0.18621248
79	0x3bb633ea	0.005560388
80	0xbd56b0f6	-0.052414857
81	0xbe26b83f	-0.16281222
82	0xbd5ab7a8	-0.053397804
83	0x3d48468c	0.048895404
84	0xbe525074	-0.20538503
85	0xbe420753	-0.18948106
86	0x3e9ca15b	0.30591854
87	0xbe14bf60	-0.14526129
88	0xbcb53374	-0.022119261
89	0xbc63fe13	-0.0139155565
90	0x3c7ce122	0.015434535
91	0x3d126c56	0.03574785
92	0xbd363acc	-0.044489667
93	0xbe338bc7	-0.1753379
94	0xbdb3c097	-0.08776968
95	0xbcd33fe8	-0.025787309
96	0x3d748e79	0.059706185
97	0x3d0ff391	0.035144392
98	0xbcd3f136	-0.025871854
99	0x3c89ad7d	0.016806358
100	0xbcfedc2c	-0.031110846
101	0x3d854060	0.06506419
102	0xbdd45d87	-0.103694014
103	0x3d6e30cf	0.058152016
104	0xbdd60626	-0.104503915
105	0x3d3179c7	0.043329027
106	0xbc72957e	-0.0148061495
107	0xbdc38af5	-0.09547988
108	0x3d5a0faa	0.053237595
109	0xbe7bbbca	-0.24583355
110	0xbe0aebf6	-0.13566574
111	0xbea958f0	-0.33075666
112	0x3e3615eb	0.17781799
113	0xbe89134e	-0.2677254
114	0xbdcbaff7	-0.09945672
115	0xbe0c77b8	-0.13717544
116	0x3ea4aef1	0.3216472
117	0x3e8c9d28	0.2746365
118	0xbe3f852c	-0.18703145
119	0x3e85d210	0.26136827
120	0x3e96aa9e	0.29427046
121	0xbe2b9dae	-0.16759369
122	0xbd156780	-0.03647566
123	0x3e6b8774	0.2300089
124	0x3e4cb902	0.1999245
125	0xbed2a581	-0.41141894
126	0x3db2a6dc	0.08723232
127	0x3ca72ab0	0.020406097
128	0xbd33a263	-0.043856036
129	0xbd91bbf0	-0.07115924
130	0x3dee5ada	0.11638422
131	0x3d65227c	0.05594109
132	0x3e07750d	0.13228245
133	0xbd3b17ea	-0.045677103
134	0x3d8f7715	0.07005135
135	0x3c9fb383	0.019494778
136	0x3d2695c2	0.040670164
137	0x3c695343	0.014241043
138	0xbdeeca9f	-0.11659741
139	0xbddbb784	-0.10728362
140	0xbcbde6a6	-0.02318127
141	0x3d508562	0.050908454
142	0x3d9c02f1	0.076177485
143	0xbcb8016f	-0.022461621
144	0xbddd827c	-0.108159035
145	0xbd7ac116	-0.061219297
146	0xbdc84ce1	-0.097802885
147	0xbeb148bf	-0.34625813
148	0x3e93da40	0.2887745
149	0x3d2458a1	0.040123586
150	0x3da75676	0.08170788
151	0x3e8504a2	0.25980097
152	0xbe4fe566	-0.20302352
153	0xbe36607a	-0.1781024
154	0x3d91576a	0.07096751
155	0x3e601096	0.21881327
156	0x3e1eea04	0.15518957
157	0xbd8f7f09	-0.07006652
158	0x3ebed0fb	0.37268814
159	0xbd82b236	-0.06381647
160	0x3e5ced25	0.21574838
161	0x3ea1af85	0.31579223
162	0x3c82a510	0.015947849
163	0xbdd04379	-0.101691194
164	0xbdbf5d15	-0.09343926
165	0x3d32ae24	0.043623105
166	0x3df66790	0.12031472
167	0x3dbd26ff	0.092359535
168	0x3d452079	0.04812667
169	0x3dad12c5	0.08450846
170	0x3d1dc649	0.038519178
171	0xbdb0ef13	-0.0863935
172	0xbdb0de8e	-0.08636199
173	0xbd77d34f	-0.060504254
174	0x39423f9f	0.00018524982
175	0x3da4ac8a	0.08040722
176	0x3e0360ac	0.12829846
177	0xbe26b9a0	-0.16281748
178	0xbcce1b61	-0.02515954
179	0xbc4da8ae	-0.012552423
180	0xbb1ab7d5	-0.0023608108
181	0xbc047cf6	-0.008086434
182	0x3e071e6b	0.13195197
183	0xbe7c442a	-0.24635378
184	0x3e891b20	0.26778507
185	0x3f0c049c	0.54694533
186	0xbe8ce3e2	-0.2751761
187	0x3ea2bad6	0.3178317
188	0x3ead6dd2	0.3387285
189	0x3e41b066	0.18914947
190	0xbdb7b5e6	-0.08970241
191	0x3d9292c1	0.07156897
192	0x3d80bf33	0.06286468
193	0xbd84b65e	-0.06480096
194	0xbda08d5f	-0.078394644
195	0x3e164767	0.14675675
196	0xbde4e084	-0.111756355
197	0x3d1ed27d	0.038774956
198	0x3d8ed742	0.06974651
199	0x3ce52890	0.027973443
200	0xbe06ad81	-0.13152124
201	0xbdef1426	-0.11673765
202	0xbd0c5769	-0.03426305
203	0xbb0e10b6	-0.002167744
204	0xbd3dc6e3	-0.04633225
205	0x3dcdf7d3	0.10057034
206	0x3d8f88c9	0.070085116
207	0x3d83f8cf	0.06443941
208	0xbdfd6cec	-0.12374291
209	0x3c0b2786	0.00849331
210	0x3caacde9	0.020850139
211	0xbd38ffa5	-0.045165677
212	0xbe1c59e5	-0.15268667
213	0x3d6892a0	0.056780457
214	0xbcbc548a	-0.02298953
215	0x3e22a6bf	0.15883921
216	0xbdc142d7	-0.09436577
217	0x3e6fd81d	0.23422284
218	0xbe25f69a	-0.16207352
219	0x3eb4282e	0.35186905
220	0x3ddb3bfc	0.107048005
221	0xbe8af3a5	-0.2713901
222	0xbd3e170f	-0.04640871
223	0xbe3b8648	-0.18312943
224	0x3dad3d8d	0.084590055
225	0x3d0d188f	0.03444725
226	0x3ef4b460	0.47793865
227	0x3e8fa461	0.280551
228	0x3dffc492	0.12488665
229	0x3ded486d	0.1158608
230	0x3e0cb0a5	0.1373926
231	0x3eaad55e	0.3336591
232	0xbe0ccee6	-0.137508
233	0x3e37037d	0.17872424
234	0xbd552318	-0.05203542
235	0xbc8c82c6	-0.017152201
236	0xbe08633a	-0.13319102
237	0xbd088d7a	-0.033338048
238	0xbc20f4e6	-0.009824013
239	0xbcc09320	-0.023507655
240	0xbdaad381	-0.083411224
241	0x3d22440b	0.039615672
242	0xbcbe5044	-0.023231633
243	0xbdbc1e7e	-0.091855034
244	0xbe0b2fe4	-0.13592488
245	0xbd32994e	-0.043603234
246	0x3e491859	0.19638194
247	0x3d16db77	0.03683039
248	0x3e264d7f	0.162405
249	0x3cc5dec9	0.024154084
250	0xbd30c9b3	-0.043161105
251	0x3d23bfa7	0.039977696
252	0xbdb38fee	-0.08767687
253	0xbe07b4b7	-0.13252531
254	0xbedec2a0	-0.43507862
255	0xbe400714	-0.187527

conv1.bias f4 [32]
0	0xbc8484a7	-0.016176535
1	0x3be3bbb2	0.0069498653
2	0x3e30840b	0.1723787
3	0x3e0f9f9c	0.1402573
4	0xbdd2a3ae	-0.10285126
5	0xbd998e66	-0.074978635
6	0xbcc3a722	-0.023883406
7	0x3d6f7848	0.05846432
8	0xbe246b3a	-0.16056529
9	0x3de46a32	0.11153068
10	0x3cfceb97	0.030874057
11	0xbe19150f	-0.1494944
12	0x3d42ae31	0.047529403
13	0xbde99aa2	-0.11406447
14	0x3d9c514e	0.07632695
15	0xbcd79e2f	-0.026320545
16	0xbe1d2f1b	-0.1535
17	0xbdb16e36	-0.08663599
18	0xbd828ab8	-0.06374115
19	0xbd400ebe	-0.04688906
20	0xbdfe595f	-0.1241939
21	0xbcaed371	-0.021341057
22	0x3e45a79f	0.19302224
23	0x3d33624e	0.043794923
24	0xbe3d5193	-0.1848815
25	0xbe491d49	-0.19640078
26	0xbd4ae2d8	-0.04953274
27	0x3c0f1406	0.008732801
28	0xbe1460a2	-0.14489987
29	0xbe2d559c	-0.16927189
30	0xbe365da3	-0.17809157
31	0xbdcbd015	-0.09951798

conv2.weight f4 [64, 32, 3, 3]
0	0xbe17e38f	-0.148329
1	0x3c0fd71b	0.0087793125
2	0xbe662a81	-0.22477151
3	0xbd955626	-0.07291822
4	0x3e0355dc	0.12825722
5	0x3cd2834d	0.025697375
6	0x3e5d3d75	0.21605475
7	0xbcf02c79	-0.029318081
8	0x3dba9c61	0.09111858
9	0xbe587138	-0.2113694
10	0xbe242bcf	-0.16032337
11	0xbcf7694f	-0.030201582
12	0x3e274073	0.16333179
13	0x3d9d5f30	0.07684171
14	0x3de135a1	0.10996557
15	0xbc73eb9e	-0.0148877185
16	0xbd13949f	-0.036030408
17	0xbb55984a	-0.0032591992
18	0x3e168426	0.14698848
19	0x3e024bf4	0.12724286
20	0xbe66d7e7	-0.22543298
21	0xbe31c31a	-0.17359582
22	0x3cb5f6f1	0.022212477
23	0xbdd3f1f0	-0.1034888
24	0x3cabd8d3	0.020977413
25	0x3e073e3a	0.13207331
26	0x3db72951	0.08943427
27	0xbdb84db5	-0.089991964
28	0xbe56fc52	-0.2099469
29	0xbdbaa6f0	-0.09113872
30	0x3de3f6d0	0.1113106
31	0x3dc36461	0.0954063
32	0x3c821aca	0.015881915
33	0x3d9fcbbf	0.07802533
34	0x3c9541cb	0.01821985
35	0xbd5f8ea5	-0.054579396
36	0xbe147918	-0.14499319
37	0x3b669d22	0.0035188873
38	0xbcbd762c	-0.023127638
39	0x3deafd19	0.11474056
40	0xbdd2433d	-0.10266731
41	0xbd9a5f7c	-0.075377434
42	0x3da6e70f	0.0814954
43	0x3d6c4ff9	0.057693455
44	0xbdfd4304	-0.12366298
45	0x3e0c7a93	0.13718633
46	0xbd21ae12	-0.039472647
47	0xbea6f420	-0.32608128
48	0x3e132299	0.14368667
49	0xbcca2d6e	-0.024679866
50	0x3dad08ff	0.084489815
51	0x3d252667	0.040319826
52	0x3cbff045	0.02343
53	0x3e37ece4	0.1796146
54	0x3d1b2579	0.037877534
55	0xbd8f50af	-0.06997811
56	0xbd74cb97	-0.05976447
57	0xbe66c328	-0.22535384
58	0x3de2b510	0.11069691
59	0x3c8f64b9	0.017504083
60	0x3db3725e	0.08762048
61	0xbe2b279c	-0.16714329
62	0xbdf41b1e	-0.11919235
63	0xbdf0f134	-0.11764756
64	0xbe2cfa37	-0.16892324
65	0xbc22c05d	-0.009933558
66	0x3cdb5f43	0.026778823
67	0x3d65e6b8	0.056128234
68	0xbd3748e6	-0.044747256
69	0xbdb8be2a	-0.09020646
70	0xbe14ee88	-0.14544117
71	0xbd8bc1ff	-0.06824111
72	0xbe596d57	-0.21233116
73	0xbd7dc1c2	-0.06195236
74	0xbe2cbbce	-0.16868517
75	0xbd9486e0	-0.07252288
76	0x3c44f84a	0.012022087
77	0xbe0288ab	-0.12747447
78	0xbcc5da9f	-0.024152098
79	0xbe08cba3	-0.13358931
80	0xbe32346c	-0.1740281
81	0x3e5460d5	0.20740063
82	0xbe007bce	-0.12547228
83	0xbe089ab5	-0.13340266
84	0x3ddfdc28	0.10930663
85	0x3d827813	0.063705586
86	0xbe4fff75	-0.20312293
87	0x3df64040	0.120239735
88	0x3db33438	0.08750194
89	0x3d12985b	0.03578983
90	0xbe1ce500	-0.15321732
91	0x3d716cc4	0.058941618
92	0x3c3fb45c	0.011700716
93	0x3d2d7c8b	0.0423551
94	0x3c0848ae	0.008318109
95	0x3d14e3e7	0.036350157
96	0x3d4f1afe	0.05056285
97	0x3d45881a	0.0482255
98	0x3d499a41	0.049219374
99	0xbe31c42b	-0.17359988
100	0x3e3656a3	0.17806487
101	0x3e03bdc0	0.12865353
102	0xbd4078c4	-0.04699017
103	0xbe0c63a9	-0.13709892
104	0x3d7f7979	0.062371705
105	0x3d720610	0.059087813
106	0x3cd04f39	0.025428401
107	0x3d0dfbef	0.03466409
108	0xbe93896e	-0.28815788
109	0xbcc2de33	-0.023787593
110	0xbdb79b0b	-0.08965119
111	0x3dfd2138	0.123598516
112	0x3d5530dd	0.052048553
113	0xbe437c64	-0.1909042
114	0xbdceebea	-0.10103591
115	0xbd0fe8b0	-0.035134017
116	0x3d8b6de2	0.06808068
117	0x3d7ffd74	0.06249757
118	0x3dd17882	0.10228063
119	0x3e2b5b09	0.16733946
120	0xbdcd7258	-0.10031575
121	0xbdef32f8	-0.116796434
122	0xbe2de422	-0.16981557
123	0xbd90736f	-0.07053267
124	0x3d6ca6d3	0.057776283
125	0x3d42710d	0.047471095
126	0xbdb5aede	-0.08871244
127	0x3d54e67c	0.05197762
128	0xbe146f78	-0.14495647
129	0xbc1b0c05	-0.009463315
130	0x3d9790b8	0.0740065
131	0xbd804dc8	-0.062648356
132	0x3e4b23f8	0.1983794
133	0xbc459f53	-0.012061912
134	0x3dcc9219	0.099888034
135	0xbda368eb	-0.07978996
136	0xbdc8c02a	-0.098022774
137	0xbe663422	-0.22480825
138	0xbe077d52	-0.132314
139	0xbe5f4c7c	-0.2180652
140	0x3d6e994d	0.058251668
141	0x3d0ab068	0.03385964
142	0x3e050b9f	0.12992714
143	0xbcdba29d	-0.026810938
144	0xbd91fa71	-0.07127846
145	0xbd546132	-0.051850505
146	0x3e408486	0.18800554
147	0xbdee0759	-0.11622495
148	0x3d700d93	0.058606695
149	0x3dcd6b1b	0.10030194
150	0x3ca16225	0.01970012
151	0xbd399d55	-0.04531606
152	0x3e656b70	0.22404265
153	0xbd0989b2	-0.033578582
154	0xbe2a890c	-0.16653842
155	0xbdb0f3a0	-0.08640218
156	0xbdb88abc	-0.090108365
157	0xbd86b5ad	-0.06577621
158	0xbb9ff781	-0.0048817997
159	0x3dfc3f03	0.12316706
160	0x3df98a3a	0.12184568
161	0x3ddc4622	0.10755564
162	0x3e259684	0.16170698
163	0xbd5f9d0e	-0.05459314
164	0x3d8b06a5	0.06788377
165	0xbe06c943	-0.13162713
166	0xbe22fe01	-0.15917207
167	0x3c9b0314	0.018922366
168	0xbc94a25f	-0.01814383
169	0xbce91e2c	-0.02845677
170	0xbe0e2143	-0.13879876
171	0x3a202b19	0.00061099377
172	0xbe2dbed5	-0.16967328
173	0xbeae5add	-0.34053698
174	0x3da3310e	0.07968341
175	0xbd2498db	-0.040184837
176	0x3debccf9	0.11513705
177	0x3d84e35a	0.06488676
178	0x3d5f3f3a	0.054503657
179	0xbc159b51	-0.009131269
180	0xbc1e2e83	-0.009654644
181	0xbdfca3a5	-0.123359
182	0x3e34319b	0.17597048
183	0xbe066679	-0.13125028
184	0x3c67f6c1	0.014157952
185	0xbae00629	-0.001709168
186	0xbeb66584	-0.35624325
187	0xbdf3ec7d	-0.11910341
188	0xbdc107aa	-0.0942529
189	0xbe5097b4	-0.2037037
190	0x3dd8cb25	0.10585622
191	0x3b69c45e	0.0035670022
192	0xbc5d5697	-0.013509414
193	0x3bdf6282	0.006817163
194	0xbd3eb233	-0.046556663
195	0x3e388441	0.18019201
196	0x3cdaa1cc	0.026688479
197	0xbd8184af	-0.063241355
198	0x3d2b8bf2	0.04188151
199	0x3deb57e9	0.11491377
200	0xbeaeb0c1	-0.34119228
201	0x3d9a274d	0.07527027
202	0x3dc933d8	0.098243415
203	0x3cfc29fb	0.030781737
204	0x3e42ac31	0.19010998
205	0x3cd0faf4	0.025510289
206	0x3c94e989	0.018177764
207	0xbd3a01a1	-0.04541171
208	0xbe1fdfc8	-0.1561271
209	0x3d72bdf4	0.059263185
210	0xbb7e1480	-0.0038769543
211	0xbd35e6bc	-0.0444095
212	0x3c63d473	0.013905632
213	0xbe9729fc	-0.2952422
214	0xbe07556f	-0.13216184
215	0xbe9eaf91	-0.30993322
216	0xbdd7139b	-0.10501786
217	0xbe1fc8f7	-0.15604006
218	0x3d1a2a17	0.037637796
219	0x3d8241e5	0.06360225
220	0x3e4bcbc1	0.19901945
221	0x3e05d986	0.1307126
222	0x3e3a4fe0	0.18194532
223	0xbc8b6b3c	-0.017018907
224	0x3dd9b173	0.10629549
225	0x3d5de9bd	0.05417799
226	0x3caa93ba	0.020822395
227	0x3dd0d050	0.101959825
228	0xbd4c0b6a	-0.049815573
229	0x3dde43b8	0.1085276
230	0x3e17adca	0.14812389
231	0xbdfc2fad	-0.12313781
232	0x3ccaf984	0.024777181
233	0x3c8363d4	0.016038813
234	0x3da9ac1c	0.082847804
235	0x3e0afcad	0.1357295
236	0x3bb4dbe7	0.0055193785
237	0xbdec030c	-0.11524019
238	0xbd6a3dbe	-0.05718779
239	0xbe391f78	-0.1807841
240	0xbd827f97	-0.06371992
241	0xbe267651	-0.16256072
242	0x3d1f008e	0.03881889
243	0x3dec6904	0.11543468
244	0xbd9f35cb	-0.07773932
245	0xbe914d4c	-0.28379285
246	0x3dc45520	0.09586549
247	0xbd6380c0	-0.055542707
248	0xbd15f7b6	-0.03661319
249	0x3c597b1b	0.01327398
250	0x3c0e0bff	0.008669852
251	0xbdb4ecce	-0.088342294
252	0x3b4a4031	0.0030861015
253	0x3c24d563	0.010060641
254	0x3e68f864	0.22751004
255	0xbd7e0094	-0.06201227

conv2.bias f4 [64]
0	0x3ca1ca7b	0.01974987
1	0xbbbfe9d0	-0.00585673
2	0xbd8f4a57	-0.06996601
3	0xbd402e30	-0.046919048
4	0xbdbb859f	-0.091563456
5	0xba905350	-0.0011011157
6	0xbd8b9d40	-0.068171024
7	0xbc9bb78a	-0.019008417
8	0x3d98c716	0.07459848
9	0xbda99fb9	-0.08282418
10	0x3d53606d	0.05160563
11	0x3e1589f6	0.14603409
12	0xbc13f87a	-0.009031409
13	0xbd01b99d	-0.031671155
14	0xbd1a7db4	-0.037717536
15	0xbd80863f	-0.062756054
16	0x3d21e91b	0.039528947
17	0xbdd369f2	-0.10322942
18	0x3dd2fe2c	0.10302386
19	0xbd23866e	-0.039923124
20	0xbd8d6281	-0.06903554
21	0xbd4d0d0f	-0.05006128
22	0xbe10caf2	-0.14139917
23	0xbc7892ee	-0.0151717495
24	0xbd459ac8	-0.048243314
25	0xbd24b28e	-0.040209346
26	0xbd27e66d	-0.040991236
27	0xbd80edfb	-0.06295391
28	0x3d5b3d4c	0.053525254
29	0xbd4bf5e4	-0.049795046
30	0xbca226e4	-0.019793935
31	0xbd78d944	-0.060754076
32	0x3c925c91	0.017866405
33	0x3da4c122	0.0804465
34	0xbc91ed76	-0.017813426
35	0xbe041880	-0.12899971
36	0xbd89af78	-0.06722921
37	0xbdc4be4e	-0.0960661
38	0xbdb0cb40	-0.08632517
39	0xbdada9bc	-0.0847964
40	0x3bd43c3d	0.0064769075
41	0xbdef12df	-0.11673521
42	0x3cc4b3af	0.024011461
43	0xbb724298	-0.0036965962
44	0xbd0a00e5	-0.03369226
45	0x3c8408d8	0.016117498
46	0x3dad2055	0.084534325
47	0xbd46d5b2	-0.04854364
48	0xbd1d11f4	-0.0383472
49	0xbc377b5e	-0.011198847
50	0xbdce21f2	-0.10065068
51	0xbd279985	-0.040917892
52	0xbda9ee6a	-0.08297427
53	0xbd2e167a	-0.042501904
54	0xbdcfbb7c	-0.10143182
55	0xbdaef5d6	-0.08542983
56	0xbd083909	-0.033257518
57	0x3dd6548e	0.10465346
58	0xbd4c0f67	-0.049819376
59	0x3cf2ba23	0.029629773
60	0xbde9a019	-0.11407489
61	0x3ce14d96	0.027502816
62	0x3b59035c	0.0033113575
63	0xbda3511a	-0.07974453

conv3.weight f4 [128, 64, 3, 3]
0	0x3cb43d59	0.02200191
1	0x3d3ce30f	0.046114977
2	0xbdb1340c	-0.08652505
3	0xbc92eb69	-0.017934518
4	0xba8c4e4e	-0.0010704489
5	0x3cac265e	0.021014389
6	0x3c839db5	0.016066412
7	0xbd0afff6	-0.03393551
8	0x3dd2f31c	0.10300276
9	0x3d87b8a5	0.06627015
10	0x3de65489	0.112465926
11	0x3d39a46d	0.045322824
12	0x3d6492bb	0.055803996
13	0x3ce77016	0.028251689
14	0x3df5a298	0.11993903
15	0x3db5c557	0.0887553
16	0x3d859c8d	0.06524
17	0xbd15ff53	-0.03662045
18	0x3cee1403	0.029062277
19	0x3c35988f	0.011083736
20	0x3d8a9760	0.06767154
21	0x3d4787c1	0.04871345
22	0x3d859d3e	0.06524132
23	0x3de6c4dd	0.112680174
24	0x3c29453b	0.010331447
25	0x3d01494a	0.031564035
26	0xbae54a05	-0.0017493373
27	0x3ca97d6c	0.020689689
28	0x3b5a1b95	0.00332806
29	0x3d0f34f7	0.03496262
30	0xbc78085c	-0.015138712
31	0x3d96f377	0.07370656
32	0x3c91314b	0.0177237
33	0x3d827912	0.063707486
34	0xbc51eb8b	-0.0128125055
35	0x3d54be55	0.051939327
36	0xba3d316f	-0.0007217144
37	0x3d21e181	0.039521698
38	0x3c44e8e9	0.012018421
39	0x3d17d178	0.037065
40	0xbd26a1ed	-0.04068177
41	0xb98f3c74	-0.00027320127
42	0x3d92be24	0.07165173
43	0x3c185aa6	0.009298956
44	0x3ca19133	0.019722557
45	0x3d787ec2	0.06066776
46	0x3e3803ca	0.17970195
47	0x3c5e3236	0.013561776
48	0xba90730c	-0.0011020615
49	0xbcb54b14	-0.022130527
50	0x3e13da87	0.1443883
51	0xbccbb4e9	-0.024866538
52	0xbce1cc8f	-0.027563361
53	0xbd1ca1c0	-0.038240194
54	0x3d72bfb3	0.05926485
55	0xbc12fc96	-0.008971354
56	0x3b8f22d2	0.0043681646
57	0x3d9a37d1	0.075301774
58	0x3d0bbf76	0.03411814
59	0xbd7201f7	-0.059083905
60	0xbcaa8fbe	-0.020820495
61	0xbcad6b6d	-0.021169389
62	0x3dc56c52	0.09639801
63	0x3e33a0ae	0.17541763
64	0x3d9acbe3	0.075584196
65	0x3d4888ae	0.048958473
66	0xbd1c21ec	-0.038118288
67	0x3d2df988	0.0424743
68	0x3ac2be47	0.0014857732
69	0xbc84ec52	-0.016225968
70	0xbd75286a	-0.059852995
71	0xbe2c7bef	-0.16844152
72	0xbc53a5b6	-0.012917927
73	0x3cfb8458	0.030702755
74	0x3dc50f46	0.09622054
75	0xbc74559e	-0.014912991
76	0x3cf91478	0.030405268
77	0xbd33e61c	-0.04392062
78	0x3b385862	0.0028128852
79	0x3cba095b	0.02270954
80	0x3d2ac4a0	0.041691422
81	0xbc6611fa	-0.014042372
82	0x3d384d1d	0.044995416
83	0x3cae17db	0.02125161
84	0x3d16f73a	0.036856867
85	0x3d2c4544	0.042058244
86	0xbc737ac7	-0.014860815
87	0x3d2a8da9	0.041639004
88	0x3cfac2b6	0.030610424
89	0x3cee02ef	0.029054133
90	0xbae1f145	-0.0017238042
91	0x3dbf407a	0.0933847
92	0x3db0240e	0.08600627
93	0x3d5c6e13	0.053815912
94	0xbd0bb674	-0.034109548
95	0xbb907d46	-0.004409465
96	0x3d3cb8b5	0.046074588
97	0x3d1d150e	0.038350157
98	0x3da6099b	0.08107301
99	0xbd4a20a8	-0.04934755
100	0x3db00a7a	0.08595748
101	0x3b8ed364	0.004358696
102	0xbcb748ff	-0.022373674
103	0xbb602be8	-0.0034205858
104	0x3d242912	0.04007823
105	0x3c5a38b3	0.013319182
106	0x3dade238	0.084904134
107	0xbcb231cf	-0.021752266
108	0x36271b31	2.4900767e-06
109	0x37301e25	1.0497436e-05
110	0x37afe6c2	2.096908e-05
111	0xb6d96bef	-6.479669e-06
112	0x38010651	3.076188e-05
113	0x389e1525	7.5379656e-05
114	0xb816d7e7	-3.596386e-05
115	0x38af1cd7	8.350022e-05
116	0x38c4160c	9.350115e-05
117	0x3d98c4f5	0.074594416
118	0x3d3a9db7	0.045560565
119	0x3d544f76	0.051833592
120	0x3c2a7105	0.0104029225
121	0xbd351214	-0.044206694
122	0x3e20a121	0.15686466
123	0x3e3bf582	0.18355373
124	0xbc345b21	-0.011008055
125	0xbc8ca373	-0.017167782
126	0x3d0b93bb	0.034076434
127	0x3dc5a2b2	0.09650172
128	0x3cc38281	0.02386594
129	0xbcebe4a1	-0.028795542
130	0x3ce29e47	0.027663363
131	0x3d8c16a7	0.06840258
132	0xbc3d01ec	-0.011536103
133	0x3e03ef5b	0.12884276
134	0x3b27fe9a	0.0025633932
135	0x3c97ee8a	0.018546361
136	0x3dbb260e	0.09138118
137	0xbd1078b3	-0.035271358
138	0xbcca6602	-0.024706844
139	0xbd0770ff	-0.033066746
140	0x3df1a302	0.117986694
141	0x3df7635a	0.12079497
142	0xbba38b57	-0.004990976
143	0x3d4b1ecd	0.04958992
144	0x3d136584	0.035985485
145	0x3cc8ddcf	0.02451983
146	0xbd844d2d	-0.064600326
147	0x3d5e0db9	0.054212306
148	0x3c65c80f	0.0140247485
149	0x3e37557c	0.17903703
150	0xbca09cba	-0.019605983
151	0x3bcf7f07	0.0063322815
152	0x3c84b43b	0.016199222
153	0x3d235ae1	0.03988159
154	0x3d84b31d	0.06479476
155	0xbc43b84c	-0.011945795
156	0x3ce72854	0.028217472
157	0x3beed52f	0.007288597
158	0x3ce1e2e6	0.027574014
159	0xbc36fc8e	-0.011168612
160	0x3e07a16a	0.13245168
161	0x3c8ce241	0.01719773
162	0xbd8367b2	-0.06416263
163	0x3c0f9d20	0.008765489
164	0x3dacee5a	0.084438995
165	0xba19cd04	-0.00058670365
166	0xbd353a35	-0.044244964
167	0xbd644434	-0.055729106
168	0x3d18596e	0.03719466
169	0xbc6ed7ec	-0.014577847
170	0x3cca10ba	0.024666179
171	0xbdaef350	-0.08542502
172	0xbc25a2c7	-0.01010961
173	0x3d1ee4df	0.038792487
174	0x3d860590	0.0654403
175	0x3d8d3a29	0.06895859
176	0x3da2ea2b	0.0795482
177	0xbc92310d	-0.017845655
178	0xbd01ecfb	-0.031720143
179	0x3cb2b222	0.021813456
180	0x3d423e22	0.047422536
181	0x3dad470d	0.084608175
182	0x3ca82eee	0.02053019
183	0x3d293a8b	0.041315597
184	0xbc0430fd	-0.00806832
185	0x3da6cbcd	0.08144341
186	0xbb92b8c2	-0.0044775913
187	0xba277aed	-0.0006388862
188	0x3b56a5dc	0.0032752668
189	0x3d8a4b57	0.06752651
190	0x3d127344	0.035754457
191	0x3dcf5f30	0.101255774
192	0x3d138049	0.036011014
193	0x3d0403a9	0.032230053
194	0x3d4bdbff	0.04977035
195	0x3cc7f124	0.024406977
196	0x3d96001e	0.07324241
197	0x3cdde889	0.02708842
198	0x3d97e0d7	0.07415932
199	0x3d5c3d3d	0.05376934
200	0x3d9b2061	0.07574535
201	0x3c3eb6eb	0.011640291
202	0xbc3ec3b0	-0.011643335
203	0x3c4bc731	0.012437628
204	0x3d0a3d96	0.03375014
205	0x3ca850cc	0.02054634
206	0xba0baa54	-0.000532781
207	0x3e2ef8dc	0.1708712
208	0x3db23411	0.08701337
209	0x3d9af624	0.07566479
210	0xbc9f0def	-0.019415824
211	0x3dc0fd3d	0.09423301
212	0x3d8bd362	0.068274274
213	0xbc28ae39	-0.010295444
214	0x3dd342ff	0.10315513
215	0xbc75be9f	-0.014999061
216	0x3d120e94	0.035658434
217	0x3cecc02b	0.028900227
218	0x3d2ea8e8	0.04264155
219	0x3db2c05e	0.087280974
220	0x3da1ef85	0.07907013
221	0x3de350ff	0.11099433
222	0xbda77fd2	-0.08178677
223	0x3c8581cc	0.016297244
224	0x3d20787b	0.0391774
225	0x3d8ed4b3	0.06974163
226	0x3d7d7b56	0.0618852
227	0xbd64dcf8	-0.055874795
228	0x3d45ff03	0.0483389
229	0x3d1f3bbc	0.038875327
230	0xbcfecec8	-0.03110446
231	0x3c26c2fa	0.010178322
232	0xbdba81ae	-0.09106766
233	0xbd208b8f	-0.039195593
234	0xbd99520a	-0.07486351
235	0x3d16ee3d	0.036848295
236	0xbcc8eccc	-0.024526976
237	0xbb0b867e	-0.002128988
238	0x3c5c8e56	0.01346167
239	0x3c67e424	0.014153514
240	0x3db67e24	0.08910778
241	0xbc8cb1c7	-0.017174615
242	0xbdacf330	-0.08444822
243	0x3cf4a62f	0.029864399
244	0xbaabfc26	-0.0013121411
245	0x3c1ff7bf	0.009763657
246	0x3df46d9c	0.11934969
247	0xbc2b799a	-0.010466004
248	0x3d872a81	0.06599904
249	0xbd3c77ac	-0.046012565
250	0xbc70dc34	-0.014700938
251	0x3ddbab6e	0.10726057
252	0x3c606606	0.013696199
253	0xbd8fdac6	-0.070241496
254	0x3d87ef46	0.06637435
255	0xbc74c4d0	-0.014939502

conv3.bias f4 [128]
0	0x3c769da7	0.015052236
1	0xbcb1bed1	-0.021697434
2	0xbb565405	-0.0032703888
3	0x3d81b712	0.06333746
4	0x3d3c5c71	0.045986596
5	0xbbbef898	-0.0058279745
6	0x3db51c78	0.088433206
7	0xbd2cd831	-0.042198364
8	0xbe4c462f	-0.19948648
9	0x3d1fdf22	0.039031155
10	0xbd450108	-0.048096687
11	0x3d0cdf26	0.0343925
12	0xbdd7676f	-0.10517775
13	0xb62a288e	-2.535558e-06
14	0xb86d2946	-5.6543642e-05
15	0x3c9ac7e7	0.018894149
16	0x3d9b5bce	0.0758587
17	0xbd6d1ca6	-0.05788865
18	0xbcc95ebf	-0.024581311
19	0xbccbdad6	-0.024884623
20	0x9ff322c2	-1.02972005e-19
21	0x3db46c9f	0.0880978
22	0xbdd87c59	-0.105705924
23	0x3cd10129	0.025513249
24	0xbbbbfe81	-0.0057371263
25	0xbd9244d7	-0.071420364
26	0x3dfa215f	0.12213396
27	0xbd1dff7e	-0.038573734
28	0xbd16dfb3	-0.03683443
29	0x3d4bebf8	0.049785584
30	0xbd9ae8b1	-0.075639136
31	0xbd7363c2	-0.05942131
32	0xbd7a2d14	-0.061078146
33	0xb43c6910	-1.7547086e-07
34	0x3cd69e34	0.026198484
35	0x3ca176f9	0.01971005
36	0x3bbf7f69	0.005844046
37	0xb44c56ae	-1.9030514e-07
38	0x3d90a2a5	0.07062272
39	0xbd1e0afd	-0.038584698
40	0xbd864105	-0.0655537
41	0xbe31fcfa	-0.17381659
42	0xbe2c7d00	-0.16844559
43	0x3d2dc40d	0.042423297
44	0xbd85029d	-0.06494639
45	0xbbbed162	-0.0058233
46	0xbcd91269	-0.026498036
47	0x3dbb6ac2	0.09151222
48	0x3ddb2222	0.1069987
49	0x3d97368d	0.073834516
50	0x3d88df11	0.066831715
51	0xb8cba7e0	-9.7110635e-05
52	0xbd983184	-0.07431319
53	0xbd23ef83	-0.040023338
54	0xbd6acb2b	-0.057322662
55	0xbcd6ee72	-0.026236746
56	0xbd9ce68c	-0.07661161
57	0xbd55e0b2	-0.05221624
58	0xbd3bb5dc	-0.04582773
59	0xbd61e417	-0.055149164
60	0x3dc0f658	0.09421986
61	0x3bd8153f	0.0065943296
62	0xbda1dcae	-0.079034194
63	0xbdb67bc8	-0.08910328
64	0xbdd96306	-0.1061459
65	0xbd38ea7c	-0.045145497
66	0x3e5579c6	0.20847234
67	0xbda8b70e	-0.0823804
68	0xbdb7d749	-0.08976609
69	0x3d1d83db	0.038455825
70	0xbe2f54d6	-0.17122206
71	0x3d951ac1	0.072804935
72	0xbd8dcac3	-0.06923439
73	0xbdbc68b0	-0.09199655
74	0xbda08555	-0.07837931
75	0xbc07cc42	-0.008288445
76	0xbc61dec7	-0.013786024
77	0x3cde6885	0.027149448
78	0xbcaf41c3	-0.021393662
79	0x3dba476a	0.090956524
80	0x3c9861f2	0.018601391
81	0xbda9829f	-0.08276867
82	0x3dca2be3	0.09871652
83	0x3d8c7022	0.06857325
84	0x3cdaa5a8	0.02669032
85	0x9d887524	-3.612002e-21
86	0xbda1be95	-0.07897679
87	0x3c160819	0.009157204
88	0xbd676b42	-0.056498773
89	0xbc1ecccb	-0.009692381
90	0xbdbb0c13	-0.09133162
91	0xbc187e14	-0.009307403
92	0xbde615a5	-0.11234597
93	0xbd36751c	-0.044545278
94	0x3df0683c	0.11738631
95	0xbdf396f1	-0.11894024
96	0xbd349d0d	-0.044095088
97	0x3e0231b7	0.12714277
98	0xbd404bc0	-0.04694724
99	0x3ca92231	0.020646187
100	0xbc8f6935	-0.017506221
101	0x3d56ecd5	0.052471954
102	0xbce288a5	-0.027653048
103	0xbd805be6	-0.06267528
104	0xb86de9d8	-5.6722987e-05
105	0xbdb919cb	-0.09038123
106	0xbdba5509	-0.090982504
107	0xbc799db1	-0.0152353505
108	0xbd7a085e	-0.061043136
109	0xbe3e0238	-0.18555534
110	0xbdbf6c41	-0.0934682
111	0x3cdac28e	0.026704099
112	0xbd921d7b	-0.07134529
113	0x3c96ca34	0.018406965
114	0x3c3f0311	0.011658446
115	0xbdfa6791	-0.12226785
116	0x3d063da5	0.032773633
117	0x3d9e199b	0.077197276
118	0xbd5881b1	-0.05285806
119	0x3dd76c35	0.10518686
120	0xbd3cf760	-0.046134353
121	0xbc36b473	-0.011151421
122	0xbaa29dd7	-0.0012406659
123	0x3dbc535c	0.09195587
124	0x3dc6fee0	0.09716582
125	0x3d87dda3	0.06634071
126	0xbd574033	-0.05255146
127	0x9a6985cd	-4.8291354e-23

act_conv1.weight f4 [4, 128, 1, 1]
0	0xbc13fed2	-0.009032922
1	0xbda99842	-0.08280994
2	0xbd9b690f	-0.07588398
3	0x3e02bf67	0.12768327
4	0xbd187721	-0.037222985
5	0x3e3d753b	0.18501751
6	0x3efc5cc6	0.4928953
7	0xbdecbf4a	-0.11559923
8	0x3c6c810e	0.014435066
9	0xbbd44b63	-0.0064787134
10	0x3e0425b5	0.12905009
11	0xbdf309cc	-0.11867103
12	0x3d71a6bc	0.0589969
13	0x80020a3f	-1.87347e-40
14	0x0001e4c4	1.73901e-40
15	0x3e9550d2	0.29163224
16	0x3ce28a03	0.0276537
17	0xbd06e239	-0.032930586
18	0xbe13a6ba	-0.1441907
19	0x3d0853b9	0.03328297
20	0x8001df85	-1.72019e-40
21	0xbe9e4d32	-0.3091827
22	0xbcd2fa77	-0.025754197
23	0x3e9ba5ae	0.3039984
24	0xbd8fd18d	-0.070223905
25	0xbd86cb0c	-0.06581697
26	0x3e05738a	0.13032356
27	0xbebad661	-0.36491683
28	0x3e19fb13	0.15037183
29	0xbe4a5175	-0.19757636
30	0x3eccc9bb	0.39997658
31	0x3e556aaf	0.20841478
32	0x3d5788f0	0.05262083
33	0x0001a765	1.51885e-40
34	0x3e045235	0.12921984
35	0x3d9885ef	0.07447421
36	0x3cbbbcad	0.022917116
37	0x800166ed	-1.28758e-40
38	0x3e158559	0.1460165
39	0xbd07fae5	-0.033198256
40	0xbcd161d5	-0.025559345
41	0x3dab8902	0.083757415
42	0xbd9a9c05	-0.075492896
43	0x3ddd8837	0.108169965
44	0x3e1dd675	0.1541384
45	0x3de13ca5	0.10997895
46	0x3d0a5f34	0.0337822
47	0x3d83605c	0.064148635
48	0x3e533eb8	0.20629394
49	0x3e9b48a3	0.30328855
50	0x3ccda01d	0.025100762
51	0x3a984746	0.0011617921
52	0xbebcc79f	-0.3687105
53	0x3cc958b3	0.024578428
54	0x3d86bc10	0.06578839
55	0xbe33cbd1	-0.17558219
56	0xbe99bf74	-0.3002888
57	0x3d661be0	0.056178927
58	0xbd228984	-0.039681926
59	0xbda8f40f	-0.082496755
60	0x3ed3acb8	0.4134271
61	0xbdbdc941	-0.09266902
62	0xbebabd75	-0.3647267
63	0x3e9e83b7	0.30959865
64	0x3d5d169f	0.05397665
65	0x3e3ce144	0.18445307
66	0x3ebb3bc3	0.36569032
67	0xbc71819b	-0.014740373
68	0x3e8da8f3	0.2766796
69	0xbcfbc0ab	-0.03073152
70	0xbe01c752	-0.12673691
71	0x3e140546	0.14455137
72	0xbe9408c1	-0.2891293
73	0x3b775d74	0.0037744911
74	0xbd9b2ae2	-0.075765386
75	0xbe1c5fa1	-0.15270855
76	0x3da76cb8	0.08175033
77	0x3daa273d	0.08308265
78	0xbddc4aa8	-0.10756427
79	0x3d4b969e	0.049704187
80	0x3e52add8	0.20574129
81	0xbe02959e	-0.12752387
82	0x3e604a69	0.21903385
83	0x3d976811	0.07392896
84	0x3c3133a3	0.010815534
85	0x8001680d	-1.29162e-40
86	0xbdc230b1	-0.094819434
87	0x3c1c899d	0.009554294
88	0xbc46492c	-0.0121024065
89	0x3e146b79	0.14494123
90	0xbe73518d	-0.23761578
91	0xbd4e50de	-0.05037009
92	0x3da5b71c	0.08091566
93	0xbea10bc2	-0.31454283
94	0x3ee3e176	0.4450795
95	0x3d68272f	0.056677993
96	0x3dbdf718	0.09275645
97	0x3efb2211	0.49049428
98	0x3d249f2f	0.04019087
99	0x3d280375	0.041018922
100	0x3d1c33e5	0.038135428
101	0x3e0c6db5	0.13713725
102	0x3d7bc28f	0.061464842
103	0x3cadbb57	0.021207495
104	0x3e17b14a	0.14813724
105	0xbd600bf4	-0.0546989
106	0xbbf6dac9	-0.0075334054
107	0x3e7d29c7	0.24722968
108	0xbdb3477a	-0.087538674
109	0x3ccfb9a7	0.02535708
110	0x3d9026b4	0.07038632
111	0x3edccb10	0.43123674
112	0xbbe663af	-0.007030926
113	0x3dad6ce9	0.084680386
114	0x3e49c9f4	0.19705945
115	0xbe0a0f9c	-0.13482517
116	0x3de54276	0.11194317
117	0x3e2710fd	0.16315074
118	0xbd94402b	-0.072388016
119	0x3e1bcc4d	0.15214653
120	0x3c705fb3	0.014671254
121	0x3e3d7973	0.1850336
122	0xbdf778a6	-0.12083559
123	0x3b7988c7	0.003807591
124	0xbdb53b8b	-0.088492475
125	0x3d2e5e1c	0.04257022
126	0xbda48144	-0.08032468
127	0x000111d0	9.8225e-41
128	0x35a6129f	1.2373383e-06
129	0xaf1fb1a1	-1.4524072e-10
130	0xb2206aff	-9.337554e-09
131	0x0b5368da	4.0716003e-32
132	0x9111b726	-1.149492e-28
133	0xb3def046	-1.0381386e-07
134	0x8000a0c0	-5.7666e-41
135	0xb7ee4f6f	-2.84088e-05
136	0xb9951b5d	-0.00028439882
137	0x38f63baf	0.00011741311
138	0x9560bd08	-4.538556e-26
139	0x2359e812	1.1812736e-17
140	0xb8cb05e1	-9.680889e-05
141	0x8000eb0b	-8.4318e-41
142	0x000002ce	1.006e-42
143	0xb87e8fc0	-6.0692197e-05
144	0xb8a580d2	-7.891808e-05
145	0xb8e5baac	-0.00010954341
146	0xb7eec2bc	-2.8462491e-05
147	0xb408dcab	-1.2746266e-07
148	0x000075b2	4.2221e-41
149	0xb536ca7c	-6.8094937e-07
150	0xafcabf52	-3.6879527e-10
151	0xb25f6e28	-1.3005355e-08
152	0xb13caa52	-2.7454417e-09
153	0xb5882291	-1.014285e-06
154	0xb6bb7ddc	-5.5876862e-06
155	0x000071ee	4.087e-41
156	0x9d93c484	-3.911377e-21
157	0xa5baa1c3	-3.237547e-16
158	0xb660308b	-3.3406857e-06
159	0x00009f03	5.7043e-41
160	0x366b8034	3.5092353e-06
161	0x800019c4	-9.243e-42
162	0xaa83d9f2	-2.3421505e-13
163	0xa7ad01b6	-4.8019e-15
164	0xb7314784	-1.0566673e-05
165	0x00019e83	1.48699e-40
166	0x33c4eba3	9.169823e-08
167	0x8000b084	-6.3322e-41
168	0xb73adbf9	-1.113768e-05
169	0xb741983e	-1.1539143e-05
170	0x0000c3f0	7.0289e-41
171	0xb7265b73	-9.915663e-06
172	0xb3963b19	-6.995669e-08
173	0x0337d604	5.4024544e-37
174	0x8000c181	-6.9416e-41
175	0x8000a13a	-5.7837e-41
176	0x32c7045e	2.3168635e-08
177	0x2bdd750e	1.5735484e-12
178	0xb797551c	-1.8040235e-05
179	0x0001c887	1.63771e-40
180	0x2934c565	4.013924e-14
181	0x0000f66d	8.8401e-41
182	0xb845ff8c	-4.7206457e-05
183	0x8000c6bd	-7.1294e-41
184	0xb4a05fee	-2.987212e-07
185	0xabb56562	-1.2888963e-12
186	0x00028852	2.32574e-40
187	0xafdadc4b	-3.9810497e-10
188	0xb9077865	-0.00012919454
189	0x80002e44	-1.6597e-41
190	0x00006fdb	4.0126e-41
191	0xb56683a2	-8.587323e-07
192	0xb3da5e56	-1.0168576e-07
193	0xb2083b32	-7.929701e-09
194	0x80029a93	-2.39122e-40
195	0xb597cde4	-1.1310299e-06
196	0xb2879da0	-1.5787748e-08
197	0xa9fa1e43	-1.110748e-13
198	0xb805403f	-3.1769505e-05
199	0xa9582d78	-4.8001073e-14
200	0xb5d14612	-1.5592107e-06
201	0x22a11c1b	4.3668895e-18
202	0xb5a5163a	-1.2299927e-06
203	0xa4a92c08	-7.336666e-17
204	0x3269a1fb	1.3599215e-08
205	0xb8362472	-4.3426124e-05
206	0xb6ca93e7	-6.037287e-06
207	0xb55a91b6	-8.1423366e-07
208	0xb3b3d339	-8.373758e-08
209	0x2e7a72c7	5.694536e-11
210	0x2a618e02	2.0033283e-13
211	0xadde6ad3	-2.5285917e-11
212	0xb95efe6e	-0.00021266352
213	0x80013aa7	-1.12876e-40
214	0x8001689f	-1.29366e-40
215	0xb20c91f5	-8.182259e-09
216	0xb6980d13	-4.531475e-06
217	0x0000082e	2.934e-42
218	0xb749da22	-1.2031322e-05
219	0x80034c8e	-3.02969e-40
220	0x329bfe4f	1.8160021e-08
221	0xb59acb6c	-1.1533098e-06
222	0xad334252	-1.0189698e-11
223	0xb0c5f04b	-1.4401932e-09
224	0x9b803a98	-2.121369e-22
225	0xb1053609	-1.9384763e-09
226	0x2db62002	2.0705219e-11
227	0xb6acdc61	-5.151655e-06
228	0xb8982414	-7.254645e-05
229	0xb481f4b5	-2.420617e-07
230	0x000038e5	2.041e-41
231	0xac855c47	-3.790332e-12
232	0xb80df100	-3.384147e-05
233	0x37268184	9.924526e-06
234	0xb5e6433a	-1.7155901e-06
235	0x3587d156	1.0119209e-06
236	0xb8601481	-5.3424857e-05
237	0xb4b4611e	-3.3598275e-07
238	0xb7e5e45b	-2.7405264e-05
239	0xae1e8621	-3.604417e-11
240	0xb8cb85ca	-9.7047145e-05
241	0xb7134dc2	-8.779987e-06
242	0x8000aaca	-6.1268e-41
243	0x9d164edf	-1.989311e-21
244	0x2ed1ad73	9.5350304e-11
245	0x0001c90e	1.6396e-40
246	0x379c896d	1.8660643e-05
247	0x93589f0c	-2.734145e-27
248	0xb57b2135	-9.355311e-07
249	0xb276c7ce	-1.4364515e-08
250	0xb8b3700b	-8.556255e-05
251	0xb73aa724	-1.1125379e-05
252	0x000089e4	4.9466e-41
253	0x284db940	1.1419956e-14
254	0xb64ece76	-3.0816568e-06
255	0x80027f90	-2.29432e-40

act_conv1.bias f4 [4]
0	0x3e1772ff	0.14789961
1	0xbb3d0672	-0.0028842953
2	0xbd19c1e3	-0.03753842
3	0x3ea22324	0.31667435

act_fc1.weight f4 [36, 144]
0	0xbdcaf65f	-0.09910273
1	0xbda719d6	-0.08159225
2	0xbd6e208e	-0.058136515
3	0x3dec1cc6	0.115289256
4	0xbd0cbbee	-0.03435891
5	0xbd6af303	-0.05736066
6	0xbe045834	-0.12924272
7	0xbe0650ae	-0.13116714
8	0xbde90bdb	-0.113792144
9	0xbe52cb9e	-0.20585486
10	0xbdccd43b	-0.10001417
11	0xbdfc72a9	-0.12326557
12	0xbe6372fe	-0.22211835
13	0x3db773af	0.08957612
14	0x3dd0ab6a	0.10188945
15	0xbe04e285	-0.12977035
16	0xbdf856e8	-0.12125951
17	0xbe18df0a	-0.14928833
18	0xbcec7330	-0.02886352
19	0x3d5f0cf3	0.05445571
20	0xbe054270	-0.13013625
21	0xbdeb91e6	-0.11502437
22	0xbe1db037	-0.15399252
23	0xbe059310	-0.13044381
24	0xbe95732f	-0.2918944
25	0xbe8e9310	-0.27846575
26	0xbdaec7cf	-0.08534204
27	0xbe45fa78	-0.19333827
28	0xbdd99d1a	-0.10625668
29	0xbcac7e2e	-0.02105626
30	0xbde4e2fc	-0.11176106
31	0x3dad626b	0.08466037
32	0xbe3061e7	-0.17224847
33	0xbcee70d4	-0.029106535
34	0xbe0719d5	-0.13193448
35	0xbe38a7a9	-0.18032707
36	0x80000f36	-5.457e-42
37	0x80006391	-3.5718e-41
38	0x000026cc	1.3918e-41
39	0x0000a4e3	5.915e-41
40	0x8000b6ce	-6.5578e-41
41	0x800097cd	-5.4456e-41
42	0x00006530	3.6299e-41
43	0x00002172	1.1998e-41
44	0x800044e6	-2.4716e-41
45	0x0000bbce	6.7372e-41
46	0x000078fd	4.3402e-41
47	0x8000c87a	-7.1917e-41
48	0x80001e4f	-1.0873e-41
49	0x800047f8	-2.5818e-41
50	0x00000465	1.576e-42
51	0x000036b3	1.9622e-41
52	0x00000201	7.19e-43
53	0x000083d3	4.729e-41
54	0x0000bdd3	6.8096e-41
55	0x00025306	2.13454e-40
56	0x83a4f76b	-9.695858e-37
57	0x000a75eb	9.60656e-40
58	0x00002d6a	1.6291e-41
59	0x00000318	1.11e-42
60	0x80003bed	-2.1497e-41
61	0x8000169d	-8.112e-42
62	0x0000cd4b	7.3645e-41
63	0x80004700	-2.547e-41
64	0x8000b2bf	-6.4122e-41
65	0x00001ed6	1.1062e-41
66	0x80007198	-4.075e-41
67	0x000027d3	1.4286e-41
68	0x00007471	4.1771e-41
69	0x80009bc2	-5.5875e-41
70	0x8000b79d	-6.5868e-41
71	0x8000c8e1	-7.2062e-41
72	0x3b181256	0.0023204288
73	0x3c1247fe	0.008928297
74	0x3c393850	0.01130493
75	0x3d9c8412	0.07642378
76	0xbd04a978	-0.03238818
77	0xbcc9b0d3	-0.02462045
78	0x3d683d67	0.056699183
79	0x3cdea07e	0.027176138
80	0x3d623dce	0.055234723
81	0x3ba34173	0.0049821674
82	0x3dc44e27	0.09585219
83	0xbdcdc522	-0.10047366
84	0x3dc41e9f	0.09576153
85	0xbcf8b953	-0.030361807
86	0xbd57b31e	-0.052661054
87	0x3b2d9c70	0.002649095
88	0x3d8135db	0.063091
89	0xbd09cbc4	-0.03364159
90	0x3ec2527e	0.37953562
91	0xbe6cc3dd	-0.23121591
92	0xbc72f0bb	-0.014827902
93	0x3d2b3711	0.041800562
94	0x3b9d65a3	0.004803376
95	0x3c8b6f12	0.017020736
96	0xbc887f9a	-0.016662408
97	0xbdae7360	-0.085181
98	0x3d870f2b	0.0659469
99	0xbba5e577	-0.0050627547
100	0xbd306b0d	-0.04307084
101	0x3c81503f	0.015785335
102	0xbf57faba	-0.84366953
103	0x3edb35cd	0.42814484
104	0x3e0382ab	0.12842815
105	0xbc143fe8	-0.00904844
106	0x3da88314	0.08228126
107	0x3d59c4dd	0.05316626
108	0x3a95ab65	0.0011418877
109	0xbe29ae77	-0.1657046
110	0xbdb5e1f2	-0.08880986
111	0xbe183e88	-0.14867604
112	0x3de5fb40	0.11229563
113	0xbd51de60	-0.051237464
114	0x3c8dfe09	0.017333047
115	0xbcf861d3	-0.030320084
116	0x3c95bb0c	0.018277667
117	0x3d5310a5	0.051529545
118	0xbbd0a154	-0.006366888
119	0xbbd16343	-0.0063900067
120	0xbcb66ea3	-0.022269553
121	0x3da73f22	0.081663385
122	0xbc1a0cd6	-0.009402474
123	0xbd042804	-0.032264724
124	0xbd560e35	-0.052259643
125	0xbcf0d972	-0.029400561
126	0xbc068ffb	-0.008213039
127	0x3e5019bc	0.20322317
128	0xbd83e281	-0.064396866
129	0x3c531685	0.012883787
130	0xbdad28af	-0.084550254
131	0xbc3e8a9d	-0.011629728
132	0xbec6f921	-0.38861945
133	0x3e345100	0.17609024
134	0x3cda14b9	0.02662121
135	0x3d25c1a2	0.040467866
136	0x3d46cd25	0.048535485
137	0x3cf25c20	0.029584944
138	0x3e52f218	0.20600164
139	0x3ebab20a	0.36463958
140	0x3e3878b6	0.18014798
141	0xbd2b7417	-0.04185876
142	0xbd4971c0	-0.049180746
143	0xbdb3776f	-0.087630145
144	0xbd438845	-0.04773738
145	0xbd998d84	-0.07497695
146	0xbcc3309e	-0.023826893
147	0x3d220b58	0.0395616
148	0x3c251526	0.010075843
149	0x3d2e36f6	0.042532884
150	0x3da16d76	0.07882206
151	0xbe19c305	-0.150158
152	0xbd52fc6d	-0.051510263
153	0xbe243482	-0.16035655
154	0xbd8d51df	-0.06900381
155	0xbe202a30	-0.15641093
156	0xbdba8dbe	-0.091090664
157	0xbdec2347	-0.11530166
158	0x3cd7614b	0.02629151
159	0x3e7079db	0.23483984
160	0xbda43a0f	-0.08018886
161	0x3cd56bfd	0.02605247
162	0xbdcf9e14	-0.10137573
163	0xbd543685	-0.051809806
164	0xbc759567	-0.014989234
165	0xbe0e9e4a	-0.1392757
166	0xbe37de95	-0.17956002
167	0xbcde4ea6	-0.027137112
168	0xbe8e226a	-0.2776063
169	0xbd03f6ab	-0.032217663
170	0xbe141121	-0.14459659
171	0xbe061ad7	-0.13096176
172	0xbe36e7f9	-0.17861928
173	0x3d3ee9bc	0.046609625
174	0xbe77d49c	-0.24202198
175	0x3b7d9e4f	0.0038699096
176	0x3cec657e	0.028856989
177	0xbe5123c9	-0.20423807
178	0xbd67df48	-0.056609422
179	0x3975f112	0.00023454826
180	0x000003e8	1.401e-42
181	0x80004305	-2.4042e-41
182	0x00003199	1.7792e-41
183	0x8000162a	-7.951e-42
184	0x0000439e	2.4256e-41
185	0x8000e9ff	-8.3942e-41
186	0x800025dd	-1.3583e-41
187	0x80004f78	-2.8508e-41
188	0x00006654	3.6708e-41
189	0x800050e7	-2.9022e-41
190	0x800087d9	-4.8733e-41
191	0x8000a061	-5.7533e-41
192	0x8000547b	-3.0306e-41
193	0x0000096a	3.377e-42
194	0x0280d1dc	1.8928363e-37
195	0x00001191	6.302e-42
196	0x8000b611	-6.5313e-41
197	0x800075c1	-4.2242e-41
198	0x80006a03	-3.803e-41
199	0x000009d3	3.524e-42
200	0x8038520e	-5.172223e-39
201	0x80003f56	-2.272e-41
202	0x00001a5d	9.457e-42
203	0x0000c440	7.0401e-41
204	0x800060cc	-3.4724e-41
205	0x0000407a	2.313e-41
206	0x00005f44	3.4175e-41
207	0x800026d4	-1.3929e-41
208	0x0000956d	5.3604e-41
209	0x0000bd19	6.7835e-41
210	0x80004e28	-2.8037e-41
211	0x8000bf3e	-6.8605e-41
212	0x00002eaa	1.674e-41
213	0x80000bc4	-4.221e-42
214	0x00003d18	2.1916e-41
215	0x80002fa9	-1.7097e-41
216	0x3db32a6d	0.087483265
217	0x3d711da7	0.05886617
218	0xbcaf43c3	-0.021394616
219	0x3c99f2b5	0.01879249
220	0xbb8d5874	-0.004313523
221	0xbd1d6d7a	-0.038434483
222	0xbcb94e08	-0.022620216
223	0xbcc144bb	-0.023592344
224	0xbd35e221	-0.044405106
225	0x3e06bef0	0.13158774
226	0x3c2a8d77	0.010409704
227	0x3de0bf38	0.10973972
228	0xbd84b8ec	-0.064805835
229	0x3d0a60e6	0.033783816
230	0xbc9ed8fb	-0.019390574
231	0xbd9e6e24	-0.077358514
232	0xbc00137a	-0.007817144
233	0x3cf87547	0.03032936
234	0x3e1ceb29	0.15324081
235	0x3e4fbcf9	0.20286931
236	0xbe266fdb	-0.16253607
237	0xbdbbb3c1	-0.09165145
238	0x3cd16c28	0.025564268
239	0x3d0a9fe2	0.033843882
240	0xbedf09e7	-0.43562242
241	0x3bb9a4c0	0.0056653917
242	0x3d25cf8c	0.040481135
243	0xbadec11f	-0.001699481
244	0xbda8b88e	-0.08238326
245	0xbe01caca	-0.12675014
246	0x3e147097	0.14496075
247	0xbe9671ec	-0.2938379
248	0x3ee08a43	0.43855485
249	0x3d845de2	0.06463219
250	0x3d6f3cec	0.05840771
251	0x3bd41b1b	0.006472958
252	0xbd99cf8d	-0.0751029
253	0xbd885cfc	-0.0665836
254	0xbd4eed3a	-0.050519206
255	0xbdfee7e9	-0.12446577

act_fc1.bias f4 [36]
0	0xbe38df4a	-0.18053928
1	0xbde261d1	-0.11053813
2	0xbe030995	-0.12796624
3	0xbe24abb3	-0.16081123
4	0xbe1969d2	-0.14981773
5	0xbe7e2685	-0.24819382
6	0xbe467430	-0.1938026
7	0x3da005d5	0.07813612
8	0xb693774b	-4.394829e-06
9	0xbd2ad5d8	-0.041707844
10	0xbcc5658d	-0.024096275
11	0xbe17acc7	-0.14812003
12	0xbe09da42	-0.13462165
13	0x3d3ee623	0.046606194
14	0x3e4d91d1	0.20075156
15	0x3dd56375	0.104193605
16	0x3a0cba60	0.0005368348
17	0xbd90daad	-0.07072959
18	0xbdd97546	-0.10618071
19	0xbc522f54	-0.012828667
20	0x3e3bd978	0.18344676
21	0x3e3955ca	0.18099132
22	0x3d038071	0.032104913
23	0x3c94b274	0.0181515
24	0xbe0d740d	-0.13813801
25	0x3db959a3	0.090503
26	0x3dcc0a63	0.099629186
27	0x3d7f5df7	0.06234547
28	0x3c4dd853	0.012563783
29	0xbd9347d7	-0.07191437
30	0xbe4bd527	-0.1990553
31	0xbdd2dabc	-0.102956265
32	0xbdfbc31b	-0.12293073
33	0xbdd97222	-0.10617472
34	0xbd0aec9b	-0.03391705
35	0xbe2b58a1	-0.16733028

val_conv1.weight f4 [2, 128, 1, 1]
0	0xbc1610d0	-0.009159282
1	0x3e03cf86	0.12872133
2	0x3da3fd0b	0.080072485
3	0x3e54ed76	0.20793709
4	0x3b8501cc	0.004059052
5	0x3ea4a19f	0.32154557
6	0x3dfc0631	0.123058684
7	0xbeaf4af4	-0.34236872
8	0x3d9242a8	0.0714162
9	0xbd74e435	-0.059787948
10	0x3e44378f	0.19161819
11	0x3e08559d	0.13313909
12	0xbe3c77ba	-0.18405047
13	0xb5578fcb	-8.030299e-07
14	0x3aa28106	0.0012398071
15	0xbe4dd31e	-0.20100066
16	0xb9d9ea12	-0.0004156386
17	0xbe5af433	-0.21382217
18	0xbe18b0c7	-0.14911185
19	0x3e2d7abe	0.16941354
20	0x1869d3a0	3.0221387e-24
21	0x3d2c2288	0.04202512
22	0x3ef7c2b9	0.4839075
23	0x3db46c1b	0.08809682
24	0x3cb4507c	0.022011034
25	0x3db8ca45	0.09022955
26	0xbe53a5d4	-0.20668727
27	0x3d42827a	0.047487713
28	0x3dbfba58	0.09361714
29	0x3deba54f	0.115061395
30	0xbdad74c4	-0.08469537
31	0x3e57b282	0.21064189
32	0xbea5fd2c	-0.32419717
33	0x39a6d939	0.0003182383
34	0x3e0faa27	0.14029752
35	0x3d31ba9b	0.04339085
36	0xbe0dc27d	-0.13843723
37	0xb48c4f22	-2.613461e-07
38	0xbf2377a6	-0.63854444
39	0x3c91bf70	0.01779148
40	0x3d9e20bf	0.077210896
41	0x3d96bd74	0.07360354
42	0xbe4f97ac	-0.20272702
43	0xbe475578	-0.19466197
44	0x3ead0c19	0.33798292
45	0xbea39c88	-0.3195536
46	0xbdc645da	-0.09681292
47	0x3e0bf248	0.13666642
48	0x3c401940	0.01172477
49	0xbb85f81c	-0.004088415
50	0x3e7ff893	0.24997167
51	0x3c93e1fa	0.01805209
52	0x3e1b37cf	0.15158008
53	0xbbd9254b	-0.00662676
54	0xbeeec916	-0.4663779
55	0xbe31c0f2	-0.17358759
56	0xbe105a24	-0.14096886
57	0x3e8eb490	0.27872133
58	0x3a20d5f6	0.0006135398
59	0x3d933ae3	0.07188966
60	0xbd2dd742	-0.042441614
61	0xbe58dade	-0.21177241
62	0xbbf3d597	-0.0074412334
63	0x3db31d67	0.087458424
64	0x3e2f595e	0.17123935
65	0xbdb4492d	-0.0880302
66	0x3d4be682	0.049780376
67	0x3e2c320f	0.16815971
68	0x3cf2dbc3	0.029645806
69	0x3d439201	0.047746662
70	0x3d95c91d	0.0731375
71	0x3d6b5a80	0.057459354
72	0xbe64aa94	-0.22330695
73	0x3ea0f3d8	0.31436038
74	0x3dc0554d	0.0939127
75	0x3e0a9d78	0.13536632
76	0x3cbca51d	0.02302795
77	0xbda14d19	-0.07876033
78	0x3d95136b	0.07279094
79	0x3e824bdd	0.25448504
80	0x3d211cd0	0.03933412
81	0x3dea013b	0.11426016
82	0x3caf6f5d	0.021415407
83	0x3d9f6661	0.07783199
84	0x3c3d288b	0.011545311
85	0x8003112d	-2.81668e-40
86	0xbdb6bffc	-0.08923337
87	0x3e95d9f2	0.29267842
88	0xbe5f2d4e	-0.21794626
89	0xbd659191	-0.056047026
90	0x3dc75706	0.09733395
91	0xbdc8abe8	-0.097984135
92	0xbb21ee83	-0.0024708814
93	0x3c16c435	0.009202053
94	0x3e2a2d56	0.16618857
95	0x3d8e4ef1	0.06948651
96	0x3e0438f9	0.12912358
97	0xbe32b8f5	-0.17453368
98	0x3d20a572	0.03922028
99	0x3c9a2494	0.01881627
100	0xba2c9785	-0.00065838575
101	0x3d61dbfc	0.055141434
102	0xbe408cbc	-0.18803686
103	0xbea9ce7a	-0.33165342
104	0x3b83bceb	0.0040203235
105	0xbe8faa06	-0.28059405
106	0x3e06c40f	0.13160728
107	0xbec3fa21	-0.3827677
108	0xbeb0b2b9	-0.34511355
109	0x3e3f7b29	0.18699326
110	0x3e06c182	0.13159755
111	0xbe388c5b	-0.18022291
112	0xbe475ad0	-0.19468236
113	0xbe066c41	-0.13127233
114	0xbe10fd66	-0.14159164
115	0x3e386676	0.18007836
116	0x3e326260	0.1742034
117	0x3c90d67e	0.017680403
118	0xbea863de	-0.32888693
119	0xbe180b23	-0.14847998
120	0x3e13bca2	0.14427426
121	0x3df4b995	0.119494595
122	0xbec44c4e	-0.38339466
123	0x3d50ab11	0.05094439
124	0xbe68dddc	-0.22740883
125	0x3d638c15	0.055553515
126	0x3c5afbb1	0.013365672
127	0x000070d0	4.047e-41
128	0x3c8ccaec	0.017186604
129	0xbec3c24d	-0.38234177
130	0xbe8a0fb9	-0.2696512
131	0xbdbc24ed	-0.091867305
132	0xbee3e44c	-0.44510114
133	0xbe6b4676	-0.22976097
134	0xbeccdc6f	-0.40011927
135	0xbd16b31d	-0.03679191
136	0x3d6c576b	0.057700556
137	0xbdec899e	-0.11549686
138	0x3df8c795	0.12147442
139	0xbea52b08	-0.32259393
140	0x3e5fc4de	0.21852443
141	0xafa90758	-3.074614e-10
142	0x30889d1a	9.939953e-10
143	0x3da9ae1e	0.08285163
144	0xbb6d4c23	-0.003620871
145	0xbcd5c825	-0.026096413
146	0xbded24a8	-0.11579257
147	0xbee9e772	-0.4568439
148	0x03e06804	1.31894175e-36
149	0x3ca4298d	0.020039344
150	0xbe9fd0d8	-0.31214023
151	0xbe4bc44c	-0.198991
152	0xbecfef1a	-0.40612108
153	0x3e1cf85c	0.15329117
154	0xbe680d7d	-0.22661395
155	0x3e68ac02	0.22721866
156	0xbedf716f	-0.4364123
157	0xbf0ee59b	-0.558191
158	0x3e8eac53	0.27865848
159	0x3b9e8222	0.0048372904
160	0x3d75a15c	0.059968337
161	0x1f2a6233	3.608013e-20
162	0xbeb24b95	-0.3482329
163	0xbe0bcb1a	-0.13651696
164	0x3dfd566d	0.1237
165	0xad81b457	-1.4745689e-11
166	0x3e3d4b87	0.18485843
167	0x3dde6a22	0.10860087
168	0x3e418188	0.18897069
169	0x3dc52d6b	0.096278034
170	0x3e8cb096	0.27478474
171	0x3d32618c	0.04355006
172	0xbede165c	-0.43376434
173	0x3dd40307	0.1035214
174	0x3c22000d	0.009887707
175	0xbe536656	-0.20644507
176	0x3c1912bf	0.009342848
177	0x3c7081c8	0.01467938
178	0x3d3b0280	0.04565668
179	0xbc7be196	-0.015373608
180	0x3dbe6925	0.092973985
181	0xbdf5e8be	-0.12007283
182	0x3c7bb4ef	0.015362962
183	0xbe8a668b	-0.2703136
184	0xbe0b06b9	-0.13576783
185	0xbe6b7f99	-0.22997893
186	0x3d382dc8	0.044965535
187	0x3e8f30c5	0.27966896
188	0xbef1f211	-0.47254995
189	0xbe74858d	-0.2387907
190	0xbd5a6886	-0.053322338
191	0xbef395c3	-0.47575197
192	0x3e46de34	0.19420701
193	0xbeb079a7	-0.34467813
194	0x3cc3adf8	0.023886666
195	0x3dcb57bf	0.099288456
196	0x3e713e62	0.23558953
197	0x3ce738ce	0.028225329
198	0x3daaa331	0.083319075
199	0xbc4cdb09	-0.012503394
200	0x3e04e560	0.12978125
201	0xbe97efa9	-0.29675034
202	0x3e3ffb9b	0.18748324
203	0xbe93a54a	-0.28837043
204	0x3d90a934	0.07063523
205	0xbd506dde	-0.050886028
206	0x3d9c01b3	0.076175116
207	0xbcfbbc77	-0.030729515
208	0xbd49fd10	-0.049313605
209	0xbd1e9316	-0.03871449
210	0x3ce5bec8	0.028045073
211	0xbd032ff9	-0.032028172
212	0x3c0e7228	0.008694209
213	0x00a9c92c	1.5592366e-38
214	0x3e3a3451	0.1818402
215	0xbe5729d3	-0.21012048
216	0x3e3afc3e	0.18260285
217	0x3e2df247	0.16986953
218	0x3e14f30a	0.14545837
219	0xbd7c6473	-0.061619233
220	0x3d0df550	0.034657776
221	0x3cc0919d	0.023506934
222	0x3c8288e5	0.015934417
223	0xbef6e77c	-0.48223484
224	0xbe9fd567	-0.312175
225	0x3d98ef74	0.07467547
226	0x3e0f92aa	0.14020792
227	0xbc45f67e	-0.012082694
228	0x3b174a92	0.002308522
229	0x3d8c698d	0.0685607
230	0xbb6d55bf	-0.0036214439
231	0x3d9e92ed	0.077428676
232	0xbaed1b97	-0.0018089887
233	0xbdab34e0	-0.083596945
234	0xbebad741	-0.3649235
235	0x3d531263	0.051531207
236	0x3addf7f0	0.0016934853
237	0xbefa0fab	-0.4884008
238	0xbeb7edd6	-0.35923642
239	0x3df4da1d	0.11955664
240	0x3e17c5b5	0.14821513
241	0x3e0a0a15	0.13480408
242	0xbcd4b813	-0.02596668
243	0x3e8bb07f	0.27283093
244	0x3e23aef7	0.15984713
245	0xbf193cca	-0.5985838
246	0x3e05c0b5	0.13061793
247	0xbea1b83f	-0.3158588
248	0xbe7fab0c	-0.24967593
249	0xbe8ca658	-0.2747066
250	0x3c2c068f	0.010499611
251	0xbd60f5fc	-0.05492209
252	0x3e8436d9	0.25823095
253	0x3d9faa18	0.07796115
254	0xbe4b2106	-0.19836816
255	0x0c910f9a	2.2350177e-31

val_conv1.bias f4 [2]
0	0x3d40db71	0.047084276
1	0x3df2cc30	0.11855352
