best_policy_11_11_5.pt (torch, 678965 bytes, 15 tensors)

conv1.weight f4 [32, 4, 3, 3]
00000000: 58cb 993e 094f 2abe c529 c6bd ea57 26be
00000010: 7eb1 123d 64b6 15bc ee36 693e 9faa 053e
00000020: 650d b73d a4b0 09be 6cde 7c3e f306 09be
00000030: d485 533e d6b8 2a3e b34a ccbd ef4b b9bd
00000040: 2d41 7fbe 1f55 9fbd 3e38 dfba 669f fbbd
00000050: 71ec 7c3d 9aa5 573d f913 b53d e28c d1bd
00000060: a38f 633d f4fc f93c cfb0 003e cd20 d9bd
00000070: 8a16 013d cadd 3b3d cfbc c03d 6f0b 9b3d
00000080: 7597 60ba df4b 193e 4efe 75bd 6f32 703d
00000090: 1b75 2b3e 82c2 adbc 0d4b 533d 0b1a 4e3d
000000a0: 124e 02be 7516 303e b91b 9f3e 5273 293e
000000b0: e756 36be 3c37 9d3d 8024 9c3e e521 1c3e
000000c0: ea9a 81bd 9b1b 733e ceb9 233d 3b00 a9bc
000000d0: 804b c23d 0b9a a0bd 6816 97bb 0982 193e
000000e0: a2bd 21bd b9cd d73c 0721 99bd 250e 373d
000000f0: 57c1 02be 50fa 843d 8c4f a63b 7d0f efbd
00000100: 9126 753d 5f8c e1bc 9b95 a7bd ab2d b33c
00000110: c269 4fbd 42b6 aa3b 913c 76bd 0c65 96bd
00000120: fe96 0ebd f0b6 f73d 0a9d 22bd fd12 843d
00000130: c700 c63d 4d71 a43e 9d95 9639 ae55 8abc
00000140: 7d97 19be 821e ccbc 8e15 4dbe 2857 8e3d
00000150: cde7 b1be b28b 733e d1a3 81bd 976e 4f3e
00000160: 5e1c 913e 04f2 d13c d10f 31bc e8f7 2dbb
00000170: 5311 fb3d a440 c13d d268 4e3b e5ee 943d
00000180: b867 df3c 60b0 f8bc 2157 56bd ce62 a73d
00000190: 6402 3d3d 2e25 03be 3b30 1ebd 72fd f8bd
000001a0: 5ca3 513d 9538 efbd f62d 053e 5edc 283e
000001b0: 187c 983d 443c aaba 4fce 203e d190 f33d
000001c0: 30ef 95bc 7066 32bd 8819 5e3d 4df2 18be
000001d0: 2a75 463e 7b13 453e feb1 b03e d25b 4bbe
000001e0: 9026 e0ba 58bd a0be 85b5 fb3d 0089 70be
000001f0: ae50 283e fb2c 9b3e e31d 063e dc0a d83d
00000200: 0c6b 0bbd 57f5 46bd 6def 02be 4eed c7bd
00000210: 883c fcbd 88ea 01bd f69b 8f3d 3e1e 423d
00000220: 9a59 dabd 5d07 2ebe 2604 6dbc 8459 5b3d
00000230: c87c cf3d d7e0 533d 8ba3 b03c a18e bf3c
00000240: 9458 8abd aa92 983e 9f1a a63d 0234 8b3e
00000250: 18cc 973b 9c50 ec3d 27de ad3e 2f6f 3c3e
00000260: 1ed6 edbd f9f6 d23d 9a35 70bd 312d 49be
00000270: 2327 b2bd 76ae c93d 5c63 3ebb 06ca fc3b
00000280: 9640 27be 82f9 8b3d 729f 263d f29a 7d3d
00000290: ce54 4b38 d1bd 46bd 34d8 e53d 6ef6 4ebd
000002a0: 56d2 d53d 806e 2abd e266 ca3d 8907 673d
000002b0: a103 8b3d f7ef d1bd 21f7 1cbe c2ee 133e
000002c0: 5ac4 24bc cf8e 9e3d 74ba 0bbe 37e0 e13d
000002d0: 6113 dc3d b57d 6dbe adac 29be a791 373e
000002e0: b5d1 383e 0c74 90be a322 b53e ea0b 353e
000002f0: aa4a fdbd dab9 15bd 7a4a ad3e 96ea bd3d
00000300: 7fcd 20be 1503 d7bd 5aa8 5d3e 59ba 02be
00000310: b3f7 1bbd 3886 87be 7bb6 763d 4da5 983d
00000320: 4024 b53c 9fab 003e 286b cfbd c0f4 86bc
00000330: aa9e c63d c752 16be e2f3 5e3d 7a22 80bc
00000340: 7583 13be fc4b 893d 67c8 c63d 4d93 003e
00000350: 3538 023e cdd0 c63d ab3b e4bc d4f9 213d
00000360: bdb6 d13d 3279 e6bd ebe1 753c 9ea4 4dbe
00000370: d782 b83e 966a 903e cb7b dd3d 60c9 343e
00000380: 23ba ea3d b49d 443d db06 413c 91a0 453d
00000390: 9e54 a7bd 8167 47bc 9789 27bd e705 f3bd
000003a0: 24c9 ac3d 2415 d73d 142a 43bd 2b96 f93d
000003b0: a905 ff3d 9543 803b 3a97 b5bd 9ea4 f53d
000003c0: e573 28be b7e5 b53d 20ef dabd 6f73 a9bd
000003d0: dbc0 c53d 708f 803d 01c7 3a3e 57ef 143e
000003e0: ada3 debd 8247 7e3c 9177 8c3c 0b30 0abe
000003f0: aec0 adbd 0283 0e3e 9665 a03e a008 f7bb
0.3003795 -0.16631712 -0.09675936 -0.16244474 0.0358138 -0.009137724 0.2277486 0.13053368
0.08938102 -0.1344629 0.24694222 -0.13381557 0.2065652 0.16672072 -0.09975185 -0.09047686
-0.24927206 -0.077799074 -0.0017030311 -0.12286262 0.061748926 0.052648164 0.088417 -0.102319494
0.055556905 0.030516125 0.12567447 -0.106019594 0.031515636 0.04586581 0.094110124 0.0757054
-0.0008567491 0.14970349 -0.060056977 0.058641847 0.16743891 -0.021210913 0.051585246 0.050317805
-0.12725094 0.17196067 0.31075838 0.16547897 -0.17806588 0.07676551 0.30496597 0.15247305
-0.06328376 0.23741 0.03997212 -0.020629993 0.09487057 -0.07841881 -0.0046108253 0.1499101
-0.03948749 0.026343213 -0.074770026 0.044691224 -0.12769066 0.06493056 0.0050754007 -0.11672876
0.059851233 -0.027532754 -0.08182832 0.021872362 -0.050637968 0.005209715 -0.060116354 -0.07343492
-0.034811966 0.120954394 -0.039700545 0.06448934 0.09668117 0.32117692 0.000287217 -0.016886558
-0.14999194 -0.024916891 -0.20027754 0.069502175 -0.34747162 0.23783758 -0.063300736 0.2025703
0.28341955 0.025628097 -0.010806994 -0.0026545469 0.12259164 0.09436157 0.0031495583 0.07272128
0.027271137 -0.03035754 -0.052329186 0.081731424 0.046144858 -0.12807152 -0.038620215 -0.12157716
0.051181182 -0.11680714 0.13005814 0.16490313 0.07445544 -0.0012987931 0.157037 0.11892856
-0.01830253 -0.043554723 0.054223567 -0.1493618 0.19380632 0.19245712 0.34510797 -0.19859245
-0.0017101336 -0.31394458 0.122904815 -0.23489761 0.16437027 0.30307755 0.13097338 0.10548946
-0.034037635 -0.048573818 -0.12786646 -0.09762059 -0.12316233 -0.031717807 0.07012169 0.047392122
-0.106616214 -0.16994996 -0.014466321 0.053552166 0.10131222 0.051728096 0.021562358 0.02338344
-0.06755176 0.29799396 0.08110546 0.27188116 0.004632484 0.115388125 0.3395855 0.18401788
-0.11613105 0.103010125 -0.05864487 -0.19646145 -0.08698871 0.09847729 -0.0029050922 0.0077145128
-0.16333231 0.06834699 0.040679403 0.061915345 4.8477952e-05 -0.048520867 0.11222878 -0.050527982
0.10440509 -0.041609287 0.098829046 0.05640367 0.067878015 -0.10250848 -0.15328647 0.14446548
-0.0100565795 0.07742082 -0.13645345 0.11029094 0.10745884 -0.23192485 -0.16569777 0.17926656
0.18048747 -0.28213537 0.35377988 0.17680326 -0.12367757 -0.036554195 0.33845884 0.09273259
-0.1570339 -0.10498635 0.21646252 -0.12766398 -0.03807802 -0.26469588 0.06023262 0.074534036
0.022112012 0.12565468 -0.1012786 -0.016474128 0.096982315 -0.14680015 0.054431804 -0.01564144
-0.14405616 0.06703946 0.097061925 0.12556191 0.12716754 0.09707794 -0.027860483 0.039544895
0.10239933 -0.11253585 0.015007476 -0.20082328 0.36037323 0.2820632 0.10814627 0.17654943
0.11461284 0.04800196 0.01178142 0.04824883 -0.08170436 -0.012170673 -0.0409027 -0.1186636
0.08436802 0.10502079 -0.04764755 0.121868454 0.124522515 0.0039143064 -0.08866735 0.11994289
-0.1645046 0.08881705 -0.10690141 -0.0827397 0.09655925 0.062773585 0.18239976 0.14544426
-0.108710624 0.0155199785 0.017146857 -0.1349489 -0.08484016 0.13917163 0.31327504 -0.00753887

conv1.bias f4 [32]
00000000: f00d 0dbd b162 aebc 6713 af3d ef52 e13d
00000010: 6c81 26bd da96 07be c731 04bd b752 053e
00000020: f601 f2bd b988 5a3e fa62 d73d 76ff 5ebd
00000030: d43e 49bd 7ff7 a43b 3e79 c53c 76ee 9dbc
00000040: 4a7c 933d ad6f 503d 24a4 763c 161c c33d
00000050: 79ba 253e 8d99 dcbc b53f 0ebd 905d fe3c
00000060: 4cf1 a83d 7773 5a3d 8605 c5bc c3c4 f6bd
00000070: f662 e03d 9c70 5b3e 4a82 473d 5f02 3f3e
-0.03443712 -0.021287294 0.085486226 0.110021465 -0.04065077 -0.13241139 -0.032274034 0.13019834
-0.1181678 0.21341218 0.10516925 -0.054442845 -0.049132183 0.0050343866 0.024105664 -0.019278746
0.07201441 0.050887752 0.015053783 0.09526841 0.16184415 -0.026928687 -0.034728725 0.031050473
0.08249149 0.053332772 -0.024050485 -0.12049248 0.10956375 0.21429676 0.048708238 0.18653248

conv2.weight f4 [64, 32, 3, 3]
00000000: 47cd 653d f95c 973d 80f5 913d b16a 24bc
00000010: ff1b 713c 5520 a0bb 4b5b 993d d32c 453d
00000020: 87e1 953d 4f1b e7bd c2cd edbc c659 133d
00000030: 4b4a f9bd 583d 99ba 08a9 373d 704d d7bd
00000040: 0eff 95bd fbe0 30bd eaaf 743c 556e 5ebd
00000050: af0e bcbd c202 573d 1c32 90bd de7d c03c
00000060: 5c13 0abc 12ce 4cbd 4ee6 c5bc f5b1 d3bd
00000070: 6a21 22bc 9ae0 8f3c 0e57 56bd 846a a0bc
00000080: 151c f93b 3dc6 2bbd ae94 babd 90f8 28bd
00000090: 0502 edbc f182 58bc 4f11 eebb c151 1fbd
000000a0: fc63 85bd ec48 363d 33d4 5d3c a9e3 ceba
000000b0: 0d89 c63c f6a7 8ebc 4dad ab3d c409 843d
000000c0: 38c1 ee3a 853d 943d b046 ad3d 9704 e4bc
000000d0: 3926 44bd b632 953d 7535 5dbd 4929 90bd
000000e0: afb6 5a3d f8b1 f63c f545 a13d 319d 803c
000000f0: eb15 093d dcff 04bc 6dd2 833c 94fc 02bc
00000100: 0faf 43bd f764 1a3d 8bd1 82bb 00ce 143c
00000110: 3306 73bd 17b6 19bd 58eb 713d fa0f 9f3d
00000120: a06c 473c a3c7 0d3d f119 a23c 2239 4ebd
00000130: 319f 21bd 5332 5c3c 9a8b 243d aaff 813d
00000140: b09e 82bc 80a6 953d 2150 093d 952c f2bb
00000150: cf16 db3b 2622 163d 7ead fabc ad5f 6b3d
00000160: 9394 ad39 b1a4 eebc c0fd 893c c983 f9bc
00000170: 8207 8a3d 115d b5bb e1e9 4f3d c51b d2ba
00000180: a9bc ca3c dddf 463b 56d7 073d 2f40 ac3d
00000190: c62b d83d f3a9 80bc 97ff 29bd 0572 b43c
000001a0: 6fab ddbc aa69 843d 5eb8 54bc 220a 163c
000001b0: d12f 8c3c 6e16 fc3c ab86 3dbd 8e1b 0d3c
000001c0: 1ea6 4ebd 77a1 a1bc eebf c03c 1229 2dbc
000001d0: 165c 383d cd57 dbbd 80fd 34bd 6f0c c0bd
000001e0: 30fa 423b a59c 8ebb ab4f cfbd 08e0 ba3a
000001f0: 20c7 e2bd e853 8ebd dd0b 94bd 719a 0cbb
00000200: 70b8 99bc 6977 08be be75 bcbd 2e30 8ebd
00000210: 1df7 9dbd 5eb2 bbbd 2621 4cbd 783d b6bd
00000220: 4c76 513d faf3 563c 51f9 d0bd 3b78 80bd
00000230: cf4f edbc 34f1 b2bc dc32 edbb c6e1 ccbd
00000240: 0700 b73c e71e b13d b275 ce3c f2c3 803c
00000250: fa23 bd3c 25cc 0d3b 9e3e f33b 1c7f 7c3c
00000260: f814 8fba d969 203d 9520 72bc 961f 1abd
00000270: e654 773c bdeb 163c cc63 45bd 6671 5cbd
00000280: b66d 2dbd 91d1 40bc 9c32 96bd b47c cabd
00000290: e9ac 12bd ca71 87bc 4738 cd3c 2b12 d03c
000002a0: 3908 47bc 0d16 393c 60da 65bb b10b 383d
000002b0: 9f5e dd3b a03d 8fbb eb31 9e3d 3623 7abd
000002c0: f2cd 5c3d de3b 833d 6356 4a3d 6d81 eebc
000002d0: ef54 003d 0812 1c3d 7f1e 40bc 5a63 943a
000002e0: 6db7 573b 8ebc 2cbd 474a 3fbd 8655 7d3d
000002f0: 585d 6a3b 8525 21bd 8a84 413c 2583 9ebb
00000300: e015 17bd 3800 1e3d 77d1 9c3c e1ff cf3c
00000310: e556 883c 46fe d43c 0af9 6bbd c2d7 d1bc
00000320: 9d88 47bd ac9e 10be 9520 96bd e5c6 8fbd
00000330: f699 efbc e030 59bd d099 11bd d868 2e3c
00000340: 4500 b9bc 6f42 263d c3fb 6dbc 9e03 933d
00000350: 960d 6abc 7268 903b f5f3 f8bb cbf1 35bd
00000360: 3c39 f5b7 6c2b 793c 6acb 8ebc 881b 0bbc
00000370: a707 123d 2a89 3cbd 424c 6c3c 2043 12bb
00000380: 345a 87bd 6a31 c23c d9ee d93d e376 c43d
00000390: 6055 183d 248f 413d 2aa1 99bc 9fb5 16bd
000003a0: b255 11bc 5ad7 40bd 636a d63c c9c0 7a3d
000003b0: 33ba 493d c347 6dbd 9ef1 bcbc 5d4c 8d3d
000003c0: ef83 923c 5373 ce3c 5b9e 163d 105f 7dbd
000003d0: 9484 adbd 77b7 82bd d98d f0bc c807 7d3c
000003e0: 9d75 3b3d 0e0b 79bc 0382 943d 9160 8a3d
000003f0: f423 653d bf1a 0c3d ea5f d83c 5034 543c
0.05610397 0.0739078 0.071269035 -0.010035203 0.014716147 -0.004886667 0.07488116 0.04813845
0.073184066 -0.112845056 -0.029028777 0.035974286 -0.121723734 -0.0011691255 0.044838935 -0.10512817
-0.073240384 -0.043183308 0.014934519 -0.05430444 -0.09182488 0.052492864 -0.070408076 0.023497518
-0.008427467 -0.05000121 -0.02415767 -0.10336677 -0.009895662 0.017563153 -0.052329116 -0.01958204
0.0076022246 -0.0419371 -0.0911039 -0.041252673 -0.028931627 -0.013214813 -0.007265247 -0.038896326
-0.06513211 0.044503137 0.013539362 -0.0015784401 0.024235273 -0.017414074 0.08382664 0.06447175
0.0018215543 0.072382964 0.08460748 -0.02783422 -0.047888014 0.07285063 -0.05400606 -0.070391245
0.053396877 0.030114159 0.07874671 0.015699955 0.03346817 -0.008117642 0.01609155 -0.00799479
-0.04777437 0.037693944 -0.0039922646 0.009082317 -0.059332084 -0.03752717 0.059062332 0.07766719
0.012171894 0.034614217 0.01978776 -0.050347455 -0.039458457 0.013439733 0.040172197 0.06347592
-0.015944809 0.07307148 0.033523683 -0.0073905685 0.0066860686 0.03665366 -0.030600306 0.05746429
0.00033107828 -0.029131265 0.01684463 -0.030458348 0.06739713 -0.005534776 0.050760154 -0.0016030004
0.024748163 0.0030345835 0.033164345 0.084106795 0.10555224 -0.015706038 -0.041503515 0.022027025
-0.027059285 0.06465466 -0.01298341 0.009157689 0.017112644 0.030772414 -0.046271008 0.008612527
-0.05045139 -0.019730313 0.02352902 -0.010568874 0.045009695 -0.10710106 -0.04418707 -0.093773715
0.0029751174 -0.0043521696 -0.10122617 0.001425744 -0.11073136 -0.069495976 -0.07228825 -0.002145436
-0.018764704 -0.13326801 -0.09202145 -0.06942783 -0.07713149 -0.0916488 -0.0498363 -0.08898443
0.051138207 0.013119692 -0.10203803 -0.06272932 -0.02896872 -0.02184353 -0.007238729 -0.10004
0.02233888 0.08648472 0.025202606 0.015718434 0.023088444 0.0021636572 0.007423236 0.015411165
-0.0010916283 0.039163444 -0.014778276 -0.03762778 0.015095925 0.009211478 -0.048190877 -0.053819083
-0.042340957 -0.0117687145 -0.07333872 -0.098870665 -0.03580943 -0.016533751 0.02505125 0.025399288
-0.0121479565 0.011296761 -0.0035072789 0.044933025 0.0067556645 -0.00437136 0.07724365 -0.061068736
0.053907342 0.06407903 0.04939879 -0.02911445 0.031331 0.038103133 -0.011726021 0.0011321113
0.0032915727 -0.042172007 -0.046701696 0.06184914 0.0035761204 -0.039342422 0.011811385 -0.004837411
-0.036886096 0.038574427 0.01914285 0.025390567 0.016642997 0.026000153 -0.05761055 -0.025615577
-0.04871427 -0.14123029 -0.07330433 -0.07020358 -0.029248219 -0.053025126 -0.035547078 0.010645114
-0.022583136 0.0405907 -0.014525357 0.07178424 -0.014285466 0.004406982 -0.0075974413 -0.044420045
-2.9232928e-05 0.0152081065 -0.01743098 -0.008490451 0.03565183 -0.046029247 0.014422478 -0.0022317842
-0.06609002 0.023705203 0.1064126 0.09592988 0.037190795 0.04725565 -0.018753607 -0.0367943
-0.008870529 -0.047080375 0.026173776 0.06121901 0.04924984 -0.057929765 -0.02306443 0.06899331
0.017885176 0.025201475 0.036772113 -0.061858237 -0.08472553 -0.063826494 -0.029364513 0.01544375
0.04576646 -0.01520039 0.0725136 0.067567 0.05594249 0.034205195 0.026412923 0.012951925

conv2.bias f4 [64]
00000000: 7196 623c 1a48 cd3b 6e4b 94bc e0f0 ee3c
00000010: e7c8 513d 44b2 183d b17c 6cbd 6815 1eb7
00000020: a62a 90bb 0529 2ebc a4d2 b13c a7d4 8f3d
00000030: 7c07 373d ab77 213d 02a3 ddba 5dcb 0f39
00000040: f289 1b3d f631 8f3d 95e1 1d3d 8864 2b3d
00000050: 0b8c 84bc 83a7 c0bc e925 0e3d db0e 8a3d
00000060: 7b13 98bc f48a a7bc 9956 3b3d 66d4 8fbc
00000070: 48f3 d33c d48b 103c 378a 9cbd 557c 873c
00000080: e718 4cbb 3aaf 543d 3657 5c3c 31bf 32bc
00000090: 51bf 98bc 33a7 dbbc 6260 a63c f8a2 47bc
000000a0: a023 4abd bdd1 663c 2637 073c 6b77 af3c
000000b0: b4f5 2dbd f471 863d 71c1 6c3d f59f 903c
000000c0: cdca 953c 2618 703d 7a17 6a3d 6e25 723d
000000d0: a619 f3bc dc07 b13c 1bd7 bcbd 76e0 e5ba
000000e0: 6ebb 2bbd b390 99bc d9d0 3bbc e2c6 c43d
000000f0: 3d85 b9bc d108 f2bc fe61 ad3b 6577 2fbc
0.013829813 0.0062646987 -0.018102374 0.029167593 0.051216986 0.037279382 -0.057736102 -9.422518e-06
-0.0043996153 -0.010629897 0.021706887 0.07022982 0.044684872 0.039420765 -0.0016909542 0.00013713301
0.03797335 0.06991951 0.03854521 0.04184392 -0.016180059 -0.023517376 0.034704123 0.06741115
-0.018563977 -0.020452 0.045736883 -0.017557334 0.025872841 0.0088224 -0.0764355 0.016538778
-0.0031142773 0.05192492 0.013448527 -0.010909841 -0.018645914 -0.026813125 0.02030963 -0.012184851
-0.04935038 0.014088091 0.0082528945 0.021419248 -0.04247065 0.065647036 0.057801668 0.017654398
0.01828518 0.05861678 0.057151295 0.059117727 -0.029675316 0.021610193 -0.092207156 -0.0017538208
-0.041926794 -0.018745756 -0.011463367 0.096082464 -0.02264654 -0.02954522 0.0052912226 -0.010709618

conv3.weight f4 [128, 64, 3, 3]
00000000: 4e30 22bc 44d1 9ebc d6bf cb3c f1a5 02bd
00000010: 7f8b 333d 0910 e23c 1755 393c 1013 a2bc
00000020: 26fc 483b 408d 26bd a07c 273b 9817 e7bc
00000030: 010c 5e3c dd9f 4cbc 42ff 023b db21 c33c
00000040: bc80 8a3d 9833 01bc d9be 5e3c 4ffd b13c
00000050: 734f ba3c a175 b23c 4b2b b9bb 1dab b03b
00000060: 32b1 2a3d 39c7 2bbd 51e4 943d e7ce 13bd
00000070: b241 b33d 4901 003d f369 233d 90c8 1fbd
00000080: 41fd acbb 1864 cbbc 3c1b 8c3d f6d9 24bc
00000090: 006e 20bc f5af 193c 50ee 15bd 9e3f 493c
000000a0: 8cff f53c 5fc0 31bd 5eaa 7ebc 8740 2e3d
000000b0: 5067 683c 1e19 3f3d 9002 b9bc e3ca e93c
000000c0: 389b fdba df6e 59bd a4cc f639 97e7 253d
000000d0: 8e85 3fbd b7d3 313d 7536 083b 0d59 64ba
000000e0: c460 dbbc 2af1 47bd 2b06 bcbd 8ea5 113d
000000f0: 83c9 ee3b 9aea 71bb c93a bbbb 043f db3c
00000100: f0b8 6dbc 3fb0 003d fb92 093d 8db0 e33c
00000110: 7ddb 7ebd f644 a4bc de2b 7c39 6fe9 1cbd
00000120: 78b7 b83c 4aa2 1a3d b78d fc3c 76e5 703d
00000130: 4e45 9a3c c8d0 b23a d417 34bc ceec 5a3c
00000140: eb68 debc 9880 d5bc eed7 993c 79ac 83bc
00000150: 24c7 e0bc d211 a739 e079 ddbc e3c0 4a3d
00000160: b767 bd3c d187 b53c c997 e9bc 6402 42bc
00000170: dc99 d738 294c 943d c21f 99bd 05c9 8a3d
00000180: 7ecf e33c 4956 863c 30f9 7e3d bc3e 723d
00000190: 54f7 a2bc 6532 26bd 92b8 06bd 4455 45bc
000001a0: 45d9 de3c c3a1 afbc f9cf 123d 8efd 0a3c
000001b0: 67d3 d0bb afcb 7ebd bd88 f63c d41d 423b
000001c0: ea63 693d f8b7 2c3d 4a1f a6bc 76e9 a63c
000001d0: 2ede ce3c 7478 eabc 2b5d f83c bdbf ea3c
000001e0: 3733 753c 7ba8 9c3c a10d 993d c058 c9bc
000001f0: 42c6 a13d 7ed3 223c e5db 02bd 7680 53bd
00000200: e284 7abc 2c85 7abd eb4d dabc cb1a 4b3d
00000210: 3b84 893c dab9 a6bc e442 e13c 899f c33b
00000220: 4ef7 8039 7fe3 713d c0f0 863c 2d20 1c3d
00000230: cbba b5bc 0681 603c a16d bd3b 8237 3e3d
00000240: 59a8 933d db4d 4d3d 0186 313d 3eb6 f43c
00000250: f86e fd3c b1c4 afbc d02b aebc fcf0 cfbc
00000260: 3246 cebc e2b2 d5bc 23c7 523c e23f c2bc
00000270: e843 753c 0b17 ddbb 86c5 bd3c eca9 293d
00000280: dbae 12bb 9cca db3c 78fe 273c 5481 8a3c
00000290: d8f2 2f3d 3571 fabb cb49 8bbc c9bc 9bbd
000002a0: d708 14bd 8687 00bd 47d5 f83c ec38 0bbd
000002b0: f389 913c 741e 153c 9c11 813d 385c 9bbc
000002c0: 578c de3b f821 153b bd88 0fbc bc2c bebc
000002d0: 10f9 6f3b 5aa5 813c a718 3d3c 7893 823d
000002e0: 715c d9bc 8560 493b c09b 8d3b 255f 78b9
000002f0: 26f1 a3bc 720e 043b 7b9a 0fbd afc6 d83c
00000300: e281 173c 1964 32bd 22da 18bc 0374 6b3d
00000310: a9f7 0abd b4c3 0a3d 00e2 5ebd bdfb 94bc
00000320: 044f 23bd 474b 17bc a48e 773c e5e0 1cbd
00000330: 2631 8f3d 8639 30ba ea55 8bbc 862c 773d
00000340: 6b71 1b3d 8803 30bc 9212 dfbb c114 d7bd
00000350: dcaf 90bc e78a 553c aafa 44bd c89f 93bc
00000360: 4eef ca3a 2df2 8a3d 01ef 0abd 69c5 e73d
00000370: ab05 51bd f26e 6d3c 620b 413c 894a 643a
00000380: ca00 32bd 9749 9ebb a478 943b 88a4 7c3d
00000390: 153e 2cbc f9ee 83bc 30fb 383d a63f 0b3d
000003a0: ac40 d8bc f47b de3c a874 e4bc c12e 6cbd
000003b0: bf55 23bd f19f 13bd 474c 51bc 3152 b23d
000003c0: 7d4f 7c3d 2da1 f73c 8953 813d 0cf3 813b
000003d0: fc8a c0bc 3fca a63c 73f5 3cbc bebd 053c
000003e0: fb91 843c fa9c 113d 24a4 383c f094 543c
000003f0: c27a 97bc 02f4 92bb f5b9 71bd 951d e6bb
-0.009899212 -0.019386895 0.024871748 -0.031896535 0.043834206 0.027595537 0.011311791 -0.01978448
0.003066787 -0.04066205 0.002555646 -0.028209493 0.013552667 -0.012489286 0.0019988571 0.023819854
0.067628354 -0.007885836 0.013595306 0.021727232 0.022742962 0.021784605 -0.005650913 0.005391492
0.041672893 -0.04193804 0.072701104 -0.03608599 0.08752765 0.031251226 0.039895963 -0.03900963
-0.0052792137 -0.024828002 0.06841132 -0.010061732 -0.009791851 0.00938033 -0.036604226 0.012283234
0.03002908 -0.04339635 -0.015543548 0.042542007 0.014184788 0.046654813 -0.02258423 0.028539127
-0.0019348627 -0.05308425 0.00047073246 0.040504064 -0.046758227 0.043414798 0.0020784412 -0.00087107794
-0.02677954 -0.048813976 -0.09180864 0.035558276 0.0072872057 -0.0036913515 -0.005713795 0.026763447
-0.014509425 0.03141808 0.033587437 0.027794147 -0.06222104 -0.020052414 0.00024048935 -0.038308557
0.022548422 0.037752427 0.030829294 0.05881258 0.018831875 0.0013642544 -0.010992009 0.013362123
-0.027149638 -0.026062295 0.018779721 -0.016073452 -0.027438708 0.00031866 -0.027035654 0.049500357
0.023120744 0.022159489 -0.02851476 -0.01184139 0.000102806574 0.07241089 -0.074767604 0.06776623
0.0278089 0.016398566 0.062249362 0.05914186 -0.019893326 -0.040575404 -0.032890864 -0.012044255
0.027203212 -0.021439439 0.03584287 0.008483304 -0.0063728574 -0.062205967 0.030094499 0.002961983
0.05698005 0.042167634 -0.020278592 0.020374995 0.025252428 -0.02862189 0.030317863 0.028655881
0.014965824 0.019123306 0.07473303 -0.024578452 0.07899143 0.009938119 -0.03194799 -0.05163618
-0.015290471 -0.06116216 -0.026648482 0.0495861 0.016786685 -0.020352293 0.027497716 0.005969946
0.0002459832 0.059054848 0.01647222 0.038116623 -0.022183796 0.013702637 0.005780891 0.046439655
0.07209844 0.050123077 0.043340687 0.029872056 0.030936703 -0.021456094 -0.021261126 -0.025383465
-0.025179956 -0.026086275 0.012864861 -0.023712102 0.014969803 -0.0067471317 0.023165476 0.041421816
-0.0022382054 0.02683001 0.010253541 0.016907372 0.042956203 -0.00764289 -0.01700296 -0.07604367
-0.036141243 -0.031379245 0.030375136 -0.03398983 0.017765975 0.009101499 0.06302187 -0.018964872
0.006791632 0.0022755843 -0.008760628 -0.02321469 0.0036616959 0.015825916 0.011541522 0.06375784
-0.026533337 0.0030727696 0.0043215454 -0.00023686567 -0.02001245 0.0020150212 -0.035059433 0.026461927
0.009247275 -0.04355249 -0.009329351 0.057483684 -0.033927593 0.033878043 -0.05441475 -0.018186444
-0.039870277 -0.009234256 0.015109692 -0.038300414 0.06991796 -0.0006722439 -0.01700874 0.060345195
0.03794996 -0.010743029 -0.0068076337 -0.10502005 -0.017661981 0.013033605 -0.048090614 -0.018020526
0.0015482695 0.067844726 -0.033919338 0.1131695 -0.051030796 0.014491783 0.011782499 0.00087086164
-0.043457784 -0.00483055 0.004530983 0.061680347 -0.010512848 -0.016105162 0.045161426 0.033996247
-0.026398025 0.027158715 -0.027887657 -0.057661775 -0.039876696 -0.036041204 -0.012774534 0.08707083
0.061599243 0.030228222 0.06314761 0.003965741 -0.023503773 0.02036011 -0.011533129 0.008162914
0.01618289 0.035550095 0.011269603 0.012974963 -0.018491153 -0.0044846544 -0.059015233 -0.0070225694

conv3.bias f4 [128]
00000000: fd83 733c 3a62 8dbd 20de b63c 047f f43c
00000010: fa6b aa3c b185 55bb 6502 603c dd81 1b3c
00000020: f4a5 f0bb e3e9 e83b 6968 b23b fe76 06bd
00000030: c512 ad3c f384 183d d93a 083c 1a1a 10bd
00000040: 5e65 d7bc 95b2 7e3c 2a37 da3c bb46 06bc
00000050: e7c7 acbc ace3 edbb 005b 423d a243 68bc
00000060: 8b84 523d 430f 0cbc a9dd 863d f879 92bc
00000070: 5a9f 6cab aa1d eab1 dfd2 0e3c fc31 413d
00000080: ac2e 0dbc 3f68 ddad 7486 1ebc 1cef 933a
00000090: dd3a 1e3d b87e b1bb 3fcd 173d 2ebd 8c3c
000000a0: c837 c5bc aebf 87bb 8281 94ba 4d7e 7fb0
000000b0: 05cb 3e3c 75d8 d7bb 0880 cbbc 0fef 353c
000000c0: 2b8d e8ba d663 27bd 3e68 d93c 84c6 003d
000000d0: 590e 163d c782 0298 7c08 4b3d 3a7e bc3c
000000e0: 161f 2d3d 47d8 5c3d bde0 1eba 49e7 7b3c
000000f0: 9783 9cb5 a885 1dbd 0ca2 003d c84c bda7
00000100: 422c 8c3d f773 6f3d baf5 79bd 441d 433d
00000110: d8e8 48bc 1b20 a93c 5537 c2b0 f08f 953d
00000120: 8425 3c3d 3dfa 603d 6916 183c 39f0 88bb
00000130: ea02 2e3d bfcc d53b 3299 3bb3 42fa 0c3c
00000140: 750f ef3c 9bbc 3d3c 3275 a43d 2093 21bc
00000150: 06d5 793c 2f71 cd3c 28f3 bfbb 13f3 1d3d
00000160: 6418 f7bc 4ab1 f7bb b2df ca3c 673a 933c
00000170: 28f5 85a6 9bd4 933c 4bc9 b23b 95c8 ddbc
00000180: 0a17 d23c f0cc 923d 5570 2a3c 54b1 8ab6
00000190: 15ab cf3b 2ef3 f73c 047a e03b 275b 5e3b
000001a0: 5413 f7bb 3f1b e4bc 8660 013d e297 9f3c
000001b0: 4f17 aa3a f50a 5d3d 1201 d93b bfe6 71bb
000001c0: 7e25 14bc a3c5 adaf 06a2 ff3c 0b40 cc3c
000001d0: dbf9 bbbb 0b8f 36ae 5493 42bd 12c1 ee3c
000001e0: 5e3d 32bd 3930 d7bb 99f8 153c a0b7 1bbd
000001f0: 3827 97bc 9100 b83d 35bf 773d 3120 2b3d
0.014863011 -0.06903501 0.022322714 0.029845722 0.02080344 -0.0032580907 0.013672446 0.009491411
-0.007344002 0.0071079596 0.0054445756 -0.032828324 0.021127114 0.037236165 0.008314812 -0.035181142
-0.026293453 0.015545507 0.026637632 -0.008195574 -0.021091415 -0.0072598066 0.047450066 -0.014176281
0.051395934 -0.008548561 0.06585247 -0.017880425 -8.406519e-13 -6.8136687e-09 0.008717268 0.04716681
-0.0086170845 -2.5171086e-11 -0.009675611 0.001128647 0.038630355 -0.0054167174 0.037060972 0.017180052
-0.02407445 -0.004142723 -0.00113301 -9.2947944e-10 0.011645083 -0.006587083 -0.024841323 0.011104359
-0.0017742267 -0.040866695 0.026538964 0.03143932 0.036634777 -1.6868132e-24 0.04956864 0.023009408
0.042265974 0.053917196 -0.00060607103 0.015374967 -1.1661203e-06 -0.038457543 0.03140454 -5.2541284e-15
0.06844379 0.058460202 -0.06102536 0.04763533 -0.0122625455 0.020645192 -1.4131084e-09 0.073028445
0.045934215 0.054926146 0.009282687 -0.0041790274 0.042483248 0.006524652 -4.367866e-08 0.008604588
0.029182175 0.011580612 0.08030166 -0.0098617375 0.015248543 0.025078384 -0.005857844 0.03856189
-0.030162998 -0.0075589763 0.02476487 0.017972184 -9.295179e-16 0.018045714 0.005456125 -0.027073184
0.025645752 0.07167995 0.010402759 -4.133364e-06 0.0063375332 0.030267324 0.006850483 0.0033928843
-0.007540146 -0.027845023 0.031586193 0.019481603 0.0012976917 0.053965528 0.006622442 -0.0036911217
-0.009042142 -3.1608946e-10 0.031205188 0.024932882 -0.005736572 -4.1509057e-11 -0.047503784 0.029144797
-0.043515556 -0.006567028 0.009153509 -0.038016915 -0.018451318 0.08984483 0.060485084 0.041778747

act_conv1.weight f4 [4, 128, 1, 1]
00000000: d570 d6bd 5ea6 4a3e b8a0 ec3d 48d4 093e
00000010: 2f35 1f3c d8d9 063e e838 813d f4e2 83bb
00000020: ef7e e43b c94f ab3c 2986 923d 5121 3fbb
00000030: fce6 9dbd 47a9 d3bd a624 70bb 4cbd 4f3d
00000040: a8f4 0e3e 6952 64bd 71f5 e0bd 04fe fbba
00000050: 9615 973d cbcc d33c 782d 26be b5d7 923c
00000060: 081e 11bc 9045 1abc 7358 0fbe d8ae b2bc
00000070: 30dd 5b00 ab89 88bb 779d fa3d d6b0 273d
00000080: 78ca 34be de13 4180 c49d d33d 0624 7c3c
00000090: 568c eeba fef0 0e3e 98f7 373c c8d1 843c
000000a0: 7739 953d 3333 e93b 8bd3 9dbd 72e7 9780
000000b0: 59dc 733c 7222 01be 5645 b23d 5002 1a3d
000000c0: e35e 193b 520f 0a3e 1ef5 d43d a77a 683d
000000d0: 31f9 943d b1ac d3ba 852b 883d a94a c6bd
000000e0: 94cd bbbd 7324 413c 464a 2000 18f3 3fbd
000000f0: b2cb 8780 ec07 743e 15c5 f83d e84f 7201
00000100: d72d 7c3b d63c fb3a 7897 fa3d 2b37 043e
00000110: 3cdc da3d 2437 b43c 8c87 1780 9490 b7bd
00000120: 9afe 823c d01b 333b c0db 3ebd 35c2 feaf
00000130: 9202 f53d 97ff ee3d a0cf 0f80 77d7 963d
00000140: 1f18 06be e1d4 fb3c f609 82bd 5373 103e
00000150: d174 94bd 1d9c 473d a0b1 753d 3e4b d9bd
00000160: c048 f43d 0599 083e 0bda 6ebd 393b d2bd
00000170: bd25 9080 cdca fcbd 3b3c 5abe d3d7 42bd
00000180: 01e7 4ebd b193 94bc d8e9 593c 93a2 6cb9
00000190: ac4f f33c 70a3 c93d 75f3 8c3d 557e ffbd
000001a0: c823 613d 36f0 d73c bbdc 8abd 1230 d43d
000001b0: 4bfc 673d e7ec 6b3d deb8 e73d ca9c 913d
000001c0: f136 b7bd 0f7a cd81 949f 283d 3369 983d
000001d0: 8e97 323d 1851 0680 5b19 703e 6911 b23d
000001e0: 7412 f43d 23e8 b03d 6896 a03d a2b0 be3d
000001f0: dd36 28bd e246 58bc 5a7d ee3d f2f6 0dbe
00000200: 5850 51bc a955 06bd b69d 88bd 67ec a7bd
00000210: 28f5 143d 06df 30bd 6bb1 913d 54d2 ae3d
00000220: 7831 1fbc d64b d8bd 1a96 e5bc 3c78 043e
00000230: 239c e13d 67e3 9d3d b1c7 0cbe 7bdc 16be
00000240: 2d93 d8bc 17f2 b03c af1e 85bd 439c 8e3d
00000250: 94b7 bcbd 71c9 d8bd 301f 943d 2f7c 8dbd
00000260: 2ed7 363c e372 953d 3f1d 1cbc 532b d1bc
00000270: 8e23 6300 5abf 643a 1dc0 bcbd 4dd1 a5bd
00000280: 071e 80bd aafd b780 1b8c 4c3d 19b4 1d3d
00000290: 1380 d93d df03 823d 4035 89bd 7997 6ebb
000002a0: c0c0 c3bc 8952 1dbc 2402 0f3e fc8f 0780
000002b0: 8f91 7a3d a77a 5e3d 0422 73bd 9ff6 5c3d
000002c0: 714e 58bb cbb7 ffbb d4f3 c63d adfe a23d
000002d0: 0daa a3bd b0b9 05bb 4daa d43d d3f1 a3bd
000002e0: 3547 bfbc 8027 0a3d c2fb 8392 7af1 103d
000002f0: 54b2 ea05 d835 dd3d bc45 5e3d c354 0880
00000300: 3371 943d 83bf 59bc 661a a7bc d854 a9bc
00000310: 597c 003c 37ac d03d e4ea 9e00 3153 bdbd
00000320: 1bba 483c dc5d 9ebd ae96 c73d a5d2 233c
00000330: e810 93bb de22 0bbe c76b 0480 f5d0 c9ba
00000340: cc4a 403b 2817 d83d 6121 f8bc e6b0 17bd
00000350: 3634 c6bd 7da2 f6bd 370a c1bc c5dd c43d
00000360: 5939 32bd cc9e 8fbc db5c debc b0c9 65bd
00000370: 28f0 5f00 b8f3 9439 7d6e 1c3d df5f c83d
00000380: 2c27 b63d 2d88 3d3c be75 cb3d 5d63 86bb
00000390: 90fe 683d 6842 88bc 3eed a13d f162 be3d
000003a0: 0e7a 94bd 3a1a eabd e328 7cbc 5650 0f3d
000003b0: 1c52 ad3d a381 b5bd f0e6 cbbc 86b2 613d
000003c0: 4a12 373e a1df 5400 d93e da3c 36c6 df3d
000003d0: c718 32bd 1a04 7f80 c804 31bd 7cde 70bd
000003e0: 8069 20bd 6b72 fcbd 4c77 adbd 77f0 543c
000003f0: 347f 693d bb71 c8bd 94f6 4ebd c571 8dbb
-0.1047074 0.19790027 0.11554092 0.13459885 0.00971727 0.13169038 0.06309682 -0.0040248577
0.0069731395 0.020912068 0.07154495 -0.0029164145 -0.077100724 -0.103350215 -0.0036642938 0.050717637
0.13960516 -0.055742655 -0.10984314 -0.0019225483 0.07377164 0.025854489 -0.16228282 0.017925123
-0.008857258 -0.009415999 -0.13998584 -0.021811888 8.436377e-39 -0.004166802 0.12237065 0.04094013
-0.1765536 -5.976434e-39 0.10332826 0.015389448 -0.0018199782 0.13959119 0.011228465 0.016213313
0.07286351 0.007116699 -0.07706364 -1.3950187e-38 0.014884078 -0.12610796 0.08704631 0.03759986
0.0023402504 0.13482407 0.10398315 0.056757595 0.07274092 -0.0016149489 0.06648926 -0.09682209
-0.0917007 0.011788475 2.96538e-39 -0.04686269 -1.2470864e-38 0.23831147 0.121469654 4.450571e-38
0.003847947 0.0019167911 0.122359216 0.1291167 0.106865376 0.02199895 -2.160841e-39 -0.08963123
0.015990544 0.002732981 -0.04659629 -4.6340323e-10 0.11963381 0.11669844 -1.452014e-39 0.073653154
-0.13095139 0.030741157 -0.06349556 0.14106493 -0.072488435 0.048732866 0.05998385 -0.106100544
0.119279385 0.13339622 -0.05831341 -0.10265202 -1.323785e-38 -0.12343369 -0.21312039 -0.047569107
-0.05051327 -0.018136831 0.013300382 -0.00022567277 0.029701076 0.09845626 0.06882373 -0.12475268
0.054965764 0.026359659 -0.06780382 0.10360731 0.05663709 0.057598975 0.113145575 0.07109983
-0.08946026 -7.548025e-38 0.04116781 0.0744194 0.043601565 -5.80104e-40 0.23447172 0.08694727
0.11917582 0.086380266 0.07841188 0.09311034 -0.041067947 -0.0132004935 0.11645003 -0.13863733
-0.012775503 -0.032796536 -0.06670706 -0.08199387 0.03636661 -0.04318144 0.07113918 0.08536211
-0.009716384 -0.105613396 -0.028025676 0.12936491 0.11016109 0.07709389 -0.13748051 -0.14732544
-0.026437366 0.021599812 -0.06499993 0.06963398 -0.09214702 -0.10585297 0.07232511 -0.06908452
0.011159701 0.072973035 -0.009528457 -0.025533354 9.104469e-39 0.00087260234 -0.0921633 -0.080965616
-0.06255727 -1.6896893e-38 0.049938302 0.038501833 0.10620131 0.063483946 -0.0669961 -0.0036406203
-0.023895621 -0.009602197 0.1396566 -6.945e-40 0.06117397 0.05431619 -0.05935861 0.053946134
-0.003300574 -0.0078038923 0.09714475 0.07958732 -0.07991419 -0.0020404868 0.10384045 -0.08005109
-0.023349384 0.033729076 -8.329325e-28 0.03538654 2.2070762e-35 0.108012855 0.054265723 -7.65091e-40
0.072481535 -0.013290289 -0.02039833 -0.02067034 0.007842147 0.101890974 1.4594271e-38 -0.09244383
0.012251402 -0.07732746 0.09745537 0.009998952 -0.0044880994 -0.1358752 -4.06005e-40 -0.0015397357
0.0029341457 0.10551292 -0.030289354 -0.037033938 -0.09677927 -0.12042711 -0.023564441 0.09612612
-0.043511722 -0.017531775 -0.027143886 -0.056100547 8.810524e-39 0.00028410344 0.038191307 0.09783911
0.0889419 0.011568111 0.09934567 -0.0041012005 0.056883395 -0.016633227 0.079065785 0.09296215
-0.072498426 -0.114307836 -0.0153906075 0.034988724 0.08462927 -0.08862617 -0.024890393 0.055101894
0.1787807 7.794405e-39 0.026641296 0.109264776 -0.04348066 -1.166458e-38 -0.04321745 -0.058805928
-0.039163113 -0.12326511 -0.0847002 0.012996784 0.057006076 -0.09787317 -0.050528124 -0.004316541

act_conv1.bias f4 [4]
00000000: 25d5 3bbd 5f2b c93c 71de 073d d455 87bd
-0.045857567 0.024556814 0.03317112 -0.06608167

act_fc1.weight f4 [121, 484]
00000000: 2a68 923c 4995 2dbd 331e 9abd ce54 07bd
00000010: 8f45 a0bc 573b edbc 50c4 fe3c bfb2 f0bc
00000020: cef1 523c 91f0 0cbd c1d2 a6bc e990 ea3c
00000030: e7fa 59bc e54e 5d3c 21c0 4a3c b491 ffba
00000040: 42cf cd3c faa4 8e3c 59ec a7bc 9c9b 583c
00000050: 4c28 febc acb7 7e3c 88d1 9cbd af61 ec3c
00000060: fb07 3dbd 2358 d8ba bbfc 23bd 5f1d 833c
00000070: 2d91 18bd 6e47 3abb 4611 96bc fbf3 193c
00000080: 5209 12bc 24e6 c7bc 19f6 2abd 1884 b8bc
00000090: 177a 60bd f061 5ebc 62a4 3ebc fd14 023c
000000a0: c686 a8bc 3aa7 843c d8ae a83b 931f afbc
000000b0: 7170 023c 53ad a83b 76e6 37bd 6d60 c83c
000000c0: 639d 88bc a8d5 f0ba a595 90bc f4f2 173c
000000d0: 7db0 2dbd 4b01 ca3c 87e3 513d 44e6 8f3c
000000e0: cd43 53bd b925 843b 6e37 b3bc 6715 66bc
000000f0: b585 febb a4d2 09bc 32eb 82bc f5fe 13bd
00000100: f806 b13b 98c9 94bc 7486 30bd 1757 7abb
00000110: 55cc 11bd 4b8d 33bb 78ee 22ba 694e 953c
00000120: 4aff adbc 3977 06bc b92e 723c 0710 8fbc
00000130: 81fd cbbc ea33 da3b 1337 ffbc e668 65bc
00000140: 350b f63c 9efa dfbc 4fca 11bc f9d4 1a3c
00000150: 9ed2 97bc a50c c03c 233d acbb ebcf c8bc
00000160: 7ba8 e63c 76b5 8f3d 6468 a03c cb7c b6bb
00000170: c36d 62bd 5416 a33c a8ad 7dbd 5d38 30bd
00000180: b41f 0cbd 6d0f ceba fef2 39bd c28b 6fbd
00000190: 5580 283e 05c9 0cbc c7c2 6bbd a9cd d3bb
000001a0: 79a5 9b3c 3915 083c 6276 02bd 9347 013d
000001b0: 8977 35bd 2388 24bd 989e 58bf 6f7c cf3c
000001c0: d0d9 1f3d 9248 6c3c 2bf6 40bd 206f 273d
000001d0: d41f bbbc 3099 e63c 1244 5ebd cf46 b33c
000001e0: 3051 823c cfa4 09bc 5d5f 543b 0a6c 0e3d
000001f0: 04b2 8fbc 0c30 983c cf42 3f3d 4acc ad3c
00000200: 99b0 a43c 8ee3 fe3c 4fa8 613d c7d5 b23b
00000210: 289a 8a3c c529 903c 1dd5 8bbd 2c19 233c
00000220: a061 f8bb d605 953b 759e a53c 9e30 0abc
00000230: 784e 223d 2922 3f3d ade7 e03c e242 0b3d
00000240: f19a 6abd 308a 89bc 5a0c 88bd c276 8b3b
00000250: c72e 67bd 3805 553d 4440 08bc c738 293d
00000260: e9f8 243c e9ef 123d 34fc 163b 6274 71bd
00000270: 0634 92bc 1aec 903c d49d 0ebd f03a 803c
00000280: 90a1 843d 1ee1 be3d b085 f9bb 2dc8 973c
00000290: 5c28 a33c 47b8 6fbc 8d5c 28bc 8511 94bc
000002a0: 315d 3e3b 40aa 9bbc bb78 46bd cdf0 143d
000002b0: 6822 533d 998a 593d 4c71 bfbc d0c8 0e3b
000002c0: 4707 823c 9214 d2bc 6e2c 56bd a1e9 b1bd
000002d0: b0e3 683d 7b7c 2abe 07a6 81bd cf2d e43c
000002e0: e6b3 86bb e6f3 88bc 2e74 cebc 4935 cfbb
000002f0: 3848 6ebd 9630 2b3d 57b2 c9bd bcdf 07be
00000300: a456 3d3d 2712 a33c 00c3 83bc c5ea 593b
00000310: c9f4 85bc 2513 c73b 614e 97ba 4b80 413d
00000320: 2382 b2bd e0b8 e53d dca5 16bd b22a 5abd
00000330: 0954 d7ba 05ec 89bc a6ee 55bd c063 823c
00000340: c884 023c 1478 153e 19ae 00bd 45d3 403e
00000350: 9a54 ffbb 158d 7f3d 9e8b 79bd 1723 eabb
00000360: 62bc 66bc 1312 cb3c 178b 80bd c049 523c
00000370: a93e c7bd 3c63 143e 7bb8 46bd cc49 2b3d
00000380: 25fc 81bd 6c58 fdbc d6a3 26bd 1195 66bd
00000390: 56e2 71bd 494d 103d 13ea 19bc b14e 4e3e
000003a0: f40b f0bc d138 ef3d ca86 57bd 611d 293d
000003b0: 17a5 98bc 3aca 003d 4441 1f3c 7cee 243d
000003c0: c94a 4a3b 3632 7ebb e5a2 2ebb 71c5 073c
000003d0: 5812 a4bc e4e8 d7bc 150b f33c 0794 cbbc
000003e0: 5978 b1bb 74d1 61bb 3559 6cbd 7741 8d3c
000003f0: 9a65 773a 1892 ca3c 2b74 1a3c 69f6 673b
0.017871935 -0.042378698 -0.07525291 -0.03303986 -0.019564418 -0.02895896 0.031099468 -0.029382108
0.012875034 -0.03440911 -0.020364167 0.028633552 -0.013304449 0.013507579 0.012374909 -0.0019498379
0.025123242 0.017412651 -0.020498442 0.013220694 -0.031025074 0.0155467205 -0.076571524 0.028855173
-0.04615019 -0.0016505759 -0.040035944 0.016005216 -0.037247825 -0.0028423923 -0.018318783 0.009396548
-0.008913355 -0.024401732 -0.041738603 -0.022523925 -0.054803934 -0.013573155 -0.011635872 0.007939574
-0.020572077 0.016193021 0.005147796 -0.02137736 0.007961378 0.005147615 -0.04489752 0.024460042
-0.01667661 -0.0018374221 -0.017649481 0.009274233 -0.04240464 0.02465882 0.051242378 0.017565854
-0.05157833 0.004032817 -0.021877017 -0.014043189 -0.007767404 -0.008412037 -0.01598129 -0.036131818
0.005402442 -0.018162534 -0.043096974 -0.0038198882 -0.035595257 -0.002739745 -0.0006215344 0.018225865
-0.021239895 -0.008207136 0.014781647 -0.017463697 -0.024901154 0.0066590207 -0.031154191 -0.0140020605
0.03003464 -0.027341183 -0.008898332 0.009450191 -0.018533047 0.02344353 -0.0052563115 -0.024513206
0.02815651 0.07017033 0.019581027 -0.0055690757 -0.05528046 0.019908108 -0.06193319 -0.043022502
-0.034209922 -0.001572115 -0.04539775 -0.058482893 0.16455205 -0.008592849 -0.0575588 -0.0064637256
0.018999802 0.008305841 -0.03185118 0.0315624 -0.04430345 -0.040168893 -0.84616995 0.02532789
0.03902608 0.014421599 -0.047109764 0.04087746 -0.022842325 0.028149217 -0.054264136 0.02188435
0.015907854 -0.00840111 0.0032405474 0.034771003 -0.01754094 0.018577598 0.046694573 0.021215577
0.02010374 0.031114366 0.055092152 0.005457613 0.01691921 0.017598042 -0.068277575 0.009954732
-0.007579997 0.004547815 0.02021716 -0.008434443 0.039625615 0.046663437 0.027454222 0.03399933
-0.05727667 -0.016789526 -0.06642981 0.0042561004 -0.056441095 0.05200693 -0.008316103 0.041313913
0.01006911 0.035873327 0.0023038508 -0.058948882 -0.017847072 0.017690707 -0.034818485 0.015653104
0.06476128 0.093202814 -0.0076148137 0.018528068 0.019916706 -0.0146313375 -0.010275972 -0.01807476
0.0029047246 -0.01900208 -0.04845498 0.036362458 0.051546484 0.053110693 -0.023369454 0.0021787174
0.01587261 -0.025644574 -0.052288465 -0.08687139 0.056857765 -0.16649048 -0.06330495 0.027853874
-0.004110801 -0.016717862 -0.025201883 -0.0063234908 -0.058174342 0.041794382 -0.09848469 -0.13268942
0.046225205 0.019906117 -0.016084194 0.0033251506 -0.016352074 0.0060752803 -0.0011543744 0.04724149
-0.08716228 0.11216903 -0.03677927 -0.053263374 -0.0016428243 -0.016836176 -0.052229546 0.015916705
0.007966228 0.14596587 -0.031416032 0.18830593 -0.0077920677 0.062390406 -0.060924165 -0.0071452963
-0.014083 0.024788892 -0.06276529 0.012834966 -0.09728748 0.1449098 -0.048515778 0.041818425
-0.06346921 -0.030925952 -0.04068359 -0.056294505 -0.05905374 0.035229955 -0.009394187 0.20147206
-0.029302575 0.11680759 -0.05261878 0.041287784 -0.018633408 0.03144286 0.00972015 0.0402665
0.003086733 -0.0038787252 -0.0026647386 0.00828682 -0.020028278 -0.026356168 0.02966837 -0.024850858
-0.005415958 -0.003445712 -0.057702262 0.01724313 0.0009437442 0.024727866 0.009427111 0.0035394675

act_fc1.bias f4 [121]
00000000: 98ef adbc d18b 33bd c00f b7bc 8798 71bd
00000010: e5c4 30bd 059b 9abc 9145 07bd 050a 56bd
00000020: 4ef2 c6bc 58e8 16bd 079e 88bd 5bfc 4bbd
00000030: da24 a1bc fdcf 50bd b94b 3d3c 9e2d 0abc
00000040: 62fb 7ebd 3b5e 9abc 47d6 963c 7bde 0abd
00000050: 2a17 03bd 1b5c 24bd 874d d8bc 3f55 4bbd
00000060: b8af b13c 30d3 4dbd ed56 29bd c141 0cbd
00000070: c642 d0bc 7fc8 94b9 9b7f 6a3c d4a1 15bd
00000080: d6b4 00bd 0de0 6abd 3496 fd3c 704f 45bd
00000090: 34c3 e53c 1e82 95bd b036 8d3d 1073 b9bc
000000a0: 72da d83c b21a 2fbd 62be a83c 2e58 17bd
000000b0: eb94 30bd bc87 ab3b a896 a2bd 8c9e 593c
000000c0: 7776 1a3e 28f2 843b de47 053e 82b8 df3a
000000d0: 4554 c5bc 1d6d cdbb 005b 6fbd 2a81 44bc
000000e0: 0221 74bd 5181 2fbc b80a 093d a42a ab3c
000000f0: bcb2 0d3e 5871 103d 6b6a 7b3c 6dd7 a8bd
00000100: 00eb b7bc 6b2b c3bc fe44 68bd 4e4d abbc
00000110: ed62 33bd 4e59 44bd a761 043e 2519 9d3c
00000120: 21f4 d43d e066 18bd 1860 5ebd 2442 f4bc
00000130: d87d 5fbd 0117 27bd 1489 bf3b 35bf 27bd
00000140: 3c5d f43c 56d1 c8bc d463 9cbb 7c38 eabc
00000150: 565c 113d 0ed0 8dbd 4dcd ae3c c5f0 5ebd
00000160: 1bd3 6ebc a0a1 12bd 9ff1 3d3d d239 53bd
00000170: 1b0d 11bd 88e8 87bd c6d7 e5bb 5171 02bd
00000180: 1978 123c 4ac9 08bd 8942 9ebc c462 13bd
00000190: 599d 8bbd d48f 3cbd cd27 b7bc ff67 cebc
000001a0: f64e 17bd b463 e7bb f332 1abc 55fe 46bd
000001b0: 507c c5bb 88bc 5cbd 2c34 7cbd 828a 81bc
000001c0: 9b6d 48bd eb3c 25bd 65d6 83bc 9f17 c63a
000001d0: 266c 28bd 1758 49bd dd89 6fbd 9eee acbc
000001e0: 98cc 3fbd
-0.021232411 -0.04383451 -0.022346377 -0.058983352 -0.043156523 -0.018872747 -0.033025328 -0.05225565
-0.024285462 -0.036842674 -0.06670766 -0.04980121 -0.019670893 -0.050979603 0.011553698 -0.008433728
-0.062251456 -0.01884376 0.018412722 -0.03390358 -0.032004513 -0.0401269 -0.026404155 -0.049641844
0.021690235 -0.050250232 -0.041342665 -0.034242395 -0.025422465 -0.0002837814 0.01431265 -0.036531284
-0.03142246 -0.057342578 0.030955411 -0.04817146 0.028047182 -0.073002085 0.068951964 -0.022637874
0.02647135 -0.042750068 0.020598594 -0.03694933 -0.04311077 0.0052346867 -0.07938892 0.013282429
0.15084253 0.0040571876 0.13015696 0.0017068537 -0.024088034 -0.006269111 -0.058436394 -0.011993686
-0.05960179 -0.010711984 0.033457488 0.020894356 0.13837713 0.035264343 0.015345196 -0.08244214
-0.022450924 -0.023824414 -0.05670642 -0.020910885 -0.043795515 -0.04793673 0.12927876 0.019177029
0.103981264 -0.037207484 -0.05429086 -0.029816695 -0.054563373 -0.040793423 0.0058451984 -0.040953834
0.029829614 -0.024513882 -0.0047726426 -0.028591387 0.03548845 -0.06924449 0.02133813 -0.054428834
-0.014576699 -0.03579867 0.046373006 -0.051568814 -0.03541289 -0.06636149 -0.0070142476 -0.03184635
0.008939766 -0.03339509 -0.019318836 -0.035982862 -0.06817121 -0.046035603 -0.022357846 -0.025196074
-0.036940537 -0.007061446 -0.009411561 -0.048582394 -0.006026782 -0.053890735 -0.061573192 -0.015813116
-0.048932653 -0.0403413 -0.016093442 0.0015113241 -0.041118763 -0.049156275 -0.058481086 -0.021109875
-0.046825975

val_conv1.weight f4 [2, 128, 1, 1]
00000000: 7648 23bd ed36 183e eab5 10be 4bee b3bd
00000010: a635 e8bd 75ca 08bc 59e0 aabd a65c 1cbc
00000020: aabd ae3b d7f2 53bd 7fb2 063e 7649 b93d
00000030: 1745 603d 178a d5bc 75be d9bc 89ac 093e
00000040: 4975 06be 5dbe bcbd 9d20 64bd 35d9 8d3d
00000050: 1093 a2bd a8b8 f23d bdef ebbc 072e 44be
00000060: ef63 823d 748f 203d 2a4f 2dbd bf0d 853d
00000070: 1a5c e283 e6fe 3fb9 6e6c 82bc fce3 073e
00000080: 29c1 37be e826 4d80 4cb0 56bd 387f b33d
00000090: eeaa 4f3d 708c 2abe 52a3 613c a024 ca3d
000000a0: 4b4e 5fbe c55b 933d 7517 e93d b8ea 3d00
000000b0: 955e 3fbe 8b94 07bc 8573 093e 1ea3 50be
000000c0: 29a8 0d00 30c8 02be 9764 9dbd c647 18bd
000000d0: b63f 363d 9482 beb1 58cf 37be 3f2c f03d
000000e0: a0d1 263d bfff 093e 07d6 b4b8 4cd6 233d
000000f0: b2de c42c 79f8 af3c a246 b8bc 3fd0 5600
00000100: 007f 6e3d 8333 543d 7b15 8ebd bb93 bd3d
00000110: efc1 d93c f6b6 2cbc 830f 2c80 4f73 863d
00000120: 6aa8 f1bd 2ada 0d3d 029b 08be 8dad a7bc
00000130: 1a4c 22be e09d b1bd c5c0 0980 160a 55bd
00000140: 3352 393e 3b0a aebd 7eca 483d bc22 13bc
00000150: 3745 0b3e e6d8 1f3e b063 2abd fcbc ce3d
00000160: 2ba3 d5bd 42f8 813c 038a ea3d 7b62 d93d
00000170: 0c22 4180 9d0b f8bd db1e f93d 5d24 113e
00000180: fdc3 bd3d 7521 923d 1eb1 bc3d 23e9 8339
00000190: 15e3 bf3d 47f4 ea3d f9ea ccbd 52c0 603d
000001a0: e4a7 86bd 060d c13d 5f1e a03c 6cd8 15be
000001b0: 725f b3bd 5a69 88b9 afce e8bd e42e 75bb
000001c0: 7ec5 043e 056b 2400 f0a9 27bd 4a9d 32be
000001d0: d402 863a 3134 5a00 f2ce eebc 5b4f dbbc
000001e0: e57c f7bd 7dd0 523e 5ca3 a13d 2b2a 29be
000001f0: 7724 c7bd ee54 ea3d 1183 af3d bb9f 2dbd
00000200: 9efb 9a3d 37a8 c9bd 5562 c1bc 6b00 2cbd
00000210: 42a3 3ebe a34f 2ebd f0db 1ebe d270 5abe
00000220: 3d30 703c 3f6e 8ebd deea 953d 47a6 b4bc
00000230: 970d 03be 50c7 ae3d b884 193e 715f 56bd
00000240: a143 043e d23d 0cbe 9af4 033e 8d13 c6bc
00000250: 7991 c43d bdb5 0ebc 890f fc3d 5fc2 abbd
00000260: d375 c63c 1e2b 65be b8db 4f3d 1614 36be
00000270: b2f7 1880 dab3 66b5 0a67 b73d d62e 123d
00000280: 8256 a4bc 8c8a 3780 d0e1 f4bd b0d9 1fbe
00000290: cb4c 32be ca8f 86bd 98e7 f7bd 57f0 1f3c
000002a0: 11c1 083d 043f 37be 63c0 903d 2a54 1a00
000002b0: 77a5 dcbb 0dd3 e1bd 4551 f73d 3e6c 75bd
000002c0: f726 9e22 96c4 abbd 3a8d 1cbe 9336 e03d
000002d0: ade1 49be 7d25 719e 82b1 823d 525b c9bc
000002e0: af3a fb3d f642 b53d fa59 1138 8aeb f33d
000002f0: 4b47 53b4 cd5f 5e3e 653f ca3d b6c6 3800
00000300: 81e3 d63d cfd4 0f3e 0ed7 aabc 60a1 2d3c
00000310: a576 d23d 0c4b 253e b99f 3200 65f6 053e
00000320: 6251 3a3e 0e40 033e a983 a8bd 62ac 443b
00000330: 13b1 b23d 0177 d43d e381 2f00 888a 17bd
00000340: ab04 0fbe 9d8f b23d 7ff2 ce3d 97bf f83d
00000350: 3192 733c dc48 24bc 53c2 0dbe e5c3 213d
00000360: aabe 3fbd 123d 3dbe 233a a9bd 5f46 ae3d
00000370: 97ae 0900 52f8 0a3e 945b 48bc e222 6abe
00000380: d0b7 42be 8099 0a3e 77f7 4d3d 8e18 66bb
00000390: 1f77 083d c4b6 ce3d 5581 2bbe 4d96 f33d
000003a0: 9af9 d4bc dd05 84bd 15d7 dd3d 5d02 f9bd
000003b0: 3d47 0fbe 4055 213e 1fd0 d8bd 5909 4ebe
000003c0: 853f 7f3d ae08 1d80 2ac4 5f3e 971d 95bc
000003d0: 3412 20be b326 4a80 aa01 c33d f9a3 0f3e
000003e0: d970 d0bc 1dbc cabd ea4a 303e bf8f 9bbd
000003f0: 1411 23be 1a56 083e 4127 dabd d101 27bd
-0.039864026 0.14864703 -0.14131895 -0.08785685 -0.113383576 -0.008349051 -0.08343572 -0.0095435735
0.0053326683 -0.051745262 0.13154028 0.09047215 0.05475339 -0.026066823 -0.026580075 0.13444723
-0.13130678 -0.092159964 -0.055695165 0.069261946 -0.07938206 0.11851627 -0.02880084 -0.19158183
0.06366717 0.039199308 -0.042311825 0.064967625 -1.3304232e-36 -0.00018310137 -0.015920844 0.13270563
-0.17944779 -7.08529e-39 -0.052414224 0.087644994 0.05070012 -0.16655135 0.013771849 0.09870267
-0.2180721 0.07195238 0.11381427 5.686166e-39 -0.18688424 -0.0082751615 0.13422973 -0.20374724
1.254186e-39 -0.12771678 -0.076852016 -0.037177823 0.044494353 -5.544573e-09 -0.17950189 0.11727189
0.040727258 0.13476466 -8.6229345e-05 0.03999929 5.595379e-12 0.021480786 -0.022494618 7.972557e-39
0.058226585 0.051806938 -0.06937691 0.09256693 0.026581733 -0.010541668 -4.046326e-39 0.06564962
-0.117997006 0.034631886 -0.13340381 -0.020468498 -0.15849343 -0.086726904 -8.95672e-40 -0.05201157
0.18097763 -0.08498045 0.049021237 -0.008980449 0.13600622 0.15610084 -0.041598976 0.1009464
-0.104315124 0.015865449 0.11452105 0.10614487 -5.981521e-39 -0.1211159 0.12164088 0.14174028
0.092658974 0.07135288 0.0921347 0.00025159967 0.09369484 0.114723735 -0.10005755 0.05487091
-0.06574991 0.09426312 0.019545732 -0.1463334 -0.08758439 -0.00026018434 -0.11367547 -0.0037411982
0.12965962 3.344469e-39 -0.04093355 -0.17442814 0.0010224232 8.283917e-39 -0.029151414 -0.026771238
-0.120843686 0.20587344 0.078924865 -0.16519992 -0.09723752 0.1144198 0.08569921 -0.04238866
0.075675234 -0.098465376 -0.023606459 -0.041992586 -0.18616965 -0.042556416 -0.15513587 -0.213321
0.014659938 -0.069546215 0.07320188 -0.022051943 -0.12798153 0.085341096 0.14992034 -0.052337114
0.12916423 -0.13695458 0.12886277 -0.024179244 0.09598059 -0.008710322 0.123076506 -0.08386683
0.024226105 -0.22379729 0.05074665 -0.177811 -2.292908e-39 -8.5943395e-07 0.089552 0.035689197
-0.020060781 -5.100654e-39 -0.11957133 -0.15610385 -0.17412107 -0.06570394 -0.1210472 0.009761891
0.033387247 -0.17895132 0.07067945 2.417915e-39 -0.006733592 -0.11026583 0.12076048 -0.05991768
4.286724e-18 -0.08387105 -0.15288249 0.10947909 -0.19714995 -1.2766186e-20 0.06381513 -0.024579678
0.122670524 0.088506624 3.465449e-05 0.1191016 -1.9676843e-07 0.21716233 0.09875373 5.214072e-39
0.10492612 0.14046024 -0.0208545 0.010597557 0.10276536 0.1614191 4.649073e-39 0.13082273
0.18195108 0.12817404 -0.08228237 0.0030009975 0.087251805 0.10374261 4.362863e-39 -0.036997348
-0.13966624 0.08718798 0.10104846 0.12145918 0.014866398 -0.010027137 -0.1384366 0.03949346
-0.04681269 -0.18480328 -0.08263042 0.08509516 8.8915e-40 0.13571289 -0.012228865 -0.22864869
-0.19015431 0.13535118 0.05028483 -0.003510985 0.033316728 0.100934535 -0.16748555 0.11893902
-0.025997926 -0.06446431 0.10832039 -0.12158654 -0.13992019 0.15755177 -0.10586571 -0.20120753
0.062316436 -2.666343e-39 0.21852174 -0.018202586 -0.15631944 -6.80971e-39 0.09521802 0.14027394
-0.025444435 -0.09899161 0.17216077 -0.07595777 -0.15924484 0.13314095 -0.10652018 -0.040773217

val_conv1.bias f4 [2]
00000000: a8a7 953d 4d1c 2c3d
0.073073685 0.042019177
