current_policy.model (torch, 421685 bytes, 15 tensors)

conv1.weight f4 [32, 4, 3, 3]
00000000: 57d8 72be 9b70 ffbd 2534 d6bd 387b 923d
00000010: a781 e93d 4cf7 1a3e eb4b c13e 172a 493e
00000020: db91 5e3e 53b4 753d f906 18bc 6eec 9ebe
00000030: b847 58be 6f5a 15bd 4255 873e 6aa1 08be
00000040: 5e74 1cbe 7222 d13e e0ee e23b cbe2 273d
00000050: 4287 2d3d 3702 e2bd 815b e0bd 96cc 8ebd
00000060: 9f8a eb3d 20f8 233d b721 fa3c f874 bfbd
00000070: dff4 33be e319 24be 840a 363e 5316 993d
00000080: 5bbf 18be 0193 393e 49db fcbd 3a10 65bd
00000090: 8860 34be a1c5 ff3c 1afa 95be cfe1 853e
000000a0: 785b a43d 0bee c93e 5cef 76be 68bc 09bf
000000b0: 5070 ddbd 138f e5bd b179 88be 1dee ea3e
000000c0: 243b d7bd e2a7 88bd deea 9d3e 6e25 4ebd
000000d0: 5ccc a1be 7a0c 83bd cc90 b33d b867 03be
000000e0: 984f 7c3d e2af 333c dddf 3b3e 188e 38bd
000000f0: 00f6 193c 5142 ef3b e56d 193e e14b c9bc
00000100: 8506 e0bd 1648 f83d bb0c 61bb 3b75 f83d
00000110: c345 323e 2812 28be cd20 17bd dfb2 89bd
00000120: bb45 ac3e c691 e93e bded c0bd 0713 703e
00000130: 6dc0 37bd 1e7d 3b3e 8bb0 44be 957a bfbb
00000140: 9c63 21bd 5d33 2ebe 1792 46bd 3f92 893d
00000150: 36f9 66be f6b7 3bbe 3176 9d3e e0c1 f1bd
00000160: 823d cebc c198 d03b 198a fd3a 51e3 e93c
00000170: 22e5 73bc ac08 39be 86b4 25bd e6e2 62bc
00000180: b687 5b3d 43df 363d 2891 29bd e237 0bba
00000190: 7635 05bd eeea 843d bcbd f5bd 5b51 643d
000001a0: bb77 d1bd 5ebd 0a3d 77ba 34bc 9050 bbbd
000001b0: 6288 733d 031f 81be 98e2 13be e27f 9cbe
000001c0: f79e 323e 83d0 77be e57f bbbd 564b 33be
000001d0: b66c a33e 0c20 8e3e a0ec 23be 4a77 823e
000001e0: 5bf8 983e f0c7 19be 3a9b 3cbc 7ef1 6b3e
000001f0: 250d 613e c427 e4be 7143 213d 9063 013d
00000200: ee35 a1bc 5483 9ebd 674b ef3d d714 c23d
00000210: 8e00 c53d 6b54 debc cea4 113d 5fbc 553c
00000220: 056e 053d 3b97 223c b9d5 ebbd 7964 e3bd
00000230: 0126 dcbc fb4f 553d 1379 8e3d e73b f0bc
00000240: 51a0 13bd 8fce 8ebd 4be4 e1bd 1b01 a3be
00000250: 3f4f 973e 3f21 a53c 0773 9f3d 712e 8f3e
00000260: 6978 5ebe 1309 2abe 7538 943d 4e4e 733e
00000270: 6262 1f3e 7ab0 37bd 23ee bf3e 1b8a eabc
00000280: a9e0 6d3e 05e7 aa3e 783f c13c e802 b7bd
00000290: 34d9 b1bd 98e7 8a3d 8841 0e3e 31f5 a13d
000002a0: b1ba 633d 0bb2 b93d 5614 563d 0a18 c2bd
000002b0: 9a22 b8bd 33d1 85bd 76af 90bb 7d41 a23d
000002c0: 3c3b ff3d 5017 23be 45fe 97bc f214 23bc
000002d0: 8c87 883c 2fd1 b6bb d5e7 fd3d 6b65 96be
000002e0: f6df 933e f33b 103f 122b 87be bd78 aa3e
000002f0: e6a0 b23e 6be1 4e3e a006 9fbd 4d19 953d
00000300: 4269 773d 1533 36bd 0327 b2bd 148e d63d
00000310: a0a0 e7bd 1d0f 343c 952f 423d a67a 5d3d
00000320: a7b8 abbd 8bed 7ebd c152 b0bc f974 06bd
00000330: 47ff 87bd cc92 923d cb40 873d 3c4c 833d
00000340: 7c86 edbd be65 2d3c 934b bc3c 933e 1fbd
00000350: 47f1 19be 35c5 6a3d 25b1 8ebc 2df6 243e
00000360: e2bc e3bd 06be 6e3e bf85 14be 7fec ad3e
00000370: f5f6 d13d 71bb 86be 913f 3bbc 0c89 63be
00000380: 782d a53d d74c de3c fcc1 eb3e d6ec 943e
00000390: 9992 0f3e e415 e53d baf0 e93d 3065 ac3e
000003a0: 641e 1bbe 971d 463e 128e 6ebd f7c5 81bd
000003b0: 0ee6 cebd cfb9 2bbd 0e80 a13c 8a1a e4bc
000003c0: fd82 adbd 103b 313d 1db8 37bd 89df bfbd
000003d0: 9ab6 0abe 2b89 3ebd dfe2 453e d719 113d
000003e0: 8bb2 233e b3c7 a03c 2627 31bd 0e64 1b3d
000003f0: 18d8 c8bd f3f3 c1bd f635 e5be c7af 43be
-0.2371534 -0.1247265 -0.104591645 0.07152408 0.11401682 0.15133399 0.37753233 0.19644962
0.21735327 0.059986424 -0.009279006 -0.31039757 -0.21121109 -0.036463197 0.26432234 -0.13342825
-0.15278766 0.40846592 0.006925449 0.04098777 0.04236532 -0.11035579 -0.10954953 -0.069726154
0.11501049 0.040031552 0.030533655 -0.09348482 -0.1757388 -0.160255 0.17777449 0.07474961
-0.14916746 0.18122484 -0.12346513 -0.055923678 -0.17614949 0.031222166 -0.29292375 0.2614884
0.08025259 0.39439425 -0.24114746 -0.5380311 -0.108124375 -0.1120893 -0.26655343 0.4588479
-0.10509327 -0.06672646 0.30843252 -0.050328664 -0.31601226 -0.06398864 0.08767852 -0.12832534
0.061599344 0.010967227 0.18347116 -0.045057386 0.00939703 0.0073016067 0.14983328 -0.024572315
-0.109387435 0.12123124 -0.0034339863 0.12131735 0.17409424 -0.16413176 -0.036896516 -0.0672357
0.3364695 0.4561903 -0.09420345 0.23444758 -0.044861246 0.18309447 -0.19207971 -0.0058434703
-0.039401636 -0.17011781 -0.048479166 0.06717347 -0.22556004 -0.18331894 0.30754235 -0.11804557
-0.025175814 0.006365866 0.0019343524 0.028550776 -0.0148861725 -0.18069714 -0.040455364 -0.013848042
0.05359622 0.044646513 -0.041398197 -0.00053107564 -0.032521687 0.06490122 -0.119990796 0.05574165
-0.10227915 0.033872 -0.011030785 -0.091462255 0.059456237 -0.25218973 -0.14441907 -0.30566317
0.17443453 -0.24200635 -0.09155253 -0.17509207 0.31918877 0.27758825 -0.16008234 0.25481635
0.2987698 -0.15017676 -0.011511618 0.2304134 0.2197767 -0.4456159 0.039370958 0.03158909
-0.019679036 -0.077398926 0.11684304 0.09476631 0.096192464 -0.027139863 0.03555756 0.013045399
0.032575626 0.0099237515 -0.11515374 -0.11103148 -0.02687359 0.05207823 0.06956687 -0.029325439
-0.03604156 -0.06972992 -0.110298716 -0.3183678 0.29552647 0.020157455 0.077856116 0.2796512
-0.2172562 -0.16605024 0.07237331 0.2376034 0.15564874 -0.044846036 0.3748637 -0.028630307
0.23230232 0.3337938 0.023589835 -0.08936101 -0.08684006 0.06782454 0.13892186 0.07908095
0.055597965 0.09067162 0.052265488 -0.09477241 -0.08990975 -0.06534042 -0.004415448 0.07922647
0.1246247 -0.15926862 -0.018553862 -0.009953724 0.016666196 -0.005579136 0.12397734 -0.2937425
0.28881806 0.56341475 -0.26400048 0.3329524 0.3488838 0.20203178 -0.077649355 0.07280216
0.060403116 -0.04448231 -0.08698847 0.10476318 -0.11309934 0.010989931 0.04740866 0.054072045
-0.08384829 -0.062238257 -0.021523835 -0.032826398 -0.06640487 0.071569055 0.06604155 0.06411025
-0.115979165 0.010583339 0.022985255 -0.038878035 -0.15033446 0.057316978 -0.017418453 0.16109534
-0.11120011 0.23314676 -0.14504145 0.33969495 0.102521814 -0.2631488 -0.01142873 -0.22220248
0.08065313 0.02713625 0.46046436 0.2908694 0.14020766 0.11185816 0.11422868 0.3367095
-0.15148312 0.19347225 -0.058240958 -0.06336587 -0.10102473 -0.041925248 0.019714382 -0.027844686
-0.0847225 0.043269217 -0.04485332 -0.09368808 -0.1354622 -0.046517532 0.19324826 0.035425033
0.15986077 0.019626474 -0.043250225 0.037937216 -0.098068416 -0.09470358 -0.4476773 -0.19110022

conv1.bias f4 [32]
00000000: 6e28 99bc 0cc0 cabb 399f 313e b650 1d3e
00000010: 17ff c3bd b3be 82bd 96ff f7bc 60cd 8f3d
00000020: cca0 1abe 339f f73d 0347 773c 4de9 19be
00000030: 8eae 103d c503 05be 4a95 9d3d 6911 3bbd
00000040: e71d 15be 2dbf aebd 0dde 90bd 15f5 27bd
00000050: 77fc 0dbe 08eb aabb 7cb2 3d3e d2e2 513d
00000060: c0ba 30be d53f 48be 7d22 7ebd d466 243a
00000070: 2320 1cbe 5566 41be 1ad2 34be 7cb4 b7bd
-0.018696036 -0.0061874446 0.17345895 0.1536282 -0.09570139 -0.06384029 -0.03027324 0.07021594
-0.15100402 0.12090912 0.015092614 -0.15030403 0.03532272 -0.12989719 0.0769449 -0.0456709
-0.14562188 -0.08532558 -0.07073603 -0.041005213 -0.13865839 -0.005216006 0.18525118 0.051241703
-0.1725874 -0.195556 -0.06204461 0.0006271426 -0.15246634 -0.18886693 -0.17658272 -0.089699715

conv2.weight f4 [64, 32, 3, 3]
00000000: de3d 23be 71fc 3ab8 15f3 57be 518f 93bd
00000010: e8ec 043e e673 103d 3544 353e 0635 ffbc
00000020: 96ab fc3d 7acb 23be 52c5 24be 04b4 62bd
00000030: ae7e 323e f62d b43d 86ba ed3d 24df 1c3c
00000040: 0626 13bd dbc4 c13c 55f2 383e c294 f23d
00000050: d493 6cbe 2702 3dbe 8035 453d cda4 90bd
00000060: fc5d 0f3d 8d86 0a3e c6bc cc3d a0d5 a9bd
00000070: 520c 62be 71fa ecbd 210a f03d ca2a bf3d
00000080: eb8f 8b3c 3b4e c43d fa4c 863c b4b2 28bd
00000090: ed71 1bbe dccb 9b3c af19 d6bc 9b00 d63d
000000a0: 6e84 cfbd 4782 7dbd 2222 c13d d6f0 913d
000000b0: dfec e2bd 11fc 133e f998 89bc 9775 abbe
000000c0: fde3 193e b9e6 d7bb 91f5 733d 320c 463d
000000d0: 5be5 e93c d2da 373e 5c62 df3c 561c afbd
000000e0: 8123 33bd 00fa 81be 8fad de3d 1349 3a3b
000000f0: 6a2f 7f3d 7cc9 3ebe c3e3 eabd 6c86 0bbe
00000100: 4be2 49be 6974 6e3b 36cd 6a3b 9553 683d
00000110: a866 65bd 9b65 abbd 78ef 2fbe d2eb 99bd
00000120: a22e 5dbe 93ec cebc b63c 18be 990a 8dbd
00000130: 2a33 2cbd 8be0 edbd bc2f dabb 929e 1ebe
00000140: 9649 44be 3469 5c3e a019 01be 1f1f 12be
00000150: 5ed0 fa3d a3fa b23d 1e08 77be f1e3 043e
00000160: 7c8e d33d 5fd3 6d3d e18b 18be d316 973d
00000170: a41c 5cbb ae14 af3d 266d ac3b 99ae 053d
00000180: 2dfa 053d b532 393d 4e4f b83d c7fb 5ebe
00000190: 6cfe 383e 2739 1d3e 39ca 9dbc cb1f 1dbe
000001a0: cf2c 6e3d 56c6 843d 811a 1cbc 6443 ce3c
000001b0: ac17 66be adbf 8ebc 4d85 f4bd 0f89 d03d
000001c0: f75d 283d 9e9b 49be 6d47 e5bd ce1f c4bc
000001d0: 55a4 a03d 8ef0 4e3d 131a fc3d 54ec 3b3e
000001e0: 4baf b6bd 2023 04be 0d75 38be f940 62bd
000001f0: d761 dc3c ba91 0d3d 0ce2 9bbd b06a 023d
00000200: 6d56 12be 10cf 66bb 7d2a 963d 2de0 75bd
00000210: bbbe 433e 5c45 5cbc e304 e13d 5a6f c9bd
00000220: 7c94 b3bd 5165 63be 2a88 d9bd f52f 3fbe
00000230: fdbe 833d 8423 043d fb22 003e e8bb 7bba
00000240: fff0 d6bd c849 8dbd 6377 353e 1761 13be
00000250: 96d6 293d 24f7 853d 195e 81bc 6ce8 15bd
00000260: 12cd 4b3e 1cb6 acbc 029d 39be 15ee 9abd
00000270: 89fd 8bbd 6aec 90bd 65d7 bbbc 57db c93d
00000280: 0b07 fe3d bf86 d13d 3e73 083e 9a82 3abd
00000290: c6cd 4e3d c0d9 0abe de80 32be 94d4 bd3c
000002a0: c259 eabc 8a03 01bd c1ce 0cbe 41ab 83bb
000002b0: 6204 24be a616 a8be acaf a43d b231 35bd
000002c0: a518 d83d 374e 673d 324b 6d3d 97e4 8aba
000002d0: 9418 31bb 6a6b a1bd e30a 173e d93c fdbd
000002e0: 343c 8bbc 04a7 1bbd 98bf 9ebe b51d 0ebe
000002f0: 3081 ffbd 93a3 6bbe 07ac ea3d f6ac da3c
00000300: 7e3b 1bbd d04f d73c 3c44 52bd c748 2b3e
00000310: 6732 d93c 6f56 0bbd 74a0 9f3d 75b7 e33d
00000320: 39c9 aebe 1a8a ba3d c572 083e a303 7a3c
00000330: 6e98 3a3e a85e 0c3d a711 d73c 3536 abbc
00000340: 51da 1dbe 34e5 503d 8b5c 6eba 4658 66bd
00000350: 2012 c73c 7ac2 88be 5a7b 2bbe fee9 a9be
00000360: 6da9 96bd 7664 32be 4c2a 273d 0b62 db3c
00000370: 3b28 503e 6d80 f33d bd8a 1b3e 7a35 58ba
00000380: f2cc d03d 82e7 fb3c 2dd3 bd3c 1d48 033e
00000390: 8790 6cbd aeba d53d 8706 043e f5a2 24be
000003a0: 747c 903c 4615 ef3c 6db8 903d 8762 093e
000003b0: c57a 443d 1962 0cbe 09ac 8ebd 7cc6 4cbe
000003c0: cda6 abbd 2174 43be 7596 3e3c e3e2 d93d
000003d0: 48a2 cdbd 8100 92be 2db5 0e3e 026a c5bd
000003e0: 6701 9cbd beeb ee3c 374f da3b fb63 eebd
000003f0: 9000 d73c c29f 76bb a756 7b3e bcbb 8abd
-0.15941569 -4.458096e-05 -0.21088822 -0.0720507 0.12980998 0.03526678 0.177018 -0.031153213
0.12337415 -0.15995589 -0.16090897 -0.055347458 0.17431137 0.08797829 0.11607842 0.009574685
-0.035924934 0.023653438 0.18061192 0.118447796 -0.23103267 -0.18457852 0.048146725 -0.07062683
0.03500174 0.1352789 0.09996943 -0.08292699 -0.22075012 -0.115712054 0.11720682 0.09334333
0.017036399 0.09585234 0.016394127 -0.04118605 -0.15180178 0.019018106 -0.026135294 0.10449334
-0.10132681 -0.06189182 0.094303384 0.07126014 -0.11080336 0.14451624 -0.016796576 -0.3348815
0.15028377 -0.0065887836 0.059560362 0.048351474 0.028551748 0.17954567 0.027268581 -0.085503265
-0.04373503 -0.25386047 0.108729474 0.0028424903 0.062301077 -0.18631548 -0.11469223 -0.13625497
-0.1971523 0.0036385304 0.0035827882 0.056720335 -0.056006104 -0.08368989 -0.17181194 -0.07515682
-0.2159982 -0.025259292 -0.1486691 -0.06886787 -0.04204098 -0.11615094 -0.0066585224 -0.15490177
-0.19168696 0.21524507 -0.12607431 -0.14269684 0.12246774 0.087392114 -0.2412419 0.12977578
0.10329911 0.058062907 -0.1489711 0.073774 -0.0033586407 0.08548866 0.005262035 0.032637212
0.03270929 0.045214374 0.08999501 -0.21775733 0.18065804 0.15353833 -0.019261466 -0.1534416
0.0581482 0.06483142 -0.009527803 0.025178619 -0.22469968 -0.017425383 -0.119394876 0.10182392
0.041105237 -0.1968827 -0.11195264 -0.023940947 0.07843844 0.05052238 0.12309661 0.18351871
-0.08920153 -0.12904024 -0.18013401 -0.055237744 0.026902122 0.034562804 -0.076114744 0.031840026
-0.14290781 -0.0035218634 0.07332323 -0.060028244 0.19115727 -0.013444271 0.1098726 -0.09835692
-0.087685555 -0.22206618 -0.10621674 -0.18670638 0.064329125 0.032260433 0.12513344 -0.00096028903
-0.10495185 -0.06898838 0.17721324 -0.14392506 0.04146441 0.06541279 -0.01579194 -0.036598608
0.19902447 -0.02108293 -0.181263 -0.07564942 -0.06835467 -0.070763424 -0.022929857 0.09856289
0.12403687 0.10230779 0.13325211 -0.045534708 0.05048921 -0.13559628 -0.17431971 0.023172654
-0.028607253 -0.031497516 -0.13750745 -0.004018218 -0.16017297 -0.3282978 0.08041319 -0.044236846
0.105515756 0.056471076 0.05793304 -0.001059669 -0.0027022706 -0.07881816 0.14750247 -0.123651214
-0.01699648 -0.038001075 -0.3100555 -0.1387852 -0.124758124 -0.23011617 0.11458593 0.026693802
-0.037898533 0.026283175 -0.051334605 0.16726981 0.026513292 -0.034017976 0.07794276 0.11118976
-0.34137896 0.09108372 0.13325031 0.015259656 0.1822221 0.03426996 0.026253534 -0.020899871
-0.15415312 0.050999835 -0.00090927695 -0.056236528 0.024300635 -0.26710874 -0.16746274 -0.33186334
-0.07356534 -0.17421135 0.04081182 0.026780149 0.20327847 0.1188973 0.15189643 -0.0008247715
0.1019534 0.03075004 0.023171986 0.12820478 -0.05775502 0.10435997 0.12893115 -0.16077788
0.017637469 0.029184949 0.070664264 0.13416491 0.047968645 -0.13709296 -0.06966407 -0.19997591
-0.08381424 -0.19087268 0.011632551 0.10638978 -0.10040718 -0.2851601 0.139363 -0.0963936
-0.07617455 0.029165145 0.006662275 -0.116401635 0.026245385 -0.0037631844 0.24544774 -0.06774089

conv2.bias f4 [64]
00000000: ed48 8f3c 0d19 1bbc 9d82 8ebd 2743 3cbd
00000010: 68c9 dbbd 411e 93bb 53ef a1bd 5897 09bd
00000020: cb84 933d f996 d8bd 0bc1 7e3d 3c2c 1b3e
00000030: bbc8 03bc b0fc fcbc c4fb e4bc 1dbe 91bd
00000040: 7885 233d fa36 f5bd 197c bb3d b560 30bd
00000050: b499 a7bd 50a8 56bd 2f2b 1dbe 51b6 05bc
00000060: b8a3 43bd cbd2 febc 50cd 3bbd 1b9e 57bd
00000070: 0036 493d 11a6 4dbd 07f8 84bc 28b1 59bd
00000080: be4d 993c 08f5 b83d 6b15 95bc 1fc4 06be
00000090: 6586 6bbd 6b26 cabd ad05 b5bd 044d b9bd
000000a0: 6eed f4bb 7b59 f8bd 2593 ed3c 38ae d33b
000000b0: d698 07bd 1f3b 3f3b 9659 ae3d 4166 4abd
000000c0: 6643 08bd 534f 49bb 95e9 abbd 5e80 d1bc
000000d0: 4957 7ebd 29d0 2cbd 8a78 c1bd 793d bbbd
000000e0: 5be5 21bd da8d d33d d543 2bbd dd61 393d
000000f0: 052e e1bd f0dd c93c 9d6c 893c 4fc2 acbd
0.017490828 -0.009466422 -0.06958506 -0.04596248 -0.107317746 -0.0044896905 -0.079069756 -0.0335916
0.072030626 -0.10575671 0.06219582 0.15153593 -0.008043463 -0.03088221 -0.027952082 -0.07116339
0.039922208 -0.119733766 0.09154529 -0.043060977 -0.081836134 -0.05240661 -0.15348504 -0.008161143
-0.047763556 -0.031106373 -0.045850098 -0.052641015 0.049123764 -0.0502072 -0.01623155 -0.053147465
0.018713828 0.09031111 -0.01819869 -0.13160752 -0.057501215 -0.09870609 -0.08838973 -0.09047893
-0.007474593 -0.12126442 0.029000828 0.0064599775 -0.03310474 0.0029179526 0.08513181 -0.049413923
-0.0332674 -0.0030717447 -0.083941616 -0.025573906 -0.06209496 -0.042190704 -0.09446819 -0.09142584
-0.03952537 0.103297904 -0.041812737 0.045259345 -0.10995106 0.02464196 0.016775424 -0.08435499

conv3.weight f4 [128, 64, 3, 3]
00000000: 7b02 1d3d 49e7 4d3d 2f3f bfbd eca2 9abc
00000010: 83a7 a8bc 1dd1 ab3c 8531 e83c 7c07 30bd
00000020: 22d8 e13d 2735 543d 679b e63d 9f68 683d
00000030: 621f 083d 2d64 3c3d e982 f23d a179 983d
00000040: 8b81 6a3d 1a98 30bc bb05 e43c e990 533c
00000050: 77a7 753d 2aa6 253d eb4f 893d 1644 be3d
00000060: d24b 9b3a d50c f53c 62fe 34bc ec15 863c
00000070: f0e5 96bb 01cd 1f3d 4c92 00bb 33d7 833d
00000080: 5660 ee3c a4fc 9a3d 8248 f1bc 71d0 873d
00000090: de09 da3b 27c5 313d ee76 a3bb 6dbb 663d
000000a0: 6f01 93bd 76c8 333c 8015 a53d b41e fbba
000000b0: 8d40 d63b 5927 843d 193f 293e f2f3 103d
000000c0: 7fe5 ed3b f579 d1bc d2b3 143e bd7d 3abd
000000d0: 4a3a 0abd 6905 46bd 6fad 1f3d b540 6bbc
000000e0: 33a8 9aba 1586 a83d bda0 fa3c d886 7ebd
000000f0: 45d0 ebbc 8c56 dabc 5a1f a53d f0e4 3b3e
00000100: 28b9 8c3d c34a 7b3d fa86 8cbc eb62 0d3d
00000110: 0069 1ebc a228 e0bc 6d1e f5bc cdfd 2fbe
00000120: 75e7 733c 222b b739 9ca8 cc3d 8bc2 0dbc
00000130: 4304 213c 10dc 4cbd dec7 393b e8c7 973c
00000140: c075 113d acc3 563c 0f51 cc3c 017c 433d
00000150: bc20 c63b a744 723d df67 bebc 9535 2a3d
00000160: 1190 6e3c ad90 f73b 06cc cabb 56a5 b83d
00000170: b1fa bf3d 8d17 e83c 280d cdbc 171b 2ebc
00000180: b2aa 933c 6bc1 e53c 9db6 9e3d ef9c 2ebd
00000190: c5c9 9d3d c69f ea3b bda4 d8bc c50f 8dbb
000001a0: fbdb ed3c 05d3 86ba a2b7 b13d 7f8b 04bd
000001b0: ad1a 5b34 042b 5035 ab15 e935 a717 90b5
000001c0: 513a 7636 5741 2837 fd45 07b7 ee42 7637
000001d0: 6c37 7037 6063 ae3d a155 693d 79c9 5b3d
000001e0: 0b5f 76bc 05d8 9abd 77cb 213e 90f4 3a3e
000001f0: a51d 89bb e82b 01bc 27d9 bf3c 49c6 a73d
00000200: 11d6 f53c c8ef 9cbc a5bb 483d 02a5 4a3d
00000210: 1439 44bc 624a f03d 5e83 02bc 2cfe 4e3d
00000220: 1f8f c73d 433c c5bc 0347 8dbc 0eed 1bbd
00000230: 5958 013e 0086 043e abee 973c 608a 053d
00000240: 9be0 7b3d c8cd 983c 3192 4abd fda2 803d
00000250: e192 c83c 0e44 3c3e a93c 91bc 6740 49bc
00000260: 91df 763b b3ad 843c 1dfa 903d dd89 b3bc
00000270: 86fe 0e3d 90bd d43a d2fb 073d 691b e2bb
00000280: 262a ec3d 36c6 223c 5c38 7cbd 0374 a03c
00000290: ff2f 953d b63d 87bb b9e9 59bd 9e19 4bbd
000002a0: 9c05 6b3c 3239 34bb aa0a acba 66aa 8fbd
000002b0: 463d 16bd 657d a03c 8a54 9c3d 53d2 843d
000002c0: 2448 ab3d 1ed6 2abc 751c 14bd e185 833c
000002d0: 6218 7b3d 799a a03d 83eb 133c d5d3 113d
000002e0: 9a46 d5bc 88d0 ad3d 9aa4 ac3b bdc4 06bb
000002f0: ce8b c93b a085 563d 08ad 3a3d 815e e93d
00000300: 8b9d 503d 65a2 653d 93b5 043d 1a63 463d
00000310: 9629 a03d caa6 333c 07f0 7d3d b7c7 3b3d
00000320: dedc 743d 12cb 573c 53ff a2bc 518c 823b
00000330: 736c 303d f3ef 123c 931e 9bbc 5334 193e
00000340: db56 a63d 7bc3 933d f3b4 cfbc a7c7 9a3d
00000350: 7203 3e3d 7827 6abb ccad e83d 5598 04bc
00000360: f8b3 4d3d 3889 513d 9d20 3f3d 5839 e23d
00000370: 2605 b43d 6b07 e03d ff99 69bd 09a2 363d
00000380: 7214 cb3c 0b4e 593d 233f 293d d1fa dbbc
00000390: f1fa 073d 1e2d e23c 2d15 f4bc e2fa ea3c
000003a0: d413 a0bd c808 8bbc 3ca9 27bd 6034 353d
000003b0: 8b70 87bb 20f2 69b9 2643 813c 9540 203b
000003c0: ed24 ad3d 3b69 f13b 12ae 20bd 9fa8 8438
000003d0: bb82 cbbc 0159 2a3c 2d3b ff3d 4b56 07bb
000003e0: a01c 743d 1597 a0bc 1bc4 f3bb 2a75 c63d
000003f0: 4ca8 ba3c fe56 88bd 34e4 ad3d 12de 3dbd
0.038332444 0.0502694 -0.09338223 -0.018876515 -0.020587688 0.020973736 0.028343925 -0.042975888
0.11027552 0.051808503 0.112601094 0.0567404 0.033233054 0.045993973 0.118413754 0.07445074
0.057252448 -0.010778451 0.027834764 0.012912967 0.05997416 0.04044167 0.06704696 0.0929033
0.0011848158 0.029913345 -0.011046978 0.016367875 -0.0046050474 0.039013866 -0.001961845 0.0643753
0.02909867 0.075677186 -0.02945352 0.06631554 0.0066540083 0.04340091 -0.0049885428 0.056331087
-0.07178008 0.010973087 0.080607414 -0.001915893 0.006538457 0.064528175 0.16527976 0.035388894
0.007260024 -0.025570849 0.14521721 -0.04553007 -0.033746995 -0.048345003 0.03898376 -0.014358689
-0.0011799395 0.08228699 0.030594224 -0.062140316 -0.028785834 -0.026652597 0.080626205 0.18349051
0.06871253 0.061350595 -0.017154206 0.034518164 -0.009668589 -0.027363125 -0.029921735 -0.17186661
0.014886727 0.00034936616 0.09993097 -0.00865234 0.009827676 -0.050014555 0.002834789 0.01852794
0.035512686 0.013108175 0.024940995 0.04772568 0.0060463827 0.059147503 -0.023242889 0.041555006
0.014560715 0.0075550885 -0.0061888723 0.0901591 0.093739875 0.028331542 -0.025030687 -0.010626576
0.01802573 0.02804633 0.077496745 -0.042630132 0.077045 0.0071601598 -0.02644574 -0.0043048584
0.029035559 -0.0010286277 0.08677603 -0.032359596 2.0405669e-07 7.7548634e-07 1.7366159e-06 -1.073572e-06
3.6690801e-06 1.0028793e-05 -8.0629225e-06 1.4678326e-05 1.4318019e-05 0.08515048 0.056966428 0.053658936
-0.015037308 -0.07560734 0.15800272 0.18257356 -0.004184442 -0.007884003 0.023418976 0.08192117
0.030009301 -0.019157305 0.049007077 0.04947377 -0.011976499 0.117329374 -0.007965891 0.050535366
0.09744095 -0.024076587 -0.017245775 -0.03806787 0.12631358 0.12941742 0.018546423 0.032602668
0.061493497 0.018652812 -0.049455825 0.062810875 0.0244841 0.18385336 -0.01772912 -0.012283421
0.0037669877 0.016196107 0.07078955 -0.021916324 0.0349107 0.001623081 0.03319914 -0.00690024
0.11531477 0.0099349525 -0.061577186 0.019586569 0.07284545 -0.0041272296 -0.05320141 -0.049584977
0.014344599 -0.0027499911 -0.0013125737 -0.07014923 -0.03667953 0.019591043 0.07633312 0.06485429
0.08363369 -0.010427026 -0.03615995 0.01605505 0.06130255 0.07841963 0.009028318 0.03560241
-0.026034642 0.0848704 0.0052686455 -0.0020564042 0.006150699 0.05237353 0.04557517 0.11394978
0.050931495 0.056063075 0.032399725 0.048434354 0.07820432 0.010965059 0.061996486 0.04584476
0.059780948 0.013170974 -0.019897139 0.003984012 0.043072175 0.008968341 -0.018935477 0.14961366
0.08122035 0.07215019 -0.025354838 0.07557612 0.046390004 -0.0035729092 0.11361274 -0.008092959
0.05022046 0.051156253 0.04666196 0.11046094 0.087900445 0.10938915 -0.057031628 0.044588123
0.024790023 0.053052943 0.041319977 -0.026852997 0.0331983 0.027609404 -0.029795254 0.028684083
-0.07816282 -0.01697196 -0.04093288 0.0442394 -0.004133289 -0.0002231081 0.01577909 0.0024452556
0.08454309 0.007367281 -0.039228506 6.3256586e-05 -0.02484261 0.010397197 0.12462459 -0.00206508
0.05959761 -0.019603292 -0.007439149 0.09690316 0.022785328 -0.066572174 0.08490792 -0.04635436

conv3.bias f4 [128]
00000000: afa9 543c 4e9e 88bc f277 e2bb 349a 913d
00000010: 709f 6c3d 0363 14bc 0fca bd3d e105 02bd
00000020: 75e6 4abe a9ef 133d b7b9 17bd 516c b23c
00000030: 45bb cfbd 4443 3cb4 0b5b 16b7 2c54 013d
00000040: ea46 b13d 0756 64bd 1431 1bbc b53f 86bc
00000050: 5f3a e596 77e1 ac3d 2b2e f7bd b1cf 393d
00000060: cbcf a939 1a35 90bd f893 153e 0d73 fdbc
00000070: 97a8 c0bc 6db1 4f3d e58a a4bd cd2a 4fbd
00000080: d28a 62bd 8a1b f9b1 d405 353d 9e20 ac3c
00000090: ec88 a6bb 6b45 c6b1 ffc7 963d 5624 24bd
000000a0: 59a7 97bd b648 21be f125 38be 474f 183d
000000b0: ce2f 77bd 698b 2b3c d2b7 30bd 2034 b23d
000000c0: e3c0 ea3d 7801 ae3d ee74 813d 2a7e c0b5
000000d0: 39bd 92bd 42a4 8d3b f07b 90bd 4d25 06bd
000000e0: 9e50 9ebd 6054 7dbd 3d0c 92bc 18e2 96bd
000000f0: 40c8 e93d 5403 2ebc e0b3 94bd 7df5 70bd
00000100: 85cc dcbd 26ea 14bd 0583 603e e209 9abd
00000110: ed03 acbd 7212 4c3d 8fad 23be daba 943d
00000120: 0b8f 9ebd 6e79 cfbd 275b cbbd 6e81 82bc
00000130: ad0a bfbb 649a df3c 0165 bcbc 9a32 c13d
00000140: bdcd c33b ec41 89bd 780d e53d 7360 913d
00000150: bfca ee3c 22f6 9393 24ac bebd d5d3 593a
00000160: 37c7 8fbd 5114 a3bc ad56 bebd 14dc 40bc
00000170: 06dc bebd a68d 4cbd 3352 ec3d 54e4 ecbd
00000180: ba71 62bd 09ab 043e c062 82bd 81f3 013c
00000190: 47dd 08bc 006a 483d 8670 d5bc 70af 8bbd
000001a0: ada5 b739 3e25 c4bd 9690 d4bd 8b77 5fbb
000001b0: e12b 91bd 979f 32be 840d cebd cf37 c43c
000001c0: 107d adbd fe25 a23b df1f 253b 52fb debd
000001d0: f7ad 0d3d c51a 8a3d e8d6 97bd 33dc e43d
000001e0: 3144 09bd c9cc 363b 7711 0a3b e3a9 ab3d
000001f0: ed8c 9a3d 51ba 713d a01a 4bbd 811c 8c8f
0.012979909 -0.016677048 -0.0069112713 0.0710949 0.05776924 -0.009056809 0.09267055 -0.031743888
-0.19814475 0.03611723 -0.037042346 0.021780165 -0.10143141 -1.7533335e-07 -8.961894e-06 0.031574413
0.08656104 -0.055746105 -0.00947215 -0.0163878 -3.7033783e-25 0.084414415 -0.12069353 0.045364086
0.0003238901 -0.07041378 0.14607227 -0.03093865 -0.02351789 0.050706316 -0.080343045 -0.050577927
-0.05530817 -7.2499846e-09 0.04419501 0.021011647 -0.0050822403 -5.7704503e-09 0.07362365 -0.040073715
-0.07404966 -0.15750393 -0.17983223 0.03718498 -0.060348324 0.01047025 -0.043144055 0.08701348
0.114625715 0.08496374 0.06321131 -1.4341833e-06 -0.071649976 0.0043225596 -0.07054889 -0.032750417
-0.0773022 -0.061848044 -0.017828101 -0.07367343 0.11415148 -0.010620911 -0.07260871 -0.058827866
-0.107811965 -0.036356114 0.2192498 -0.07521416 -0.08399186 0.04982228 -0.15984176 0.072622016
-0.07742127 -0.10130583 -0.09929495 -0.015930858 -0.00583013 0.027295299 -0.022997381 0.094334796
0.0059754536 -0.06702027 0.111842096 0.07098474 0.029149411 -3.7350723e-27 -0.09310177 0.00083094585
-0.07020419 -0.019907149 -0.09293876 -0.011771221 -0.0931931 -0.049939774 0.11539116 -0.11566988
-0.05528424 0.1295587 -0.06366491 0.007931591 -0.008353538 0.048929214 -0.026054632 -0.068205714
0.00035027918 -0.09577416 -0.1037914 -0.0034098353 -0.07088447 -0.17443691 -0.10061172 0.023952393
-0.084711194 0.0049483767 0.0025195999 -0.10887779 0.034589734 0.06743387 -0.07414037 0.11174812
-0.033512298 0.0027893058 0.0021067539 0.08382013 0.07546411 0.059015576 -0.04958594 -1.3816045e-29

act_conv1.weight f4 [4, 128, 1, 1]
00000000: a3d9 25bc 1b4d b8bd db71 8bbd e7da 0d3e
00000010: ed1a 20bd 5a98 1a3e 969f f63e d0a0 cabd
00000020: 9b23 6b3c f017 17bc 8a7a 003e 2e82 fbbd
00000030: 74d3 793d 2deb 0000 4d7d 0180 1df5 973e
00000040: 95ab ec3c 7236 06bd fee5 1ebe 316c 543d
00000050: 59c1 0200 a2f1 a9be fd53 94bc d93e a63e
00000060: 1fec 9ebd 0f19 89bd b31b 033e e436 c6be
00000070: b905 f33d 3113 53be 163d d93e 0414 493e
00000080: 2ad1 223d 6b11 0300 ccd0 013e 0150 993d
00000090: 4c47 ae3c 1fbf 0100 04bf 0b3e 590f 1cbd
000000a0: 6db7 25bd 07a9 9a3d 52d5 9cbd 94ac d43d
000000b0: 8a4a 2b3e b500 d93d d670 813b 8a14 483d
000000c0: eb7b 5b3e ebd5 a43e 541e bd3c 6a70 0e39
000000d0: e835 b8be 0843 963d 04a5 9a3d 813b 1ebe
000000e0: e4a5 9cbe c03d 773d 4da9 80bd cd56 6bbd
000000f0: fe19 e33e 2784 e4bd eb3f bbbe 54d9 9a3e
00000100: 2a5f 223d 394c 163e 6895 bd3e 3b18 38bb
00000110: c99a 943e 769f 4bbd cec5 09be dfe7 1b3e
00000120: bbc1 91be e45b 56bc 1d78 bdbd 37cb 04be
00000130: e3cb ad3d db9c bd3d 29cf b0bd a4b9 713d
00000140: 7792 6f3e 2387 05be ccc5 633e da6d b83d
00000150: 386e 193c 5c36 0200 180b cbbd 34eb 2c3d
00000160: b907 253c ab09 333e ff9b 7fbe 735c 5bbd
00000170: b26f a63d 39df a7be 12d3 de3e 794b 333c
00000180: 0bf7 823d 4dcf 043f 72bb 563d 8024 523d
00000190: d189 343d fedc 163e d50b 4c3d a347 df3c
000001a0: 7ef9 2c3e 63c9 4abd 1f5d 7fbd e4a2 683e
000001b0: 193b dbbd a435 983c d2af 913d 16a3 dd3e
000001c0: 2520 76bc ac78 523d fb00 573e 5512 10be
000001d0: f85a 053e e1b9 123e 25c9 48bd f1e2 143e
000001e0: 53bb d63c d7ac 4d3e 3906 01be ef88 7b3b
000001f0: 08a1 cdbd 7746 693d 8df7 8fbd ce12 0000
00000200: 174d 7d34 a41e 6aab 015b 12af bc31 0080
00000210: 9356 ab00 c7c7 6fb1 179a 0000 96c6 99b6
00000220: e778 90b8 c145 e437 105a 0088 93b3 041c
00000230: fca3 d3b7 07cc 0080 1f2b 0000 bcdf 3eb7
00000240: fdbd 85b7 3fcf b3b7 907e a5b6 9cf4 9eb1
00000250: f50b 0000 3044 1db3 5d53 38ac 9348 99af
00000260: 775a e6ad e3ab 0bb4 f4a5 d2b4 eb39 0000
00000270: 230c a593 44ee ab9e a949 9db4 477a 0000
00000280: 9f55 0d35 49d5 0000 c793 31a5 e97b 2aa1
00000290: 98e3 b4b5 2f30 0100 c6d3 7431 fb8e 0080
000002a0: 1a27 bab5 d0c8 48b6 ae6d 0000 40e1 b9b5
000002b0: af14 d8b0 948d 0000 8dd1 0080 6462 0300
000002c0: 7c63 0130 5b5e 1327 80e4 40b6 6fd6 0180
000002d0: a230 9c23 920a 0180 5f51 24b7 d465 0080
000002e0: b3a0 4cb2 4d50 cda6 49a8 0080 e9a9 8dac
000002f0: 6deb f0b7 d47c 0080 0a73 0180 1c43 93b3
00000300: 8eaf 47b1 8388 d7ae 4254 0100 d449 c2b3
00000310: f2b5 69af dce4 a4a4 96d8 d5b6 134a a8a3
00000320: 2419 d5b3 1c7a 981a 45e1 deb3 5ce5 6d9d
00000330: d67c 422f 7a70 ddb6 4e57 5ab5 1da2 42b3
00000340: f586 18b1 4e1d 8c2a d7c8 5a25 6a23 87a9
00000350: b093 40b8 1de6 0000 5f60 0100 4ddf 28af
00000360: 10d5 50b5 724c 0000 fec2 2db6 deee 0200
00000370: 2c6a a62f 5d2a a0b3 0254 8ba8 7269 63ad
00000380: 5e9e fe90 93dc 92ad 710b 3a29 a378 d4b4
00000390: 96e1 88b7 6160 6cb2 225d 0080 21db c3a7
000003a0: 1a59 c5b6 53ee ef35 e848 deb3 e8da 3934
000003b0: 4f9b 29b7 5433 7db2 793c 91b6 11a5 a8a9
000003c0: 543b a4b7 4823 61b5 1680 0000 1eb0 4593
000003d0: 4253 ec2a 64d2 0080 1118 4636 9837 b802
000003e0: 872f 62b3 497a 42af eb70 65b7 ddf2 83b5
000003f0: 4e17 0200 35f4 1b22 4f4a 58b4 cd10 0300
-0.010122689 -0.08999082 -0.068088256 0.13853036 -0.03908818 0.1509718 0.4816863 -0.09893954
0.014351751 -0.009222016 0.12546745 -0.12280689 0.060992673 8.4365e-41 -1.36785e-40 0.29679194
0.02889041 -0.032766767 -0.15517423 0.051860992 2.53031e-40 -0.33192164 -0.018106455 0.32469824
-0.0775988 -0.06694233 0.12803535 -0.38713753 0.11866326 -0.2061279 0.42429417 0.19636542
0.039750256 2.81755e-40 0.12677306 0.07485963 0.021274231 1.60397e-40 0.13647085 -0.038100574
-0.04045813 0.07551771 -0.07657875 0.10384479 0.16727653 0.10595838 0.0039502187 0.048847713
0.2143399 0.32194456 0.02308575 0.00013584053 -0.35978627 0.07337004 0.075510055 -0.15452386
-0.30595315 0.060361624 -0.062822916 -0.057455827 0.44355768 -0.111580186 -0.36572203 0.30243933
0.039641537 0.14677514 0.3702805 -0.0028090614 0.29024342 -0.04971262 -0.13454363 0.1522517
-0.28468117 -0.013083432 -0.092514254 -0.12968145 0.08486154 0.092584334 -0.08633263 0.05901493
0.23395716 -0.13039832 0.22243422 0.090053275 0.009364657 2.03171e-40 -0.09914225 0.042216495
0.010072642 0.17484157 -0.24961852 -0.053554963 0.08126773 -0.32787493 0.4352041 0.010943287
0.06394776 0.51878816 0.052424856 0.05130434 0.044076744 0.1473274 0.04981597 0.027255839
0.16892049 -0.049508464 -0.062344667 0.22718388 -0.10704631 0.018580265 0.07113613 0.43288487
-0.015022312 0.051384613 0.20996468 -0.14069493 0.13022983 0.1432872 -0.04901995 0.14539696
0.02621237 0.20085464 -0.1260003 0.003838118 -0.1004048 0.056951966 -0.070296384 6.746e-42
2.3590506e-07 -8.317602e-13 -1.3310954e-10 -1.7841e-41 1.5734927e-38 -3.4892638e-09 5.5277e-41 -4.5828738e-06
-6.888975e-05 2.72122e-05 -3.8624467e-34 4.390723e-22 -2.5229521e-05 -7.3191e-41 1.5469e-41 -1.1376975e-05
-1.5943306e-05 -2.143497e-05 -4.932117e-06 -4.626214e-09 4.29e-42 -3.6616427e-08 -2.6194249e-12 -2.7882105e-10
-2.6188147e-11 -1.3007916e-07 -3.9236295e-07 2.0777e-41 -4.1663824e-27 -1.8203874e-20 -2.9297124e-07 4.3865e-41
5.265119e-07 7.6512e-41 -1.5402372e-16 -5.7762234e-19 -1.3477284e-06 1.0912e-40 3.5627052e-09 -5.1292e-41
-1.386946e-06 -2.991921e-06 3.9346e-41 -1.384913e-06 -1.5721947e-09 5.0789e-41 -7.5173e-41 3.10802e-40
4.70713e-10 2.0451498e-15 -2.8743234e-06 -1.6876e-40 1.693415e-17 -9.5627e-41 -9.794107e-06 -3.6529e-41
-1.1910902e-08 -1.4246498e-15 -6.037e-41 -4.026325e-12 -2.8719858e-05 -4.478e-41 -1.33104e-40 -6.857428e-08
-2.9058103e-09 -9.8013174e-11 1.22062e-40 -9.047258e-08 -2.1255867e-10 -7.1511365e-17 -6.3731086e-06 -1.8245968e-17
-9.9231585e-08 6.3063005e-23 -1.0378657e-07 -3.1485265e-21 1.7688548e-10 -6.5994072e-06 -8.1338374e-07 -4.5316586e-08
-2.2195625e-09 2.488933e-13 1.8976533e-16 -6.001348e-14 -4.5913912e-05 8.2549e-41 1.26407e-40 -1.5358843e-10
-7.7796085e-07 2.7423e-41 -2.589251e-06 2.6936e-40 3.0270664e-10 -7.4582864e-08 -1.5468533e-14 -1.292687e-11
-1.0042934e-28 -1.6696233e-11 4.131022e-14 -3.9575852e-07 -1.631751e-05 -1.3758922e-08 -3.341e-41 -5.4360952e-15
-5.8814303e-06 1.7876249e-06 -1.0350942e-07 1.7309105e-07 -1.0109346e-05 -1.4738209e-08 -4.3283767e-06 -7.489333e-14
-1.957795e-05 -8.387037e-07 4.5949e-41 -2.4951728e-27 4.1979793e-13 -7.5474e-41 2.9518308e-06 2.706828e-37
-5.266295e-08 -1.7687642e-10 -1.3675754e-05 -9.830943e-07 1.92031e-40 2.11357e-18 -2.0143601e-07 2.81533e-40

act_conv1.bias f4 [4]
00000000: ba6b 1f3e 7b9f acba f356 e6bc f470 a83e
0.15568438 -0.0013170087 -0.028117632 0.32898676

act_fc1.weight f4 [36, 144]
00000000: 2693 8ebd 04d8 87bd edbf 66bd 8a59 f93d
00000010: 4c8e 82bc 83b0 7ebd edda acbd 5ae3 20be
00000020: cec3 a8bd 95d6 38be 41bb d3bd a8c2 dbbd
00000030: acff 6fbe 064e a73d 90c9 033e b91e a7bd
00000040: e10e aabd 810f 02be 94ee 72bb eada 4e3d
00000050: b173 c9bd dbf7 0dbe 7b76 b8bd effd 84bd
00000060: 9799 91be 7256 9bbe 410f 8ebd 69ef 3fbe
00000070: 7047 e5bd 311a 6bbc d050 04be 912d 0f3d
00000080: 865c 43be 776c 41bd 8f19 f8bd 9dc6 34be
00000090: 3f87 0080 7cbf 0000 ffa5 0000 e135 0080
000000a0: 02da 0080 103b 0000 0fa0 0080 4d54 0080
000000b0: a313 0000 fe9b 0080 f7c1 0000 f9b5 0080
000000c0: f4bb 0080 1eb7 0080 f7a7 0000 3c8d 0000
000000d0: 7a8b 0000 b028 0080 0784 0080 cdaa 0000
000000e0: 383f 0080 0f0f 0080 e231 0000 098c 0080
000000f0: c4c2 0000 f789 0080 547b 0000 6296 0080
00000100: 25be 0000 a9ce 0000 d212 0000 b41b 0000
00000110: 2b93 0000 f5b5 0000 f08d 0000 30b8 0080
00000120: 5633 8a3b 1230 7bb7 01bb 1d3d 2aba 8c3d
00000130: 73b8 57bd a69d 5ebb 85cb 473d 16f6 3c3d
00000140: ade6 3a3d d8e0 1e3c 4bbe d43d 8758 b5bd
00000150: 1f8b d13d e32c 37bd dc4a 6bbd f9b6 c7bb
00000160: c534 9d3d 8e09 03bd c289 c43e 129a 79be
00000170: f2d3 8abc ef45 cc3c ea29 a73a 319d 963c
00000180: 44c3 3a3b 47c7 bbbd 66a4 8d3d 67ef bcbc
00000190: 8989 6cbd f4de db3b 64de 57bf bb5e d63e
000001a0: f36d bd3d c093 bcbc 6b1a 6d3d 064d 093d
000001b0: 50de e7ba 7372 28be 48d2 babd ffd4 12be
000001c0: 7a46 ee3d 41e7 a8bd 23f7 963c 8445 b5bc
000001d0: 1e3c cc3c 9dca 593d 87ca 7cbc 3ea3 bfbb
000001e0: 7af7 21bc 2844 e43d cb67 d4bc de71 e5bc
000001f0: cbbd 6ebd 628d 86bc 079f 333b e329 503e
00000200: 836d 39bd b24d e33c fb4b 9cbd 917b cdbc
00000210: be90 c7be 3232 363e d193 eb3c 3b63 ef3c
00000220: 4c37 0a3d 304d 983c 2b39 603e 9538 bc3e
00000230: c791 3c3e a0f6 4cbd 2386 72bd 74f4 6ebd
00000240: b34f 8dbd a3ad c4bd 54e5 5bbd aea8 c13c
00000250: d7e6 5a3d 1893 583c d114 bf3d 904d f2bd
00000260: 69d3 5cbc 9a01 d3bd c321 99bd 1a9b 28be
00000270: 16d9 20bd f18f 01be ed76 73bc 88ed 653e
00000280: 28c9 8ebd 04c6 a23c 485d dcbd 549d 78bd
00000290: 3f02 0abc 18f1 12be 7aec 54be 195d cfbc
000002a0: 04e1 90be 2d8c 06bd b0ec d5bd bfe3 05be
000002b0: 7082 36be 4b13 633d bd50 87be bf38 1cbd
000002c0: a0e5 d03c 2257 5cbe 979b 3cbd afa4 26bd
000002d0: 51b3 0000 ed3f 0080 210e 0000 ae02 0000
000002e0: 199d 0080 e5f9 0080 5f41 0080 b82d 0080
000002f0: a73b 0080 970c 0080 db4d 0080 9d45 0080
00000300: 5968 0080 a37a 0080 2377 0000 8a66 0000
00000310: 8731 0080 e4c0 0000 9dc0 0080 4846 0000
00000320: ac52 0000 6127 0080 a214 0080 49ce 0000
00000330: 0570 0080 7eaf 0000 12b1 0000 815d 0000
00000340: 3983 0080 6409 0080 972a 0080 3f64 0000
00000350: 5b49 0080 b4b9 0000 3b50 0000 47ca 0000
00000360: abee b43d c422 7c3d 92c4 8b3b c473 693c
00000370: d574 b0bc 806b 11bd 5cc2 f539 e56c e4bc
00000380: 9c36 0ebd 9cd2 003e a3df 953c 0880 ec3d
00000390: 2253 b8bd dfb9 b93c 9018 afbc c872 ccbd
000003a0: d1db 8bbb 8e1e 693d 8296 173e 7b44 403e
000003b0: bde6 32be acc0 9bbd 2a56 2e3d 3683 e03c
000003c0: 74d9 dabe 1383 853c a683 f93c 42b4 b63c
000003d0: c670 83bd 1257 12be 58b6 113e 46dc a8be
000003e0: 0bde e63e a03e 9c3d a4ec 203d fa25 8d3b
000003f0: aa11 87bd f76a 2cbd c492 3bbd 164b d6bd
-0.0696166 -0.066329986 -0.05633538 0.12175281 -0.015936993 -0.062180053 -0.08440194 -0.15711728
-0.08240472 -0.18050607 -0.1033845 -0.10730487 -0.23437375 0.08169179 0.12869859 -0.08160157
-0.08303619 -0.12701227 -0.0037068473 0.05050174 -0.098365195 -0.1386408 -0.09006973 -0.064937465
-0.28437492 -0.3033939 -0.06936503 -0.18743671 -0.11195266 -0.014349506 -0.12921453 0.034955565
-0.19078264 -0.04722258 -0.1211425 -0.1765389 -4.8517e-41 6.8692e-41 5.9548e-41 -1.9328e-41
-7.8206e-41 2.1188e-41 -5.7418e-41 -3.0241e-41 7.044e-42 -5.596e-41 6.9581e-41 -6.528e-41
-6.7425e-41 -6.569e-41 6.0254e-41 5.0665e-41 5.0035e-41 -1.4596e-41 -4.7362e-41 6.1272e-41
-2.2679e-41 -5.402e-42 1.7895e-41 -5.0235e-41 6.9869e-41 -4.9492e-41 4.4242e-41 -5.3947e-41
6.8211e-41 7.4136e-41 6.751e-42 9.938e-42 5.2794e-41 6.5274e-41 5.0918e-41 -6.6074e-41
0.0042175455 -1.4971958e-05 0.03850842 0.068714455 -0.05266614 -0.0033968478 0.048778076 0.046133123
0.045630146 0.009697162 0.10387858 -0.08854776 0.10231613 -0.04472054 -0.05744444 -0.00609481
0.076760806 -0.031991534 0.3838635 -0.2437518 -0.016946767 0.02493569 0.001275358 0.018385502
0.0028497735 -0.091688685 0.06916122 -0.023063375 -0.05774835 0.0067099277 -0.84323716 0.4186915
0.09249487 -0.023019671 0.057886522 0.03352072 -0.0017690156 -0.16449909 -0.09122139 -0.14339064
0.11634536 -0.08247233 0.01842839 -0.022127874 0.02493101 0.053171743 -0.015429146 -0.0058483174
-0.009885663 0.11145812 -0.025928399 -0.028008398 -0.05828647 -0.016424838 0.002740802 0.20328479
-0.045270454 0.027747009 -0.076316796 -0.025083335 -0.38977617 0.17792585 0.028757008 0.029222121
0.03374414 0.018591493 0.21896808 0.3676192 0.18414985 -0.050039887 -0.059209954 -0.058338597
-0.06899967 -0.09603431 -0.0536855 0.023640003 0.053442802 0.013218664 0.09330142 -0.118312
-0.0134781385 -0.1030304 -0.07477143 -0.16465417 -0.03926953 -0.12652566 -0.014859897 0.22453892
-0.06971961 0.019869812 -0.107599795 -0.060696915 -0.008423387 -0.14349782 -0.20793334 -0.025312947
-0.28296673 -0.032848526 -0.10445535 -0.1307516 -0.17823195 0.05543832 -0.26428786 -0.038140055
0.025500119 -0.21517614 -0.04604682 -0.0406844 6.4327e-41 -2.2932e-41 5.068e-42 9.61e-43
-5.6356e-41 -8.9645e-41 -2.3451e-41 -1.6401e-41 -2.1399e-41 -4.516e-42 -2.7929e-41 -2.4973e-41
-3.7433e-41 -4.3994e-41 4.2738e-41 3.6784e-41 -1.7767e-41 6.9196e-41 -6.9097e-41 2.5212e-41
2.9657e-41 -1.4126e-41 -7.402e-42 7.4001e-41 -4.0185e-41 6.2955e-41 6.3521e-41 3.3543e-41
-4.7074e-41 -3.369e-42 -1.5278e-41 3.5962e-41 -2.6315e-41 6.6618e-41 2.8781e-41 7.2563e-41
0.08834585 0.061556593 0.0042653764 0.014248792 -0.021540085 -0.03550291 0.0004687485 -0.027883956
-0.03472005 0.12580341 0.018295115 0.115478575 -0.09000231 0.022671638 -0.021374017 -0.0998283
-0.0042681475 0.056913905 0.14803508 0.18776123 -0.17470832 -0.076051086 0.04256264 0.027406316
-0.4274403 0.016297853 0.030458283 0.02230275 -0.06417994 -0.14291027 0.14229715 -0.32980555
0.4509128 0.07629132 0.039288178 0.0043075057 -0.06595166 -0.042094197 -0.045794263 -0.1046354

act_fc1.bias f4 [36]
00000000: 5f6d 35be f38d e2bd 32c9 0abe 1137 27be
00000010: 0c6b 14be df98 79be f33d 48be 93f7 a03d
00000020: 93ed 473c d8e8 ffbc 099f cbbc 0359 1cbe
00000030: 87a7 16be 6520 7a3d 47aa 453e da0a c83d
00000040: 8aef 0a3b d152 9fbd 5121 e3bd 9478 68bb
00000050: 9197 393e 2c61 2f3e 5d51 193d 05dc f03b
00000060: 125e 10be 87c4 bc3d 7bcd ef3d 13f0 853d
00000070: 328f 323c d840 93bd c839 4bbe 0fa3 e3bd
00000080: beb6 04be 8222 dfbd d020 0abd 963f 20be
-0.17717503 -0.11062231 -0.13553312 -0.163296 -0.1449396 -0.24374722 -0.19554882 0.07859721
0.012202638 -0.031238958 -0.024856107 -0.1526833 -0.14712344 0.06106605 0.19303237 0.09767695
0.0021199905 -0.07779468 -0.11090339 -0.003547226 0.18124224 0.17126912 0.03743111 0.007350447
-0.14098385 0.09217172 0.11709114 0.06539931 0.010898398 -0.07190102 -0.1984626 -0.11115085
-0.12960336 -0.10895254 -0.0337227 -0.15649256

val_conv1.weight f4 [2, 128, 1, 1]
00000000: e8ff 15bc 7ae8 343e a49f 9b3d 9601 603e
00000010: 0e58 193c 7850 993e d2cb e23d 9d7d c8be
00000020: 4405 923d 0c8a 9dbd 6cec 463e 8fc7 103e
00000030: f6d8 54be 82ed 0fb3 94d2 ec39 45f5 48be
00000040: 9d9b 5dbb b1fc 67be 8027 22be cca7 133e
00000050: 0038 b90c 0e58 283d 33c8 f03e 3361 a93d
00000060: 0130 443c 865d ad3d a9e3 69be c575 c63c
00000070: 9013 a23d b2fe f43d 1601 a8bd a66f 4c3e
00000080: 25eb aabe 626f a638 d42f 303e 190e 073d
00000090: 9660 16be b035 15b2 a326 27bf a125 9d3c
000000a0: 98f0 b63d 8d3e a93d d54f 52be c521 46be
000000b0: d8e4 ab3e 909f bdbe 7432 19be 0f15 0a3e
000000c0: 1ccc bf3b 7ebc 023b 9e03 853e e0ed 843c
000000d0: ae2d 173e 3789 5fbd 6166 e5be d3f1 44be
000000e0: a8cd 07be fc9d 903e 6847 acbc 7c3b 9a3d
000000f0: 9c3e 33bd 5b03 42be eef5 89bc 7f13 9a3d
00000100: 35e9 343e 7966 d1bd 70f5 5d3d 1ca7 2a3e
00000110: db14 a23c fa47 283d b15f 7e3d 239e 613d
00000120: e8cc 76be c00e a63e 8ed0 c73d ac08 fe3d
00000130: a6d6 cb3c 1724 52bd afc9 8e3d 5472 833e
00000140: 7de5 213d bf70 c43d 75ca d43c b6dd 993d
00000150: 3210 393c 91ba 0000 a59f c5bd 6c8a 983e
00000160: 6aef 73be 4116 90bd ed93 d73d 1672 bbbd
00000170: 5187 913b 5331 363c 5083 1b3e 3a2b b23d
00000180: 8f0f 063e c7a4 32be 884a 343d f85a 443c
00000190: 3fb8 e6ba 0834 7a3d e16f 2fbe 91fc afbe
000001a0: c478 753a e1bc 81be d21c 0a3e 0bf8 ccbe
000001b0: 8bb2 adbe 431d 293e 6e66 013e bee0 58be
000001c0: 242c 58be 4132 18be d6ad 02be a9b7 693e
000001d0: b768 333e 1942 803c b6d9 acbe a863 0fbe
000001e0: 7713 0e3e 508b e13d 39e4 c4be c611 2a3d
000001f0: 4a7e 57be 173e 653d eb5c 6d3c 3b73 0000
00000200: e1ab 3f3c fd88 d9be ef4e 8dbe 661f e0bd
00000210: 8986 dabe 553f 86be b7ab debe 97fa bcbc
00000220: 63b5 683d 0663 05be 7a13 063e fa8f a5be
00000230: 117b 643e e548 e0ab 3eee 032d 11a0 c93d
00000240: 9619 5cbb 1de6 15bd cecd cabd cc8c e6be
00000250: 5e39 0000 1cb6 4c3d 1110 a4be d43e 50be
00000260: 059e d9be be9a 273e 7c82 6ebe d47c 623e
00000270: 13f5 e9be ba30 12bf 7ab6 893e fd97 77bc
00000280: 521f 233d 59fd d615 cd67 a9be f5ae 0bbe
00000290: b624 f93d 5196 14a9 712d 3e3e 9cd1 c23d
000002a0: ca4f 393e 5f16 d23d 530a 8b3e 2b79 0d3d
000002b0: 3fd2 d8be 4eb9 d23d 12cc 373d 2907 41be
000002c0: 0904 3c3c c308 22bc 8d3b 3c3d 2058 57bc
000002d0: a600 b83d 5d4d 36be 12bd 013c 1e63 8abe
000002e0: 33ec 00be bdb0 a3be c945 6f3d c7c0 8c3e
000002f0: 05fa fabe 9d53 6ebe 4dc5 92bd 452d fbbe
00000300: 975c 303e dab4 b9be d799 7c3c ea87 dd3d
00000310: 6b08 673e 5d05 f93c 45f3 a73d 92f7 9cbc
00000320: c5ab 103e 8fba 8abe f291 463e 1213 9cbe
00000330: f5d9 693d 9af5 4dbd dcea 953d 5e2e 0cbd
00000340: 4098 82bd 2c52 41bd f695 2f3c 8008 01bd
00000350: 8cd1 3f3b 7c8f 0080 3b15 393e 0126 5fbe
00000360: dcab 2a3e f88d 2b3e e05f 013e 4c00 79bd
00000370: 1cc7 d13c 4d0d 833c 57cf 3d3b 71b0 f2be
00000380: 9d9c b0be fea9 8d3d 766c 213e 618c 3f3a
00000390: bff7 20bb c506 5f3d 440a e6bb 2d68 a63d
000003a0: fd5e a7bb 085a adbd 5f06 adbe a768 843d
000003b0: b63e 92ba ef28 02bf fc9b b4be ef43 e13d
000003c0: 4386 0b3e 4e82 f33d 3a41 d2bc 7e44 673e
000003d0: 693a 1e3e 48d6 19bf 9173 e13d ac4a 9ebe
000003e0: 5ce2 72be 1b7d a1be 9a7c 0d3c 4714 73bd
000003f0: 88dd 793e 3fdd 933d 4413 5ebe 23b4 0000
-0.009155251 0.17666808 0.075988084 0.21875605 0.009359373 0.29944205 0.11074032 -0.39158335
0.071299106 -0.07692346 0.19426125 0.14138626 -0.20785889 -3.3510794e-08 0.0004517032 -0.19624813
-0.0033814677 -0.22654988 -0.1583538 0.14419478 2.8537467e-31 0.0410996 0.4702774 0.082704924
0.011974336 0.08465104 -0.22840752 0.024226079 0.079138875 0.11962642 -0.08203332 0.19964465
-0.33382526 7.9362435e-05 0.17205745 0.03297243 -0.14685282 -8.685149e-09 -0.6529333 0.019182982
0.08932608 0.08263884 -0.20538266 -0.1934882 0.3357303 -0.370358 -0.14960653 0.13484596
0.005853189 0.0019948776 0.25979322 0.016226709 0.14763519 -0.054574218 -0.4480467 -0.19232874
-0.13262045 0.28245533 -0.021030143 0.07530877 -0.04376088 -0.18946593 -0.016840901 0.0752325
0.17667086 -0.10224623 0.054189146 0.1666531 0.019785335 0.041084267 0.062102977 0.05508245
-0.24101603 0.32433128 0.097565755 0.12403998 0.024882626 -0.05130395 0.06972062 0.25673163
0.039525498 0.09591817 0.025975445 0.07512991 0.011295365 6.6927e-41 -0.096495904 0.29793108
-0.23821798 -0.070354946 0.105262615 -0.091526195 0.00444118 0.011120158 0.1518681 0.08699651
0.13091873 -0.1744567 0.04401639 0.011984579 -0.0017602517 0.061084777 -0.17132522 -0.3437238
0.0009364004 -0.25339416 0.13487557 -0.40032992 -0.3392528 0.16515069 0.1263673 -0.21179482
-0.21110588 -0.1486292 -0.12761626 0.22823967 0.17520414 0.015656518 -0.3375985 -0.1400286
0.13874613 0.110129 -0.3845537 0.041520856 -0.21044269 0.055967417 0.014487485 4.1337e-41
0.011698694 -0.42487326 -0.27599284 -0.10943489 -0.42680767 -0.26220194 -0.43490383 -0.02306871
0.05681361 -0.13026056 0.13093367 -0.32336408 0.22312571 -1.593639e-12 7.499388e-12 0.09844983
-0.0033584586 -0.036596406 -0.099025354 -0.45029294 2.058e-41 0.04997836 -0.32043508 -0.20336467
-0.42503372 0.16367623 -0.23291963 0.2211793 -0.4569479 -0.571056 0.2689703 -0.01511192
0.03982479 8.6833624e-26 -0.33087006 -0.1364096 0.12165205 -3.299298e-14 0.18572022 0.09512636
0.18096843 0.10258173 0.27156314 0.034539383 -0.42347905 0.1028925 0.04487235 -0.18850388
0.011475571 -0.009889784 0.04595523 -0.013143569 0.08984499 -0.17802949 0.007918613 -0.27028745
-0.12590103 -0.31970778 0.05841616 0.27490827 -0.49018875 -0.23274083 -0.071665384 -0.49057975
0.1722282 -0.3627079 0.015417538 0.10816939 0.22561805 0.030398065 0.08200697 -0.01916102
0.14128025 -0.27095458 0.19391611 -0.304833 0.057092626 -0.050283052 0.073201865 -0.034223907
-0.06376696 -0.047197506 0.010716906 -0.031502247 0.0029269187 -5.1472e-41 0.18074505 -0.21791841
0.16667122 0.16753376 0.1263423 -0.0607913 0.025607638 0.015997553 0.0028962696 -0.4740024
-0.34494486 0.06917189 0.15764031 0.000730699 -0.002456173 0.054449815 -0.0070202667 0.08125339
-0.005107759 -0.08464438 -0.33793923 0.06465273 -0.0011157605 -0.5084371 -0.35275257 0.109992854
0.13625436 0.11890088 -0.025665868 0.22584721 0.15451969 -0.6009259 0.11008371 -0.30916345
-0.23719162 -0.3154076 0.008635664 -0.05934551 0.24400914 0.07219934 -0.21687037 6.4621e-41

val_conv1.bias f4 [2]
00000000: ad43 3d3d bc95 da3d
0.04620712 0.10673091
