current_policy.model (torch, 421685 bytes, 15 tensors)

conv1.weight f4 [32, 4, 3, 3]
-0.10275426 -0.14419682 0.056045342 0.23836799 -0.09066072 0.13359027 -0.06280398 -0.18632923
0.08176759 -0.015103348 0.070705466 -0.12282328 0.22808899 -0.10885906 0.047226787 0.037946265
-0.047807023 -0.19167508 -0.07492257 -0.05617847 -0.05653092 -0.013257947 -0.04852347 -0.035869416
0.13621855 -0.046014614 -0.029502956 0.048275758 0.023953874 -0.13201186 0.072605565 -0.07386442
-0.07031495 0.11805586 0.059719153 0.14842209 0.1540038 0.15517394 -0.0973491 0.1763121
0.062649086 0.20780472 -0.073245436 0.1781364 0.13640982 -0.026590865 -0.15173912 0.018162552
0.08490703 -0.12398174 0.17743699 -0.16591097 -0.07648458 -0.14685613 -0.034463547 -0.07279661
0.03553942 0.024403984 0.013544157 0.08982717 -0.07811181 0.007813498 -0.23035347 0.04463667
0.122728854 0.031588767 -0.14477977 -0.05728632 0.017017681 0.09457163 -0.14643574 0.11390508
0.117533684 0.08934812 -0.01380359 0.10538085 0.10255091 0.23391537 -0.040462084 0.015830215
-0.1287419 0.045509983 -0.0054895454 -0.26552185 -0.15434466 0.12389439 -0.12569782 -0.120892935
0.22603704 -0.07003937 -0.04065182 -0.12562 -0.117151335 -0.13335767 0.05893284 0.09379337
0.0039576152 -0.10015868 -0.076518565 0.044235744 -0.13241538 0.1337728 -0.16065092 0.0857883
-0.1436977 0.08305241 -0.082511194 0.01596385 0.023538997 -0.07016343 0.13083431 0.09653299
0.080231205 -0.18909001 -0.12941684 -0.26693964 -0.031473204 0.052550424 0.1927673 0.05030419
-0.10283546 -0.015423649 -0.11513182 -0.12346916 -0.15361314 -0.047363922 -0.027800951 -0.095952354
0.15015836 0.11616976 -0.019760322 -0.07017025 0.10599997 0.050939515 -0.034657184 -0.12530993
0.113730654 0.055077355 -0.03779184 -0.009878885 0.04415943 0.011214655 -0.109931864 -0.13451056
-0.025686465 0.10269059 0.15198758 -0.12025814 -0.15158324 -0.11230771 0.009395046 -0.14941707
-0.19596162 0.19827664 0.0067522316 0.11744542 -0.16085908 -0.06853372 -0.26106974 0.12703334
-0.07188168 -0.07980246 0.022334963 -0.007085343 0.06325674 0.016245784 -0.14212957 0.12405392
-0.08263257 0.042165857 0.21255739 -0.037113424 -0.14024916 0.12999141 0.1359818 0.15697284
0.09180455 0.16787425 -0.08427444 0.040046003 -0.06438591 -0.05741066 -0.041017253 -0.1934343
0.19754869 -0.02014982 -0.089576796 0.32177565 0.14643328 0.02248671 -0.056601122 0.021357814
0.19118087 -0.08966541 0.17257725 -0.05220586 0.08551116 -0.10806089 0.16327062 0.03489304
0.06844903 -0.0038604047 0.112841904 -0.11304628 0.079595074 -0.05352589 0.028099075 -0.08876843
0.10540288 0.077856 -0.07758002 -0.113215685 -0.021818772 0.14098695 0.0074820546 0.0080510825
0.03291088 -0.0440996 -0.21858932 -0.2493458 0.23081842 0.20439659 0.039064024 -0.13524702
-0.057978757 0.10206127 -0.09173776 0.012398468 -0.12453053 -0.14852394 0.091357775 -0.111709
0.021811636 -0.094743945 0.019711863 -0.050619975 0.04836582 0.012412646 -0.04684759 -0.08582204
0.047572434 0.019566042 0.040291887 -0.030673008 -0.010121232 0.08643777 -0.033184074 -0.015567064
-0.036761224 0.13528812 0.14389925 0.032108203 -0.13089013 0.1004566 0.13011424 0.022499919
00000000: d370 d2bd 55a8 13be cd8f 653d bd16 743e
00000010: 54ac b9bd e3cb 083e 609f 80bd 17cd 3ebe
00000020: c475 a73d 0874 77bc 07ce 903d c68a fbbd
00000030: 2990 693e 80f1 debd e070 413d 8b6d 1b3d
00000040: 4cd1 43bd 7946 44be 0171 99bd 651b 66bd
00000050: f78c 67bd dc37 59bc 8cc0 46bd cfeb 12bd
00000060: e07c 0b3e d279 3cbd 2fb0 f1bc cdbc 453d
00000070: ea3a c43c 1e2e 07be 3ab2 943d 3b46 97bd
00000080: 4901 90bd 45c7 f13d 129c 743d f6fb 173e
00000090: 2cb3 1d3e ebe5 1e3e f75e c7bd 298b 343e
000000a0: 2a4e 803d c3ca 543e b401 96bd 6369 363e
000000b0: 04af 0b3e 16d5 d9bc 8061 1bbe a2c9 943c
000000c0: bde3 ad3d 23ea fdbd 0bb2 353e 91e4 29be
000000d0: f3a3 9cbd 7461 16be a629 0dbd 6416 95bd
000000e0: c891 113d ddea c73c 50e8 5d3c 4ff7 b73d
000000f0: 16f9 9fbd 3004 003c c8e1 6bbe f1d4 363d
00000100: 4459 fb3d 3963 013d 2641 14be 0fa5 6abd
00000110: aa68 8b3c c5ae c13d 40f3 15be 1147 e93d
00000120: 80b5 f03d 26fc b63d 7428 62bc ead1 d73d
00000130: 3606 d23d 8387 6f3e 92bb 25bd 5eae 813c
00000140: ebd4 03be ad68 3a3d a5e1 b3bb 7bf2 87be
00000150: 870c 1ebe 58bc fd3d eeb6 00be b796 f7bd
00000160: 4176 673e cd70 8fbd 8682 26bd 87a2 00be
00000170: 0aed efbd ea8e 08be 9063 713d bd16 c03d
00000180: e2ae 813b fe1f cdbd c4b5 9cbd 8a30 353d
00000190: e697 07be bdfb 083e ad81 24be c7b1 af3d
000001a0: 7d25 13be 6217 aa3d a1fb a8bd 9fc6 823c
000001b0: dbd4 c03c d8b1 8fbd 6ef9 053e 17b3 c53d
000001c0: 4250 a43d d0a0 41be d985 04be 50ac 88be
000001d0: 0cea 00bd 1d3f 573d cb64 453e c40b 4e3d
000001e0: 669b d2bd 79b3 7cbc 3bca ebbd 66dd fcbd
000001f0: c34c 1dbe ac00 42bd d2be e3bc ab82 c4bd
00000200: 1dc3 193e 69ea ed3d 66e0 a1bc 6cb5 8fbd
00000210: 8316 d93d f4a5 503d b1f4 0dbd 3f51 00be
00000220: 9eeb e83d cb98 613d 9ecb 1abd 0cdb 21bc
00000230: 85e0 343d acbd 373c f523 e1bd 23bd 09be
00000240: 6c6c d2bc 724f d23d a2a2 1b3e e649 f6bd
00000250: a338 1bbe 9601 e6bd aeed 193c ca00 19be
00000260: 2aaa 48be 0809 4b3e d341 dd3b 3987 f03d
00000270: 3eb8 24be 685b 8cbd efaa 85be 0715 023e
00000280: b436 93bd 796f a3bd d0f7 b63c 2a2c e8bb
00000290: c08c 813d e115 853c 6a8a 11be fb0f fe3d
000002a0: 443b a9bd 1bb6 2c3d a5a8 593e 3f04 18bd
000002b0: 7a9d 0fbe 781c 053e d03e 0b3e 7dbd 203e
000002c0: 0604 bc3d 3ae7 2b3e 1498 acbd 4707 243d
000002d0: c3dc 83bd 7127 6bbd b501 28bd a413 46be
000002e0: 344a 4a3e 3c11 a5bc 0a74 b7bd c7bf a43e
000002f0: 9bf2 153e 0d36 b83c 94d6 67bd 95f6 ae3c
00000300: ebc4 433e 80a2 b7bd 17b8 303e d0d5 55bd
00000310: 7a20 af3d 074f ddbd 6a30 273e 01ec 0e3d
00000320: 012f 8c3d d8fe 7cbb a819 e73d cf84 e7bd
00000330: be02 a33d f73d 5bbd 0830 e63c 39cc b5bd
00000340: 77dd d73d f772 9f3d 46e2 9ebd a0dd e7bd
00000350: 48bd b2bc e25e 103e 062c f53b b0e8 033c
00000360: 8fcd 063d c8a1 34bd e1d5 5fbe 8154 7fbe
00000370: aa5b 6c3e 574d 513e 9901 203d 327e 0abe
00000380: 227b 6dbd 8005 d13d 02e1 bbbd f222 4b3c
00000390: dd09 ffbd a916 18be c919 bb3d b0c7 e4bd
000003a0: 51ae b23c 1d09 c2bd c67a a13c e456 4fbd
000003b0: 3d1b 463d 695e 4b3c 42e3 3fbd 77c3 afbd
000003c0: 50db 423d f748 a03c 1b09 253d f645 fbbc
000003d0: 86d3 25bc 4906 b13d 06ec 07bd 000d 7fbc
000003e0: f092 16bd f888 0a3e 535a 133e e483 033d
000003f0: 1008 06be 31bc cd3d ab3c 053e c051 b83c

conv1.bias f4 [32]
0.15191655 0.014788636 0.14743187 0.17562014 0.12501593 -0.08719915 -0.061566055 0.033412058
-0.1401381 -0.0445106 0.115418345 -0.13945806 0.051809933 -0.02297146 -0.04931103 -0.068984084
-0.05811916 -0.0028212317 -0.10459107 -0.16979821 -0.13630922 -0.06269976 -0.17302226 -0.05251716
-0.04960982 0.18263155 -0.073420435 -0.013201979 0.1375833 -0.040633876 -0.035455026 -0.037483256
00000000: 0390 1b3e 094c 723c 61f8 163e c4d5 333e
00000010: 2d04 003e 7895 b2bd b02c 7cbd 15db 083d
00000020: 5d80 0fbe bf50 36bd 7460 ec3d 18ce 0ebe
00000030: a736 543d a52e bcbc 5dfa 49bd 8747 8dbd
00000040: 5b0e 6ebd 6ae4 38bb d833 d6bd 95df 2dbe
00000050: a594 0bbe bb68 80bd bf2c 31be 3c1c 57bd
00000060: ab33 4bbd c403 3b3e 745d 96bd 1d4d 58bc
00000070: a3e2 0c3e b56f 26bd 4a39 11bd 0b88 19bd

conv2.weight f4 [64, 32, 3, 3]
0.085465 0.041885488 -0.053123254 0.0099654 0.015701426 0.0069961604 0.025725212 0.0036288153
0.017126366 0.023940042 -0.021685293 0.005148855 0.06059681 -0.043939427 -0.049859047 -0.03126037
0.021554556 0.054265637 -0.019299135 -0.012015001 0.0057989596 -0.010955078 0.002753122 0.05185996
0.05181647 -0.02317768 0.038520627 0.010711149 0.04346045 -0.08614587 0.08130587 0.05474696
0.03273355 0.07049581 0.12616313 0.013004762 0.02336758 -0.0052917586 0.044848792 0.08424473
0.033435896 0.002120214 0.034121014 0.03668702 -0.009180509 -0.035724998 0.090500034 -0.007491053
0.029252674 -0.03947863 -0.0053031 0.08130704 0.001297746 0.033958353 0.004583681 0.031596232
-0.01637459 0.05971211 0.03645431 -0.017329203 0.04647119 0.0373505 -0.0058648363 0.015719123
-0.016124796 0.009375932 0.06746646 -0.0072824107 0.0013524882 -0.039934132 -0.014007649 -0.0030965444
-0.10831137 -0.02094799 -0.10008792 -0.120914996 -0.030640384 0.05477163 0.009487287 -0.019878369
-0.044981755 -0.05381981 -0.014269375 0.04228755 0.08388396 -0.013645419 -0.041573633 -0.01969666
-0.058738865 -0.040170643 -0.023100317 0.0013959717 0.037695896 0.047186274 0.015041331 -0.017258268
0.019544994 0.02638595 -0.024380874 -0.041004866 -0.012417676 0.057290576 -0.06012405 -0.02763464
0.0025685742 -0.027908236 0.003567787 0.007696811 0.00264085 -0.0114993 -0.0028454736 0.059039243
0.058994852 -0.0049596718 -0.035008896 -0.008142678 -0.022133399 0.023379385 0.01567373 -0.060767043
-0.02652714 0.056481335 0.04629376 -0.02839496 0.00072270655 0.001389939 0.015972767 0.06471794
-0.02053715 -0.04802627 -0.03372369 0.08117303 0.05531261 0.047607638 0.020863358 0.04137105
0.035320446 0.075540856 -0.059612777 0.008291648 0.069499865 -0.023693362 -0.058487467 0.11300296
-0.09092219 -0.040081687 0.028079491 0.058413517 0.0688835 0.054152086 0.04133986 -0.011669568
-0.012451892 0.052392725 0.023448443 0.007975391 -0.02337613 -0.04211679 0.038548708 0.02299589
-0.011006203 0.030429974 0.0055825147 0.03537822 0.053724136 0.0054200604 -0.010857903 -0.00023693845
0.031516064 -0.095568106 -0.012690385 -0.07486716 -0.056074146 -0.0719306 -0.050600834 -0.049739547
0.010660849 0.029626258 -0.052645966 0.01123344 0.017601356 0.040876452 -0.0379272 0.02824765
0.061885342 0.05942132 -0.07169198 -0.07556052 0.03066251 -0.024719864 -0.0314021 0.059460014
0.055037558 0.034475867 -0.06613819 0.012312686 -0.028636016 0.005593258 -0.032572746 -0.06666994
0.02791792 -0.07672788 -0.06626802 -0.0197576 -0.044238262 -0.038907025 -0.0054872935 0.024835909
-0.05203792 -0.047074165 0.037152667 0.027529648 0.0032197062 0.0013887618 0.056187756 0.030708475
0.024832282 -0.049444232 0.041219052 -0.025650028 0.008717611 0.04008222 0.015629759 0.041377056
0.042892724 -0.007955336 0.06415514 0.027594183 0.017371867 -0.01544317 -0.042552903 -0.0356003
-0.021571176 -0.027147619 -0.04658315 0.035180766 0.016396858 -0.04939108 -0.07787966 -0.058650196
0.06502377 0.03789732 -0.003658219 -0.01637336 -0.036099277 0.031929236 -0.003829727 -0.069193505
-0.05949008 0.056443956 -0.028383426 0.04492102 -0.026635401 0.024066282 0.04554895 0.028765302
00000000: 4608 af3d 1e90 2b3d c597 59bd eb45 233c
00000010: 47a0 803c 0c40 e53b aebd d23c 6bd1 6d3b
00000020: 984c 8c3c e81d c43c 5ba5 b1bc bab7 a83b
00000030: 5c34 783d d4f9 33bd 0039 4cbd e00a 00bd
00000040: 2e93 b03c a545 5e3d 3819 9ebc 91da 44bc
00000050: 3305 be3b ed7c 33bc b96d 343b 1c6b 543d
00000060: 823d 543d 1edf bdbc cec7 1d3d d17d 2f3c
00000070: 9603 323d 3f6d b0bd b183 a63d 593e 603d
00000080: 9d13 063d 1b60 903d e830 013e ed11 553c
00000090: 5e6d bf3c 7d66 adbb 5eb3 373d 8088 ac3d
000000a0: 14f4 083d 4af3 0a3b 7ac2 0b3d 2145 163d
000000b0: d869 16bc 6054 12bd 1558 b93d 8277 f5bb
000000c0: 4ea3 ef3c 58b4 21bd a1c5 adbb 4e84 a63d
000000d0: 2119 aa3a ea17 0b3d b432 963b 0d6b 013d
000000e0: 0124 86bc af94 743d 1d51 153d f9f5 8dbc
000000f0: 9358 3e3d d6fc 183d d02d c0bb 64c5 803c
00000100: 2618 84bc 829d 193c db2b 8a3d 4aa1 eebb
00000110: f945 b13a f991 23bd 5780 65bc 65ef 4abb
00000120: 5ad2 ddbd 1e9b abbc e5fa ccbd 48a2 f7bd
00000130: 8b01 fbbc 3758 603d 9170 1b3c f6d7 a2bc
00000140: ca3e 38bd 2972 5cbd 19ca 69bc b635 2d3d
00000150: 5bcb ab3d 0991 5fbc 1d49 2abd e45a a1bc
00000160: 2a98 70bd f989 24bd e03c bdbc 0af9 b63a
00000170: 0367 1a3d 6546 413d ea6f 763c 3661 8dbc
00000180: d31c a03c 5927 d83c 66ba c7bc b8f4 27bd
00000190: 8273 4bbc 86a9 6a3d a344 76bd 0a62 e2bc
000001a0: 8655 283b d09f e4bc 88d1 693b 8835 fc3b
000001b0: 1c12 2d3b 8f67 3cbc 207b 3abb 22d3 713d
000001c0: 96a4 713d be84 a2bb 7d65 0fbd de68 05bc
000001d0: 1a51 b5bc 2086 bf3c 3266 803c dde6 78bd
000001e0: 724f d9bc f958 673d 879e 3d3d 8c9c e8bc
000001f0: 0474 3d3a 9d2e b63a 52d9 823c d78a 843d
00000200: 863d a8bc 32b7 44bd da21 0abd 0c3e a63d
00000210: 7a8f 623d 3a00 433d a2e9 aa3c b174 293d
00000220: 2cac 103d 2ab5 9a3d 872c 74bd b1d9 073c
00000230: f255 8e3d 9518 c2bc 8e90 6fbd 196e e73d
00000240: 6a35 babd b22c 24bd f606 e63c 0343 6f3d
00000250: cb12 8d3d 94ce 5d3d fc53 293d b731 3fbc
00000260: 0503 4cbc c199 563d f316 c03c 37ab 023c
00000270: 4c7f bfbc a882 2cbd 40e5 1d3d e061 bc3c
00000280: 5c53 34bc 4848 f93c 87ed b63b c1e8 103d
00000290: d70d 5c3d c39a b13b 59e5 31bc ae72 78b9
000002a0: fd16 013d 36b9 c3bd 55eb 4fbc f453 99bd
000002b0: 01ae 65bd 5a50 93bd d242 4fbd b2bb 4bbd
000002c0: d7aa 2e3c c4b2 f23c 4ca3 57bd 760c 383c
000002d0: b830 903c 116e 273d 8d59 1bbd 9e67 e73c
000002e0: 7c7b 7d3d c563 733d 3fd3 92bd 79bf 9abd
000002f0: f22f fb3c 5081 cabc 7d9f 00bd 588c 733d
00000300: 106f 613d 9136 0d3d 7673 87bd 26bb 493c
00000310: 1496 eabc a647 b73b 006b 05bd 408a 88bd
00000320: 1fb4 e43c 8223 9dbd 87b7 87bd b1da a1bc
00000330: 2e33 35bd f95c 1fbd c1ce b3bb ad74 cb3c
00000340: b725 55bd d7d0 40bd 652d 183d db85 e13c
00000350: b501 533b 1d07 b63a 2225 663d 5790 fb3c
00000360: 126d cb3c 0986 4abd 4fd5 283d 0220 d2bc
00000370: 50d4 0e3c 412d 243d fb09 803c fd7a 293d
00000380: 48b0 2f3d 1957 02bc c563 833d 320d e23c
00000390: 724f 8e3c 5a05 7dbc f44b 2ebd 9fd1 11bd
000003a0: 09b6 b0bc af64 debc f9cd 3ebd b519 103d
000003b0: b452 863c 4d4e 4abd 5f7f 9fbd 303b 70bd
000003c0: 2f2b 853d 383a 1b3d bbbe 6fbb 6d21 86bc
000003d0: d6dc 13bd 3bc8 023d 28fc 7abb 53b5 8dbd
000003e0: dfab 73bd c731 673d 5c84 e8bc 1aff 373d
000003f0: 7c32 dabc a726 c53c 8991 3a3d 36a5 eb3c

conv2.bias f4 [64]
0.012784586 0.0464515 0.013728161 0.012837356 -0.01244361 -0.06559848 -0.0013214876 0.0038671123
-0.052126314 -0.048073843 -0.03156331 -0.0023091957 -0.028327638 0.004427536 -0.031781044 -0.023355037
-0.018864704 0.01638526 -0.012215399 0.0043580392 0.031413388 -0.042037033 0.026089652 0.053732917
-0.018973986 0.015423767 0.04073395 0.021716116 0.052003674 0.011585865 -0.012063134 -0.019760253
0.08753742 -0.060225658 -0.054642234 -0.028731616 -0.01896742 0.06617759 0.01896951 -0.00986916
-0.052479252 0.06771428 -0.03088709 -0.03551608 -0.06622002 0.0025818646 0.029430192 0.010604122
0.00984726 0.020052034 0.032633077 -0.034817263 -0.08471398 -0.072532825 0.06698725 -0.030468648
0.03265318 0.010034008 -0.081534944 0.01777804 0.084615774 0.05571867 -0.06393357 0.010470319
00000000: 7176 513c ee43 3e3d 15ec 603c c653 523c
00000010: 48e0 4bbc 7f58 86bd c435 adba 616f 7d3b
00000020: 6782 55bd 14e9 44bd 8848 01bd e055 17bb
00000030: 5d0f e8bc dd14 913b d72c 02bd 1053 bfbc
00000040: 278a 9abc 613a 863c 1923 48bc e2cd 8e3b
00000050: 53ab 003d 062f 2cbd f7b9 d53c 0c17 5c3d
00000060: 556f 9bbc f8b3 7c3c a4d8 263d ffe5 b13c
00000070: ce01 553d a4d2 3d3c 74a4 45bc 41e0 a1bc
00000080: d246 b33d 2eaf 76bd 89d0 5fbd 915e ebbc
00000090: 9061 9bbc 1e88 873d f265 9b3c 42b2 21bc
000000a0: 7cf4 56bd c9ad 8a3d ec06 fdbc 4f79 11bd
000000b0: 5d9e 87bd 8034 293b 9617 f13c e9bc 2d3c
000000c0: 6756 213c 2a44 a43c 43aa 053d 8c9c 0ebd
000000d0: 867e adbd 178c 94bd 9c30 893d 6399 f9bc
000000e0: 57bf 053d ae65 243c cbfb a6bd 41a3 913c
000000f0: 094b ad3d 4339 643d 9bef 82bd b38b 2b3c

conv3.weight f4 [128, 64, 3, 3]
-0.009642706 -0.0960112 -0.042752806 0.023335118 -0.017763235 -0.03370524 -0.026477683 -2.6098183e-05
-0.053208854 0.03262403 0.059563905 -0.03358493 0.04402632 0.0035906746 0.078062735 -0.044532184
-0.021862695 -0.011205486 -0.065888815 0.04449054 -0.039657548 -0.012762231 0.009247019 0.0030211534
0.0073128343 0.043886524 -0.062166266 -0.00050615525 0.0053655747 -0.033677157 0.036141638 0.00071325974
0.0020229723 0.058965545 0.04393873 -0.020894358 -0.02330239 -0.023816822 -0.035174873 -0.036673427
-0.05391544 -0.030473908 -0.07191453 -0.05266741 0.041145165 -0.010385171 0.032750316 -0.013279314
-0.04665716 0.012971881 -0.0036159682 0.01511525 -0.020156972 0.00034500804 0.00097564765 -0.021000855
-0.027454812 -0.07300769 0.02043164 0.021458866 -0.014260201 0.09859961 0.039951034 0.006579968
0.028594187 0.030166918 -0.028010398 0.03843645 0.056820605 -0.033709846 0.056352623 0.060361493
0.029631449 0.18605849 0.02759238 -0.074935466 0.07522199 -0.053218886 -0.016420996 0.036945395
0.09775575 -0.08722868 0.018123252 -0.017563527 0.06694947 0.075056545 0.036394306 -0.05184558
-0.035888243 -0.05657236 0.06315384 -0.016968422 -0.042690642 0.0489971 0.07443165 0.058137137
0.02814197 0.057337787 -0.052161522 -0.048779633 -0.0070156027 -0.040555593 -0.0320988 0.03378498
0.09508478 0.028572101 0.032308575 -0.055789027 -0.0006106069 0.021474395 0.09145873 -0.012857907
0.022480901 0.087157205 0.03294718 0.020660244 0.12058512 0.048719645 -0.036400095 -0.026174521
-0.04937939 -0.062290713 -0.06072116 0.018237328 -0.0069134366 -0.035367746 0.054207385 0.09510409
-0.0036819312 -0.04241326 -0.025030376 -0.060201928 -0.0697118 -0.0044864714 -0.0040847478 0.017702978
0.065324984 -0.02405791 0.0016578009 -0.07229141 0.024818374 -0.015428821 0.13601042 -0.086467214
0.031209355 0.08540638 -0.025843048 -0.038732335 0.013206178 -0.049148634 -0.051481746 -0.018505687
-0.031648014 0.05049094 0.07789858 0.027489638 -0.027493957 -0.10078993 -0.019474896 -0.031145662
0.104397215 0.07015798 -0.024763636 -0.02883107 0.012216726 -0.010150525 0.058290176 0.023098893
0.042489637 -0.0025819715 -0.076479755 -0.03512287 0.0059793973 -0.014504924 0.01758034 0.025617907
0.012953591 -0.049543306 -0.081939586 -0.03811477 -0.0010058726 0.0745639 -0.0010643668 0.06338015
0.048453037 -0.04629035 -0.05434267 -0.03081421 0.021077957 0.04131188 0.047440544 0.08233308
0.05718446 0.026266702 0.10610318 0.02022791 -0.0016399287 -0.056299444 0.030604659 -0.0057180156
-0.023144023 0.089868486 0.043139026 -0.012217165 0.026943456 -0.036051955 0.040964488 0.002496728
0.015374544 0.016724767 -0.061632622 0.0018139823 0.033031728 -0.061936505 0.0029684855 0.032557685
-0.03339622 -0.035217002 0.0063318033 -0.010214757 0.022100618 0.03167311 -0.05723479 -0.025439123
-0.0069063157 -0.049718745 0.059783187 -0.035532042 -0.020522771 -0.08668835 0.026841365 -0.07223783
-0.010614897 -0.116009414 -0.0155601865 -0.023041004 -0.021291247 -0.014793335 -0.0032549389 0.10628311
0.036418483 0.042082164 -0.022325773 0.03270246 -0.019199528 -0.08207766 -0.046750218 -0.038817104
-0.059926603 0.057464372 0.091384314 -0.04486622 0.038012918 -0.034838025 -0.013013408 0.032066107
00000000: 71fc 1dbc 85a1 c4bd 911d 2fbd 4a29 bf3c
00000010: 3484 91bc 810e 0abd bae7 d8bc 6ced dab7
00000020: 87f1 59bd c6a0 053d 48f9 733d 5a90 09bd
00000030: f154 343d 8651 6b3b 5bdf 9f3d 6167 36bd
00000040: 6519 b3bc 3797 37bc b7f0 86bd b63b 363d
00000050: f46f 22bd ad18 51bc cf80 173c 8bfe 453b
00000060: 80a0 ef3b 5bc2 333d 0ea2 7ebd 81af 04ba
00000070: b4d1 af3b 0ff1 09bd 4109 143d 0dfa 3a3a
00000080: d893 043b db85 713d 19f9 333d a52a abbc
00000090: a7e4 bebc 7f1b c3bc 8713 10bd e036 16bd
000000a0: 70d6 5cbd 6ba4 f9bc ed47 93bd c8b9 57bd
000000b0: d587 283d 9026 2abc 3225 063d 7b91 59bc
000000c0: 941b 3fbd 0388 543c e1f9 6cbb f4a5 773c
000000d0: 3c20 a5bc 32e2 b439 9bc2 7f3a fc09 acbc
000000e0: eae8 e0bc 0e85 95bd 4160 a73c 81ca af3c
000000f0: 9ea3 69bc 98ee c93d b2a3 233d c69c d73b
00000100: 5b3e ea3c 9d20 f73c 1076 e5bc 8a6f 1d3d
00000110: b9bc 683d 5613 0abd 02d2 663d 9d3d 773d
00000120: a7bd f23c 1e86 3e3e 6a09 e23c c477 99bd
00000130: fd0d 9a3d 0cfc 59bd 5385 86bc 0e54 173d
00000140: 2b34 c83d f3a4 b2bd 3777 943c 63e1 8fbc
00000150: ce1c 893d 3fb7 993d 3212 153d 085c 54bd
00000160: 8dff 12bd 6bb8 67bd cd56 813d 5c01 8bbc
00000170: 62dc 2ebd 2fb1 483d 9f6f 983d 3521 6e3d
00000180: fd89 e63c 07db 6a3d 52a7 55bd 27cd 47bd
00000190: 24e3 e5bb 9f1d 26bd 087a 03bd 1f62 0a3d
000001a0: cfbb c23d 0a10 ea3c ff55 043d 0983 64bd
000001b0: 2311 20ba 12eb af3c b74e bb3d f9a9 52bc
000001c0: de29 b83c 7a7f b23d 9ff3 063d ac3f a93c
000001d0: 55f5 f63d 408e 473d 4418 15bd f36b d6bc
000001e0: 0b42 4abd 8c24 7fbd c0b6 78bd 7366 953c
000001f0: 1c8a e2bb c5dd 10bd 9008 5e3d efc5 c23d
00000200: 8e4c 71bb 87b9 2dbd 810c cdbc 4c96 76bd
00000210: 0fc5 8ebd 4003 93bb 59d9 85bb d605 913c
00000220: 1bc9 853d 1815 c5bc 914a d93a 850d 94bd
00000230: e74f cb3c 2ac9 7cbc 5146 0b3e b915 b1bd
00000240: c3aa ff3c 8ae9 ae3d cdb4 d3bc cca5 1ebd
00000250: ba5e 583c 1450 49bd 86de 52bd 3d99 97bc
00000260: 59a1 01bd 97cf 4e3d 4a89 9f3d f331 e13c
00000270: 023b e1bc f36a cebd d189 9fbc 3025 ffbc
00000280: 35ce d53d fdae 8f3d 1cdd cabc 232f ecbc
00000290: aa28 483c 634e 26bc aec1 6e3d e439 bd3c
000002a0: 9d09 2e3d 4b36 29bb 6ba1 9cbd 00dd 0fbd
000002b0: d2ee c33b 10a6 6dbc a504 903c a5dc d13c
000002c0: 4c3b 543c eced 4abd f1cf a7bd 3c1e 1cbd
000002d0: 7cd7 83ba f5b4 983d 3982 8bba 74cd 813d
000002e0: b176 463d f39a 3dbd 6b96 5ebd 156e fcbc
000002f0: aeab ac3c a536 293d 0451 423d 3f9e a83d
00000300: 413a 6a3d 442d d73c a04c d93d 00b5 a53c
00000310: e0f2 d6ba 3f9a 66bd 9fb6 fa3c 315e bbbb
00000320: 8998 bdbc f80c b83d 8cb2 303d 812a 48bc
00000330: 86b8 dc3c 37ab 13bd 61ca 273d 25a0 233b
00000340: 83e5 7b3c 6102 893c 7d72 7cbd 25c3 ed3a
00000350: 474c 073d 22b1 7dbd ec8a 423b 355b 053d
00000360: 7aca 08bd b43f 10bd 047b cf3b cc5b 27bc
00000370: 5b0c b53c aabb 013d 076f 6abd b565 d0bc
00000380: 604e e2bb e2a5 4bbd 37df 743d 0c8a 11bd
00000390: 5f1f a8bc a989 b1bd 6ce2 db3c 6df1 93bd
000003a0: 1bea 2dbc 5896 edbd 27f0 7ebc 7dc0 bcbc
000003b0: fb6a aebc bf5f 72bc d050 55bb f6aa d93d
000003c0: 8c2b 153d 595e 2c3d 8ae4 b6bc 04f3 053d
000003d0: 5448 9dbc 5518 a8bd 287d 3fbd affe 1ebd
000003e0: 9975 75bd c35f 6b3d b327 bb3d a4c5 37bd
000003f0: 6fb3 1b3d 51b2 0ebd 3036 55bc c057 033d

conv3.bias f4 [128]
-0.017605338 -0.036352307 0.05050441 0.04138125 0.047441524 -0.015475654 -0.0065094987 0.029705038
0.06024738 -0.006016617 0.049799 0.016572103 0.042555477 -0.036519244 0.053888 -0.01045518
-0.014927033 -0.00072804396 -0.013932114 -0.008066051 -0.005734564 0.0064838445 0.022821706 0.00324396
-0.015698269 0.0148813175 0.071439564 -0.04059438 0.012183908 0.046793863 0.08687638 -0.008512162
-0.03257246 0.007784943 -0.013041277 -0.03260689 0.055023044 -0.0038882685 0.02046088 -0.0004959506
0.061262622 0.022654124 -0.004323172 0.045140848 -0.026786158 0.0033882987 -0.02714007 0.03964955
0.029459419 0.03294062 -0.016106388 0.016409181 -0.00033697937 0.005203931 0.02479946 0.054312285
-0.023111777 -0.027252048 0.027128227 0.015089383 -0.0010705428 0.029402558 -0.018536853 0.029683823
-0.009539752 0.08080931 0.043824673 0.010567592 -0.016657446 0.0517139 0.055426817 -0.0032224017
0.04133365 0.020641576 0.009708475 0.029014144 -0.014580508 0.02205888 0.05179991 -0.009731098
0.012634279 0.024199534 0.0037438641 -0.06982328 0.04602333 -3.3690096e-05 0.018094754 0.020361453
0.0069226697 0.021588393 -0.023437833 0.009042337 0.0010970874 0.045901496 -0.021043835 0.01629258
0.04204952 0.0272348 0.042035043 0.052672327 -0.030554306 0.05383836 -0.032214593 0.043503053
-0.037601966 0.07687891 0.009533039 0.06239257 -0.00950195 0.019750847 0.04410465 0.036277365
-0.007657212 0.02575371 -0.011643081 0.013277392 0.024210762 0.008176086 0.0029908621 -0.02091512
0.007398275 -0.024117103 0.036542445 -0.008102654 -0.018756798 0.0013894434 0.05600977 -0.019713921
00000000: 1239 90bc 28e6 14bd b6dd 4e3d 637f 293d
00000010: 0b52 423d 998d 7dbc a24d d5bb fb57 f33c
00000020: f5c5 763d 0b27 c5bb 09fa 4b3d 38c2 873c
00000030: a74e 2e3d 3495 15bd aab9 5c3d 344c 2bbc
00000040: 8490 74bc 34da 3eba 8543 64bc 7827 04bc
00000050: 02e9 bbbb 6e76 d43b 96f4 ba3c 9e98 543b
00000060: a899 80bc c5d0 733c e84e 923d 4b46 26bd
00000070: 049f 473c ecaa 3f3d 3eec b13d 9876 0bbc
00000080: b36a 05bd d618 ff3b 15ab 55bc cd8e 05bd
00000090: d85f 613d 52d2 7ebb 939d a73c ae02 02ba
000000a0: 84ee 7a3d 2495 b93c 65a9 8dbb 9ce5 383d
000000b0: a56e dbbc 380e 5e3b da54 debc 9167 223d
000000c0: e154 f13c beec 063d 8bf1 83bc 8c6c 863c
000000d0: 9bac b0b9 bd85 aa3b 3d28 cb3c 8f76 5e3d
000000e0: e954 bdbc b03f dfbc 043c de3c 7639 773c
000000f0: 7551 8cba a2dd f03c 99da 97bc 7d2b f33c
00000100: 9f4c 1cbc 5a7f a53d 8081 333d b223 2d3c
00000110: 3275 88bc f4d1 533d 3b07 633d ee2e 53bb
00000120: 794d 293d 8618 a93c 4c10 1f3c 12af ed3c
00000130: 15e3 6ebc d3b4 b43c 242c 543d 2f6f 1fbc
00000140: 0200 4f3c 1a3e c63c 9e5b 753b 82ff 8ebd
00000150: f682 3c3d 774e 0db8 733b 943c 10cd a63c
00000160: 90d7 e23b 24da b03c b300 c0bc 4f26 143c
00000170: 25cc 8f3a 3503 3c3d 1f64 acbc 0478 853c
00000180: 1e3c 2c3d 841b df3c f02c 2c3d f0be 573d
00000190: 064d fabc 9d85 5c3d 73f3 03bd 4230 323d
000001a0: 8504 1abd b172 9d3d 7730 1c3c 5a8f 7f3d
000001b0: 11ae 1bbc 87cc a13c 14a7 343d 9397 143d
000001c0: 5ae9 fabb 72f9 d23c 9fc2 3ebc 6b89 593c
000001d0: a655 c63c fdf4 053c 5702 443b 3056 abbc
000001e0: 3b6d f23b 3b91 c5bc 88ad 153d fec0 04bc
000001f0: dba7 99bc fc1d b63a 806a 653d 177f a1bc

act_conv1.weight f4 [4, 128, 1, 1]
0.003073067 0.053483333 0.17777523 -0.08074974 -0.077500515 -0.0145634385 0.1303752 0.08668052
0.03667815 -0.011824251 -0.09707157 0.004774064 -0.079916686 -0.122305535 0.10412763 0.102347635
0.15286532 -0.065821126 0.12186547 0.03271863 0.12849888 0.070418805 -0.07907282 0.12271567
0.0046613486 0.018579245 0.016035225 0.1872333 0.12286434 -0.022004679 0.082879074 -0.1421551
-0.004143043 -0.039459758 8.766753e-08 0.13054024 0.09039654 0.11644279 0.05124841 -0.011128389
0.0689207 0.07492374 1.3670665e-07 -0.066514224 -0.13110702 0.03639559 -0.090337954 0.010113064
0.03694401 0.1255235 0.17279145 -0.1446731 -0.06890216 -0.09694414 -0.0903269 -0.06864004
0.009440917 -2.6770645e-05 0.08775149 -0.19260053 1.6756347e-05 0.15619203 -0.030885594 -0.074748605
0.014698667 -0.106161565 0.06038459 0.034689683 0.00057565304 -0.0565649 0.14229241 0.041502997
-0.051661693 -0.03703098 0.079870276 0.036837764 0.021559177 -0.076814026 0.114787966 0.01064507
-0.13166963 -0.046366364 -0.04704858 0.045469522 0.035422154 0.0565366 -0.061587233 0.065096535
-0.13897252 0.010463086 -0.05877548 0.024264643 0.05087057 -0.096438006 0.0009092875 0.004359193
-0.15699916 0.018250117 0.06142544 0.032192122 0.050763138 -0.05173363 -0.019654749 0.061140694
0.032149933 -0.064645685 0.07989878 0.009661659 0.013833507 0.13222304 -0.032509685 0.09427358
-0.011428434 -0.13764137 0.0028170098 0.06441711 0.07156888 -0.0818383 0.0715817 -0.009710669
0.084098585 0.11550029 0.0975343 0.016358646 -0.042969674 0.14533341 0.030521592 0.11429538
-0.083410524 0.048829533 0.026299411 -0.068804495 0.01050283 0.1264202 0.06443324 -0.08380309
-0.09423434 0.06343635 -0.11013191 0.02976155 0.023070633 -0.03678245 0.035179794 0.14244455
-0.05530841 0.08356861 -0.04170858 0.011275801 0.039830726 -0.11882447 -0.052430034 0.10578125
8.865166e-08 -0.06554363 0.075110026 -0.049983907 0.13243094 0.16986941 0.014565371 -0.0078122737
-0.0105329575 -0.08451415 -0.0035690411 -0.0047534592 0.044921342 -0.120569 0.050498325 0.103954196
0.14665249 0.1012441 1.4994819e-07 -0.121155 -0.008666293 0.03669671 0.040871277 -0.086926386
-0.12263343 0.12065154 -0.04930436 -0.091077656 0.05772911 0.1072377 0.040906828 -0.13372444
0.0038225688 0.0075593404 -0.06342066 -0.06934123 -6.8546826e-05 0.05900462 0.051894784 0.15327355
-0.0069255843 -0.12269464 0.09029833 -0.09412429 1.5076002e-07 -0.07260583 0.08216704 0.120233804
0.11072492 0.09615366 0.1380826 0.05485403 0.14110962 -0.012462008 0.06798713 0.0012615891
-0.09402192 -0.064921215 0.09383935 0.055761352 0.054969523 0.099413484 -0.06512284 0.12877308
0.13574629 0.066187866 -0.04791233 0.088495545 0.0996475 0.1141271 -0.009518253 -0.10771312
0.0878409 0.1510919 0.00492327 -0.117737696 -0.04128244 0.039926916 0.13095137 0.049666107
-0.028078685 -0.10917791 0.02106149 -0.07376657 0.03135876 -0.08014292 -0.08218143 0.14140207
0.11509168 -0.10195129 -1.7879097e-06 0.11073678 -0.10768814 -0.039353568 -0.08752196 -0.068017356
0.05989438 -0.007943873 0.09081939 0.084223986 0.13628294 -0.046588432 0.012659375 0.05712587
00000000: 8265 493b 5711 5b3d b60a 363e 1f60 a5bd
00000010: 97b8 9ebd 7d9b 6ebc 1481 053e 8e85 b13d
00000020: d43b 163d 81ba 41bc 76cd c6bd c06f 9c3b
00000030: 5cab a3bd 537b fabd de40 d53d a39b d13d
00000040: ba88 1c3e 3acd 86bd 9b94 f93d f803 063d
00000050: 3695 033e bc37 903d eef0 a1bd 5a52 fb3d
00000060: 3abe 983b 8033 983c 4e5c 833c 16ba 3f3e
00000070: 4da0 fb3d 2843 b4bc 81bc a93d 1b91 11be
00000080: 5dc2 87bb 8ea0 21bd bc43 bc33 57ac 053e
00000090: d221 b93d 8f79 ee3d dae9 513d d953 36bc
000000a0: 4c26 8d3d 9e71 993d a3c9 1234 9c38 88bd
000000b0: eb40 06be 8b13 153d 1b03 b9bd 44b1 253c
000000c0: 9a52 173d 3b89 003e 3ef0 303e 2f25 14be
000000d0: 931c 8dbd a68a c6bd 4ffd b8bd 2693 8cbd
000000e0: 13ae 1a3c 8691 e0b7 0eb7 b33d 1339 45be
000000f0: fb8f 8c37 cef0 1f3e c903 fdbc cc15 99bd
00000100: aed2 703c 3c6b d9bd d555 773d c516 0e3d
00000110: 6ce7 163a 99b0 67bd 1ab5 113e 0cff 293d
00000120: 369b 53bd ccad 17bd 0793 a33d 32e3 163d
00000130: df9c b03c ac50 9dbd f415 eb3d a968 2e3c
00000140: 67d4 06be a8ea 3dbd 03b6 40bd 403e 3a3d
00000150: d216 113d ec92 673d e542 7cbd 5551 853d
00000160: d04e 0ebe 5d6d 2b3c 8fbe 70bd a5c6 c63c
00000170: a95d 503d 4a81 c5bd 405d 6e3a 90d7 8e3b
00000180: 63c4 20be 4581 953c 3e99 7b3d e3db 033d
00000190: 02ed 4f3d a5e6 53bd ff02 a1bc aa6e 7a3d
000001a0: a6af 033d f564 84bd f9a1 a33d ef4b 1e3c
000001b0: efa5 623c 7a65 073e e028 05bd 8212 c13d
000001c0: 543e 3bbc dcf1 0cbe 959d 383b 1eed 833d
000001d0: b492 923d d79a a7bd 6d99 923d 7f19 1fbc
000001e0: e13b ac3d 6b8b ec3d 10c0 c73d 9102 863c
000001f0: f800 30bd 48d2 143e 6b08 fa3c b213 ea3d
00000200: 23d3 aabd 7a01 483d dd71 d73c 5fe9 8cbd
00000210: 1014 2c3c 4c74 013e 93f5 833d f4a0 abbd
00000220: effd c0bd ebea 813d d78c e1bd 7ece f33c
00000230: a0fe bc3c 32a9 16bd b018 103d fcdc 113e
00000240: 128b 62bd 0526 ab3d 9ed6 2abd 23be 383c
00000250: 8b25 233d 3e5a f3bd e0c0 56bd d7a3 d83d
00000260: c460 be33 bd3b 86bd 49d3 993d edbb 4cbd
00000270: fa9b 073e 3ff2 2d3e 98a3 6e3c 1afe ffbb
00000280: 6d92 2cbc c115 adbd 93e6 69bb e8c2 9bbb
00000290: 71ff 373d e1ec f6bd 55d7 4e3d f0e5 d43d
000002a0: 122c 163e 1159 cf3d 7201 2134 1d20 f8bd
000002b0: 11fd 0dbc 4a4f 163d a468 273d 7606 b2bd
000002c0: 3c27 fbbd 2818 f73d 5ef3 49bd ec86 babd
000002d0: 5c75 6c3d 709f db3d eb8d 273d 0fef 08be
000002e0: 1084 7a3b 58b4 f73b b1e2 81bd c602 8ebd
000002f0: ccc0 8fb8 d4ae 713d a08f 543d bef3 1c3e
00000300: 03f0 e2bb 5447 fbbd 55ee b83d 3cc4 c0bd
00000310: 99e0 2134 5eb2 94bd 3147 a83d 243d f63d
00000320: bfc3 e23d 36ec c43d 8665 0d3e 9fae 603d
00000330: 0a7f 103e 732d 4cbc d63c 8b3d e85b a53a
00000340: 908e c0bd 6af5 84bd d82e c03d 0466 643d
00000350: b927 613d 4c99 cb3d 205f 85bd 17dd 033e
00000360: 1301 0b3e 818d 873d b83f 44bd 273d b53d
00000370: fd13 cc3d 78bb e93d 72f2 1bbc b298 dcbd
00000380: eee5 b33d d6b7 1a3e 6253 a13b 7620 f1bd
00000390: c717 29bd 688a 233d 1e18 063e b06e 4b3d
000003a0: 4505 e6bc ab98 dfbd 2589 ac3c ed12 97bd
000003b0: 0b72 003d f921 a4bd bd4e a8bd b4cb 103e
000003c0: 30b5 eb3d d7cb d0bd 1cf8 efb5 f7c9 e23d
000003d0: 998b dcbd 3531 21bd b73e b3bd af4c 8bbd
000003e0: cf53 753d 0527 02bc 84ff b93d a07d ac3d
000003f0: c18d 0b3e 83d3 3ebd 4469 4f3c d1fc 693d

act_conv1.bias f4 [4]
0.03313206 0.046431914 -0.07277289 0.11323877
00000000: 7cb5 073d 642f 3e3d f409 95bd bae9 e73d

act_fc1.weight f4 [36, 144]
-0.058681615 0.033599135 0.04827459 0.02927278 0.030746195 -0.027765969 -0.03151988 0.0781999
0.08043619 -0.014765541 0.07668436 0.05685664 -0.0523418 0.024714725 0.049368456 0.041771676
-0.011419065 -0.016478233 -0.07996688 0.0022180162 0.06449894 0.057655938 -0.03459904 -0.03172727
0.10721269 -0.04104888 -0.0476462 0.030586416 -0.020252395 -0.043745376 -0.31752193 0.051129267
0.017702173 -0.009312712 0.019654397 0.03755031 0.049719248 -0.033363853 0.11464444 -0.046758138
-0.011940019 -0.017189251 0.015557135 -0.03963602 0.0031353433 -0.056938738 -0.044036858 0.026621701
0.014488232 -0.014897602 -0.026574364 -0.06314838 -0.07765494 -0.10345539 -0.026757523 0.10331083
0.01372671 0.07289057 -0.01338417 -0.10513557 0.13691476 -0.13766946 0.068646975 0.052300125
-0.04164314 -0.0038150242 -0.19448477 0.11686631 -0.1304091 0.03158547 0.10743576 0.061195195
-0.009984258 -0.0059026615 -0.00847201 -0.011190197 -0.012402061 -0.0056771366 -0.009389696 -0.014695678
-0.012868577 -0.016492756 -0.013018447 -0.018427942 -0.0133112045 -0.006504957 -0.014749069 -0.01080495
-0.01986495 -0.00798262 -0.0042750333 -0.0011775931 -0.018512601 -0.0092033325 -0.0217189 -0.017277157
-0.020305611 -0.022033539 -0.019050032 -0.021624979 -0.014079648 -0.016365798 -0.021162005 0.0042562243
-0.016394721 -0.01859668 -0.0124124065 -0.012031386 -0.06641974 -0.047629144 -0.051911585 0.017777447
0.12502936 0.023753874 -0.030567244 0.009854702 -0.03766133 -0.015145503 -0.010560611 -0.041723505
-0.034285855 -0.030844307 0.011466361 -0.048280038 -0.0118721565 -0.0007779196 0.02310635 0.041787118
0.009838871 0.00489961 0.04885692 -0.082748845 -0.12612085 0.113906205 -0.05687258 -0.044636417
0.007198216 0.019582823 0.17077531 -0.047757454 0.09593755 0.020036148 -0.055461273 -0.15145278
0.053521663 0.030673223 -0.019929295 0.0025131411 0.038028184 0.009319193 -0.060652677 0.07768593
-0.00052887277 0.0392015 0.0055442452 -0.007826156 0.038267992 0.06423245 -0.025793629 0.09596508
0.038022347 -0.0015889108 -0.03572141 -0.05977776 0.038320843 -0.074681565 -0.020695638 0.039192613
-0.07104199 0.14462034 -0.06873278 -0.0558745 0.05984383 0.012017884 0.1385318 -0.12815997
0.087594345 0.013700392 0.04382409 0.115804635 -0.05358208 0.042085484 0.05880629 0.0015541347
0.043088745 0.0060486346 -0.106033824 0.011159517 0.046435047 -0.045469366 -0.017155087 -0.054997966
0.050621808 -0.04395993 -0.017541949 0.0026787217 0.06183454 0.05527802 -0.034595035 0.07065304
0.017618677 0.04645679 0.037753686 -0.06486892 0.037452444 0.015975878 -0.15123564 -0.016208878
0.086347274 0.042658355 0.054558035 -0.26393247 0.061003163 -0.14280356 -0.06350737 0.02988898
0.007603798 0.014868868 0.008843557 -0.0010087441 0.005708673 0.02120357 0.027436549 0.019013451
0.015594549 0.014033213 -0.0039278367 0.0074251625 0.02978909 0.0043346207 0.0023291823 0.007279726
0.015961925 0.017958324 -0.013799916 0.012720174 0.01523168 0.008644037 0.015718644 0.02072118
-0.000261782 0.011861586 0.020260856 0.0068652397 0.0066356743 0.02787107 0.022650234 0.007820268
0.02233146 0.021634037 0.021580968 0.017620714 -0.028194211 0.01194735 -0.0127729485 -0.04278123
00000000: 225c 70bd 3f9f 093d 94bb 453d 78cd ef3c
00000010: 72df fb3c 7575 e3bc fd1a 01bd 4527 a03d
00000020: bbbb a43d 2beb 71bc b10c 9d3d 82e2 683d
00000030: 5b64 56bd 8976 ca3c 9436 4a3d c718 2b3d
00000040: 0817 3bbc 5cfd 86bc adc5 a3bd 235c 113b
00000050: 0518 843d a228 6c3d b9b7 0dbd 74f4 01bd
00000060: 5492 db3d df22 28bd a928 43bd 5d90 fa3c
00000070: 5ae8 a5bc 5a2e 33bd 3c92 a2be ec6c 513d
00000080: 2604 913c 5894 18bc 4202 a13c 5bce 193d
00000090: 69a6 4b3d 89a8 08bd b4ca ea3d 7685 3fbd
000000a0: 12a0 43bc 79d0 8cbc 5be3 7e3c 6159 22bd
000000b0: 557a 4d3b 9838 69bd fe5f 34bd c115 da3c
000000c0: 0d60 6d3c 1215 74bc 7bb2 d9bc f053 81bd
000000d0: 8e09 9fbd 6be0 d3bd 9832 dbbc a194 d33d
000000e0: ffe5 603c a747 953d 4749 5bbc 5151 d7bd
000000f0: 6233 0c3e 39f9 0cbe c996 8c3d a838 563d
00000100: ff91 2abd 7c05 7abb 0427 47be 9b57 ef3d
00000110: f789 05be c45f 013d 4807 dc3d d0a7 7a3d
00000120: 0395 23bc 1d6b c1bb 2fce 0abc 1757 37bc
00000130: 0432 4bbc 4607 babb 3dd7 19bc 24c6 70bc
00000140: b9d6 52bc d11b 87bc 534b 55bc 32f6 96bc
00000150: 3d17 5abc 8927 d5bb 14a6 71bc 3f07 31bc
00000160: d2bb a2bc 89c9 02bc 9415 8cbb 7859 9aba
00000170: bda7 97bc 93c9 16bc d6eb b1bc d388 8dbc
00000180: f457 a6bc ae7f b4bc d00e 9cbc de26 b1bc
00000190: 53ae 66bc 9111 86bc f15b adbc cc77 8b3b
000001a0: 394e 86bc 1158 98bc 685d 4bbc 4a1f 45bc
000001b0: 1307 88bd c716 43bd 3ea1 54bd 02a2 913c
000001c0: b207 003e 7c97 c23c 2868 fabc 9e75 213c
000001d0: c442 1abd d824 78bc 6a06 2dbc 44e6 2abd
000001e0: 536f 0cbd 33ad fcbc 67dd 3b3c 4ac1 45bd
000001f0: 6f83 42bc 4ded 4bba 8749 bd3c f828 2b3d
00000200: 3733 213c e88c a03b 321e 483d 3a78 a9bd
00000210: d325 01be a847 e93d 39f3 68bd add4 36bd
00000220: 03df eb3b 286c a03c b9df 2e3e 529d 43bd
00000230: e87a c43d d922 a43c 5c2b 63bd 7016 1bbe
00000240: 8839 5b3d 6946 fb3c c342 a3bc 83b3 243b
00000250: 71c3 1b3d 87af 183c f16e 78bd cd19 9f3d
00000260: 0da4 0aba c191 203d 80ac b53b 4739 00bc
00000270: e6be 1c3d 4e8c 833d 294d d3bc 5789 c43d
00000280: 52bd 1b3d 0043 d0ba 9d50 12bd 86d9 74bd
00000290: 51f6 1c3d a6f2 98bd e689 a9bc 6f88 203d
000002a0: 767e 91bd 5b17 143e c6c3 8cbd a9dc 64bd
000002b0: ce1e 753d a9e6 443c 48db 0d3e 5e3c 03be
000002c0: aa64 b33d 9c77 603c e480 333d fb2a ed3d
000002d0: e278 5bbd d461 2c3d ddde 703d 1bb4 cb3a
000002e0: d37d 303d a033 c63b 4328 d9bd 68d6 363c
000002f0: ad32 3e3d 163e 3abd d388 8cbc 8c45 61bd
00000300: d058 4f3d 540f 34bd 22b4 8fbc 7e8d 2f3b
00000310: 3746 7d3d 356b 623d 86b3 0dbd 8bb2 903d
00000320: 0b55 903c 7a49 3e3d 9ca3 1a3d ffd9 84bd
00000330: bc67 193d d8df 823c 84dd 1abe 7bc8 84bc
00000340: d7d6 b03d 87ba 2e3d 3f78 5f3d 2822 87be
00000350: 74de 793d 193b 12be 2710 82bd bcd9 f43c
00000360: 4829 f93b 8d9c 733c 91e4 103c d637 84ba
00000370: d20f bb3b 1cb3 ad3c 9dc2 e03c 19c2 9b3c
00000380: 4780 7f3c 90eb 653c 15b5 80bb c74e f33b
00000390: 4008 f43c 6f09 8e3b 32a5 183b c58a ee3b
000003a0: 95c2 823c 561d 933c 0b19 62bc 4768 503c
000003b0: 4c8e 793c b89f 0d3c 63c4 803c 77bf a93c
000003c0: c93f 89b9 1957 423c 18fa a53c cef5 e03b
000003d0: 1270 d93b df51 e43c fc8c b93c 9520 003c
000003e0: 77f0 b63c dd39 b13c 92ca b03c 5159 903c
000003f0: 8cf7 e6bc d1be 433c a145 51bc 5f3b 2fbd

act_fc1.bias f4 [36]
-0.080074646 -0.06838796 -0.025287159 -0.0073579075 -0.03278542 -0.049470607 -0.027019126 0.123908706
-0.04422015 -0.0029653069 0.0543032 -0.032263286 -0.07966591 0.015313193 0.02332218 0.081133135
-0.0032568236 -0.07586807 -0.10442645 0.04125498 0.013645196 0.049358174 -0.020131696 -0.088535234
-0.018633984 0.056415245 -0.06114573 0.015212689 0.09307001 -0.06279971 -0.019727549 0.05853196
-0.036087718 -0.025304137 -0.0060865185 -0.099095374
00000000: 2dfe a3bd fd0e 8cbd 0427 cfbc 9a1a f1bb
00000010: 014a 06bd b1a1 4abd 3757 ddbc d9c3 fd3d
00000020: 3020 35bd 9855 42bb 086d 5e3d 8226 04bd
00000030: e127 a3bd 30e4 7a3c 280e bf3c 2129 a63d
00000040: 6f70 55bb b860 9bbd 89dd d5bd fbfa 283d
00000050: 1a90 5f3c cc2b 4a3d 3aeb a4bc f651 b5bd
00000060: 4ca6 98bc ac13 673d f273 7abd a43e 793c
00000070: 7d9b be3d 229d 80bd ab9b a1bc 35bf 6f3d
00000080: b7d0 13bd 9f4a cfbc 6b71 c7bb 84f2 cabd

val_conv1.weight f4 [2, 128, 1, 1]
0.10623868 0.13440955 0.049001087 -0.13338496 -0.1284028 -0.093621686 0.09497979 0.10859538
-0.17386076 -0.15560551 -0.11692469 -0.15814786 -0.10161058 0.10019761 0.08783746 0.083494596
0.089614004 -0.035901256 0.10767156 0.110272065 0.11446871 0.10906285 -0.1380999 0.08088483
-1.2369149e-07 -0.080590464 0.08204025 -0.10115978 0.07149977 0.0497989 -0.0752652 0.09884961
-9.879984e-08 -0.15925391 1.665985e-07 0.11745006 0.060101517 0.11498804 0.11876196 0.05081813
0.04159601 0.076837525 4.5997545e-08 0.024892053 0.016457641 0.048143253 0.11128733 0.10361209
0.10830621 -0.03140216 -0.10690116 -0.043278586 -0.06562413 -0.1361846 -0.14291987 -0.020206388
-4.3019014e-07 -7.605449e-09 0.10330364 0.12274897 -6.783234e-05 0.09719298 0.10663599 -0.101278126
-0.01843771 -0.0024475772 0.072696105 0.08873291 2.8485412e-09 0.074129395 0.028085746 0.11137082
-0.12820718 -0.11880343 -0.0073222653 -0.15639937 -0.02341707 -0.09806112 0.011833171 -4.1974456e-08
0.08373001 0.12063448 -0.17608336 -0.17107715 0.09863889 0.087844126 0.09770475 0.005647406
-0.022879768 0.11955293 0.115824625 -0.14659521 0.08098884 -0.1750582 -3.617197e-07 0.045020565
0.10810855 0.079143174 0.0677036 0.07891507 0.12185149 -0.10729638 -0.13981886 0.09261989
0.12447329 -0.046091788 0.14289424 0.09649488 0.14952767 0.0960621 0.11485733 0.05679362
-0.15503454 -0.050710626 1.6054692e-08 -0.13576108 0.102208644 -0.13070428 0.0829463 0.12780191
0.07949038 0.12816668 0.07601336 0.083137654 -0.13578634 0.08801193 -0.10890025 0.102468975
-0.00071434776 0.00036637773 0.02420486 0.009731211 0.019337412 0.057586815 -3.4997298e-05 -0.0045437957
0.062304217 -0.07357597 -0.017000781 0.0039015787 0.024843773 -0.028587569 -0.02413897 -0.06620519
-1.5094004e-07 -0.02650798 2.8037653e-07 0.006161675 -0.0002831288 -1.7979559e-07 -0.01991922 0.0005913535
2.9712098e-07 0.014817186 -0.07022392 -1.735195e-07 -0.0031482244 3.672146e-05 6.2520954e-08 6.2111766e-08
0.036699098 -0.0016144745 7.240679e-08 8.787563e-08 -0.051508464 1.895985e-07 -0.010982542 -3.3855382e-08
-0.0068949363 -0.019096358 -5.6393226e-08 -0.00048402286 -0.013751746 7.3550984e-07 -1.1011673e-07 -0.0070561226
4.1300013e-05 -0.019178215 -2.5661064e-08 -0.077968374 -0.061761174 -0.03261755 -0.014691393 -0.0054219123
0.04651917 0.0040749772 -0.044520978 0.019460078 0.031161217 0.00397195 -2.5639011e-08 -0.012954089
0.029247995 -0.024410915 -0.010604749 -1.7525433e-06 -2.2232045e-07 -0.043376025 0.03900905 0.03151784
-0.0005051232 -3.2383784e-07 -0.04552471 -0.031237036 7.894318e-05 -0.074039005 0.04067643 3.630242e-08
-0.0001356832 6.7436036e-07 0.040466968 0.049509015 -0.07686402 -4.2275634e-08 0.023973642 0.05831669
0.027396169 -4.616055e-07 -0.006796028 -0.010641591 0.00772646 3.3708134e-09 0.0028405143 -0.010280105
0.0020029468 0.041835103 -1.1723853e-07 -0.012815093 -0.0017271256 0.037489392 0.057301342 -0.039197363
-1.4810558e-07 -0.07468314 -0.00876307 -0.0085333325 8.439124e-05 -0.04031751 -0.042408146 0.026827693
0.04151779 -0.016221061 -1.4372822e-08 0.04915801 -0.025663683 9.3391194e-05 -0.010901929 2.0618124e-07
-0.0138477655 0.0015965317 -0.028627638 0.002889876 -0.00032205283 0.05448841 -0.065659896 0.008018867
00000000: aa93 d93d a8a2 093e 5db5 483d 1196 08be
00000010: 067c 03be babc bfbd c484 c23d 4167 de3d
00000020: 8e08 32be 0d57 1fbe 3676 efbd 83f1 21be
00000030: 3519 d0bd 6834 cd3d 20e4 b33d 37ff aa3d
00000040: 8c87 b73d 320d 13bd e882 dc3d 52d6 e13d
00000050: 926e ea3d 585c df3d 0f6a 0dbe f2a6 a53d
00000060: 0fd0 04b4 9d0c a5bd b804 a83d dc2c cfbd
00000070: 796e 923d eef9 4b3d a424 9abd aa71 ca3d
00000080: c92b d4b3 7513 23be 3fe2 3234 a889 f03d
00000090: 022d 763d d97e eb3d 7839 f33d ac26 503d
000000a0: 9460 2a3d fe5c 9d3d d68e 4533 6bea cb3c
000000b0: 2dd2 863c dc31 453d 9dea e33d 9332 d43d
000000c0: a5cf dd3d 8d9f 00bd ffee dabd e344 31bd
000000d0: f265 86bd fa73 0bbe 9659 12be de87 a5bc
000000e0: e2f4 e6b4 1ea9 02b2 dc90 d33d d063 fb3d
000000f0: 3641 8eb8 1d0d c73d f863 da3d e86a cfbd
00000100: ae0a 97bc 8867 20bb b2e1 943d 9ab9 b53d
00000110: 11c0 4331 27d1 973d 1414 e63c 6216 e43d
00000120: be48 03be 364f f3bd 9def efbb 2827 20be
00000130: 28d5 bfbc 45d4 c8bd ebdf 413c 6747 34b3
00000140: a47a ab3d 360f f73d 324f 34be d92e 2fbe
00000150: 3003 ca3d 9fe7 b33d 6e19 c83d e00d b93b
00000160: 5a6e bbbc 2bd8 f43d 7635 ed3d 0e1d 16be
00000170: 7add a53d 7542 33be 6132 c2b4 7c67 383d
00000180: 0468 dd3d d115 a23d 2fa8 8a3d 399e a13d
00000190: 468d f93d 34be dbbd ad2c 0fbe 7faf bd3d
000001a0: daeb fe3d beca 3cbd de52 123e 1c9f c53d
000001b0: c81d 193e 35bc c43d 523a eb3d 6da0 683d
000001c0: 60c1 1ebe f2b5 4fbd a4e8 8932 f404 0bbe
000001d0: c452 d13d 58d7 05be c0df a93d 81de 023e
000001e0: dacb a23d 203e 033e e4ac 9b3d 1344 aa3d
000001f0: 930b 0bbe 993f b43d 1807 dfbd 41db d13d
00000200: 1143 3bba 6316 c039 4549 c63c a86f 1f3c
00000210: 7e69 9e3c 27e0 6b3d 10ca 12b8 1fe4 94bb
00000220: b532 7f3d 00af 96bd 3945 8bbc a1b1 7f3b
00000230: 2b85 cb3c 7a30 eabc 17bf c5bc 9696 87bd
00000240: 1512 22b4 4327 d9bc a886 9634 e0e7 c93b
00000250: e770 94b9 d60d 41b4 a22d a3bc 1005 1b3a
00000260: ff83 9f34 c8c3 723c 8fd1 8fbd ad50 3ab4
00000270: 7152 4ebb 5e05 1a38 4243 8633 4e62 8533
00000280: cb51 163d c69c d3ba 0e7e 9b33 23b6 bc33
00000290: 8afa 52bd 7094 4b34 1ff0 33bc 6368 11b3
000002a0: ebee e1bb f76f 9cbc 0235 72b3 73c4 fdb9
000002b0: 014f 61bc da6f 4535 5079 ecb3 0c37 e7bb
000002c0: 8d39 2d38 a21b 9dbc 476d dcb2 e2ad 9fbd
000002d0: 49f9 7cbd fb99 05bd 2bb4 70bc 4caa b1bb
000002e0: e38a 3e3d 6387 853b a15b 36bd be6a 9f3c
000002f0: cf45 ff3c 2227 823b c83c dcb2 633d 54bc
00000300: 7e99 ef3c 66f9 c7bc 8bbf 2dbc ee38 ebb5
00000310: fbb6 6eb4 0fab 31bd f4c7 1f3d da18 013d
00000320: 3e6a 04ba efdb adb4 1e78 3abd d0e4 ffbc
00000330: 4c8e a538 c3a1 97bd 549c 263d efea 1b33
00000340: 2f46 0eb9 b105 3535 b1c0 253d f7c9 4a3d
00000350: e26a 9dbd 8d92 35b3 5f64 c43c 7bdd 6e3d
00000360: ee6d e03c 94d2 f7b4 37b1 debb 115a 2ebc
00000370: 3f2e fd3b faa3 6731 ec27 3a3b e36d 28bc
00000380: df43 033b 495b 2b3d 90c4 fbb3 65f6 51bc
00000390: b860 e2ba 7a8e 193d d0b4 6a3d 6a8d 20bd
000003a0: f406 1fb4 79f3 98bd fb92 0fbc 64cf 0bbc
000003b0: 34fb b038 f923 25bd 2ab4 2dbd c0c5 db3c
000003c0: 8f0e 2a3d 08e2 84bc 57ec 76b2 e959 493d
000003d0: a53c d2bc 04db c338 019e 32bc ab62 5d34
000003e0: bde1 62bc b742 d13a 8284 eabc 1364 3d3b
000003f0: 33d9 a8b9 3d2f 5f3d b278 86bd 9161 033c

val_conv1.bias f4 [2]
-0.040388603 -0.029610345
00000000: 856e 25bd 6591 f2bc
