current_policy.pt (torch, 678965 bytes, 15 tensors)

conv1.weight f4 [32, 4, 3, 3]
0	0x3e966c93	0.2937971
1	0xbe3324fd	-0.17494579
2	0xbdbb2c22	-0.09139277
3	0xbe33244e	-0.17494318
4	0x3d04df73	0.03243966
5	0xbc98a15e	-0.018631633
6	0x3e67ca2c	0.22635716
7	0x3e0ae737	0.13564764
8	0x3da55706	0.08073239
9	0xbe27316e	-0.1632745
10	0x3e6e1a88	0.23252308
11	0xbe0a029d	-0.1347756
12	0x3e50484d	0.2034008
13	0x3e317ac3	0.17331986
14	0xbdbfb5ea	-0.09360869
15	0xbde23871	-0.110459216
16	0xbe9381a1	-0.28809837
17	0xbdb4e66a	-0.088330105
18	0x3ca44fb4	0.020057537
19	0xbe0a3a81	-0.1349888
20	0x3d5821bb	0.052766543
21	0x3d782be0	0.060588717
22	0x3dc8a248	0.09796578
23	0xbdf0c63b	-0.117565595
24	0x3d7a1a79	0.061060403
25	0xbbc6c64e	-0.00606612
26	0x3e0efd4c	0.13963813
27	0xbde7c0b0	-0.11316049
28	0x3cbfee2e	0.023429003
29	0x3d304493	0.043034147
30	0x3daae986	0.08345322
31	0x3d82a0d7	0.06378334
32	0xbc14060d	-0.009034646
33	0x3e103cca	0.14085689
34	0xbd8f641b	-0.070015155
35	0x3d575179	0.052567933
36	0x3e302e3a	0.17205134
37	0xbcfb3e20	-0.030669272
38	0x3d334a92	0.043772288
39	0x3d3c6fe8	0.04600516
40	0xbdf76f0d	-0.12081728
41	0x3e18ab85	0.1490918
42	0x3ea1eaba	0.31624395
43	0x3e36d4d2	0.17854622
44	0xbe25c683	-0.16189007
45	0x3d942bd6	0.072349235
46	0x3e9acf5e	0.30236334
47	0x3e238ec6	0.15972432
48	0xbdba3bac	-0.09093413
49	0x3e6f5670	0.23372817
50	0x3d400f97	0.046889868
51	0xbd022bb0	-0.031779945
52	0x3dca08d8	0.09864968
53	0xbd8456d2	-0.06461872
54	0x3b680201	0.0035401585
55	0x3e19a4d2	0.1500428
56	0xbcf675ba	-0.030085433
57	0x3cf55e32	0.029952142
58	0xbd9cc3d6	-0.0765454
59	0x3d8623cb	0.06549796
60	0xbdf4d56b	-0.11954769
61	0x3d666e0f	0.056257304
62	0x3ce9e20e	0.028550174
63	0xbde2cb75	-0.110739626
64	0x3d87eca8	0.066369355
65	0xbc9ad9bf	-0.018902658
66	0xbd995863	-0.074875616
67	0x3cf31cf4	0.029676892
68	0xbd2fcfe7	-0.04292288
69	0x3b780620	0.0037845448
70	0xbd7a8b54	-0.06116803
71	0xbd96c310	-0.07361424
72	0xbd0626f2	-0.032751985
73	0x3dedb4e8	0.11606771
74	0xbd597792	-0.053092547
75	0x3d8566da	0.06513758
76	0x3dbb1ce9	0.091363735
77	0x3ea94ad9	0.33064917
78	0x3b8e2083	0.004337372
79	0xbc39fb7d	-0.011351463
80	0xbe24c1a4	-0.16089493
81	0xbc9cc648	-0.019137517
82	0xbe4353b5	-0.190749
83	0x3dae6aed	0.08516488
84	0xbec1a8d0	-0.37824106
85	0x3e73fa83	0.23826031
86	0xbd89272a	-0.06696923
87	0x3e4f7f34	0.20263368
88	0x3e976766	0.29571074
89	0x3cf3774a	0.029719967
90	0xbcc09070	-0.023506373
91	0x3c4de2a7	0.012566245
92	0x3e003a25	0.1252218
93	0x3dab058b	0.083506666
94	0x3c6ff904	0.014646772
95	0x3dbf0ce3	0.0932863
96	0x3d0829cc	0.033242986
97	0xbc73c36a	-0.014878133
98	0xbd5cd704	-0.053915992
99	0x3d8b9474	0.068154246
100	0x3d0ff8fb	0.035149556
101	0xbe111782	-0.14169124
102	0xbd3db20c	-0.046312377
103	0xbe0096e6	-0.12557563
104	0x3d374c25	0.04475035
105	0xbdff9292	-0.12479128
106	0x3dfec305	0.12439541
107	0x3e21452e	0.15749046
108	0x3d91f8f5	0.07127563
109	0xbc40243b	-0.011727388
110	0x3e1cd786	0.1531659
111	0x3dd7f2d9	0.105443664
112	0xbc60fbf0	-0.013731942
113	0xbd48257d	-0.048863877
114	0x3d8090b0	0.06277597
115	0xbe29a079	-0.16565122
116	0x3e3454ea	0.17610517
117	0x3e5aa292	0.21351078
118	0x3eba5c12	0.3639837
119	0xbe4393f7	-0.19099413
120	0xbac453d6	-0.0014978598
121	0xbe9e99ce	-0.3097672
122	0x3e0437e7	0.1291195
123	0xbe82e4c0	-0.25565147
124	0x3e30426e	0.17212841
125	0x3e9f8f6d	0.31164113
126	0x3e02d281	0.12775613
127	0x3dd28a52	0.10280289
128	0xbd6a3091	-0.057175223
129	0xbd2e7487	-0.042591598
130	0xbdc49a49	-0.0959974
131	0xbd9c27b3	-0.076247595
132	0xbe116095	-0.14197
133	0xbc68eeee	-0.0142171215
134	0x3d9a5658	0.07536
135	0x3d1a4149	0.037659917
136	0xbde771ce	-0.113010034
137	0xbe33451b	-0.1750683
138	0xbc964ef2	-0.018348191
139	0x3d58d92c	0.052941486
140	0x3dd3fe0d	0.10351191
141	0x3d4d972e	0.050193004
142	0x3cc2f4bd	0.023798341
143	0x3ce79b6c	0.028272353
144	0xbd8b0160	-0.06787372
145	0x3e99fafc	0.30074298
146	0x3dcb3688	0.099225104
147	0x3e8cb8ba	0.27484685
148	0x3c76253a	0.015023524
149	0x3df2378f	0.11827003
150	0x3eb0ae6f	0.34508082
151	0x3e434ffc	0.1907348
152	0xbdeb57ca	-0.11491354
153	0x3dd87ed1	0.10571063
154	0xbd84cba1	-0.06484152
155	0xbe3299bb	-0.17441456
156	0xbdc2b440	-0.09507036
157	0x3dc9c5d2	0.09852184
158	0xbb16a924	-0.0022989
159	0xbb8baa63	-0.004262255
160	0xbe2ce5f5	-0.16884597
161	0x3da9f9b7	0.082995825
162	0x3d35423b	0.044252615
163	0x3d9a0e40	0.07522249
164	0xbc06afe2	-0.008220645
165	0xbce2917c	-0.027657263
166	0x3de76119	0.11297817
167	0xbd15ea71	-0.036600534
168	0x3dd09438	0.101845205
169	0xbcc0c192	-0.023529802
170	0x3dc9281f	0.098221056
171	0x3d5ae0e2	0.05343712
172	0x3d8316d1	0.06400836
173	0xbdd52a87	-0.10408502
174	0xbe204fdd	-0.15655465
175	0x3e0f70de	0.14007899
176	0xbc538290	-0.0129095465
177	0x3d9751a6	0.0738862
178	0xbe100995	-0.14066155
179	0x3ddd361b	0.108013354
180	0x3e0bc55b	0.13649504
181	0xbe5b2912	-0.21402386
182	0xbe2b0ab2	-0.16703299
183	0x3e42b7ca	0.19015422
184	0x3e536b9c	0.20646518
185	0xbe8ff955	-0.28119913
186	0x3ebc65a1	0.36796287
187	0x3e365e59	0.17809428
188	0xbdce23b5	-0.10065404
189	0xbd05eda6	-0.032697342
190	0x3eafb00b	0.34313998
191	0x3db5203a	0.08844037
192	0xbe2b0824	-0.16702324
193	0xbda05679	-0.07828993
194	0x3e6fcae8	0.23417246
195	0xbe10dbfb	-0.14146416
196	0xbd244d7c	-0.040112957
197	0xbe7afd44	-0.24510676
198	0x3daefc88	0.0854426
199	0x3d97e2aa	0.074162796
200	0x3c03a407	0.008034713
201	0x3e071cad	0.13194533
202	0xbdb15ecd	-0.0866066
203	0xbc952a35	-0.018208602
204	0x3dd11855	0.10209719
205	0xbe17836a	-0.14796224
206	0x3dc45bba	0.09587808
207	0xbc990999	-0.018681334
208	0xbe194712	-0.14968517
209	0x3d7501fc	0.059816346
210	0x3dbbe900	0.091753006
211	0x3df130ef	0.117769115
212	0x3df0e9a8	0.117633164
213	0x3dc83b5b	0.09776946
214	0xbcf8315a	-0.03029697
215	0x3d1098b9	0.035301898
216	0x3deae2d2	0.11469044
217	0xbde7f0d6	-0.11325233
218	0x3cc00798	0.023441121
219	0xbe45db0b	-0.1932184
220	0x3eb867b4	0.3601662
221	0x3e932f7d	0.28747168
222	0x3deec245	0.11658148
223	0x3e2f99f0	0.17148566
224	0x3df64909	0.12025649
225	0x3d4b0bf5	0.04957195
226	0x3b2f5d47	0.0026758478
227	0x3d539bd3	0.051662277
228	0xbdab5959	-0.08366651
229	0xbcf25520	-0.029581606
230	0xbd5df1ae	-0.05418556
231	0xbde5334b	-0.11191424
232	0x3daf54bf	0.08561086
233	0x3dc13c07	0.094352774
234	0xbd2715ee	-0.0407924
235	0x3df02801	0.1172638
236	0x3e073b8d	0.1320631
237	0x3afd1936	0.0019309882
238	0xbdd1f2f6	-0.10251419
239	0x3df4ddf6	0.11956398
240	0xbe0bfa0a	-0.13669601
241	0x3db09f9b	0.08624192
242	0xbde11114	-0.109895855
243	0xbdadfdc4	-0.084956676
244	0x3dc00f56	0.09377925
245	0x3d7ee746	0.06223228
246	0x3e34488e	0.17605802
247	0x3e0ea76a	0.13931051
248	0xbdf14666	-0.117810056
249	0x3c2c3e5c	0.0105129145
250	0x3c4c1fcd	0.012458754
251	0xbe1278bc	-0.14303869
252	0xbda26352	-0.079291
253	0x3e13fd22	0.14452031
254	0x3ea1ce80	0.3160286
255	0xbc94cf5e	-0.018165287

conv1.bias f4 [32]
0	0xbd3f20e4	-0.046662226
1	0xbd265f1e	-0.040618055
2	0x3dc13cbe	0.09435414
3	0x3de312a6	0.11087541
4	0xbd4d6636	-0.050146304
5	0xbe0b1553	-0.13582353
6	0xbd19202d	-0.0373842
7	0x3e046abf	0.12931345
8	0xbdf7a27b	-0.120915376
9	0x3e5822f6	0.21107087
10	0x3ddd3995	0.108019985
11	0xbd3db713	-0.04631717
12	0xbd20520c	-0.039140746
13	0x3c7c62b4	0.015404392
14	0x3ca2333b	0.01979982
15	0xbce9efb5	-0.028556684
16	0x3d98065d	0.07423089
17	0x3d2d9501	0.04237843
18	0x3c87bc68	0.016569331
19	0x3db8f9bc	0.09032008
20	0x3e25cd8b	0.1619169
21	0xbce5b37f	-0.028039692
22	0xbd2dba29	-0.042413864
23	0x3d0793df	0.033100005
24	0x3daae624	0.08344677
25	0x3d5110ec	0.05104153
26	0xbce1bd90	-0.02755621
27	0xbdeeef4d	-0.11666737
28	0x3dde0903	0.108415626
29	0x3e54ae39	0.20769586
30	0x3d3552f9	0.044268582
31	0x3e3f0258	0.18653238

conv2.weight f4 [64, 32, 3, 3]
0	0x3d6d50e2	0.057938464
1	0x3d9763bf	0.07392072
2	0x3d9634d7	0.07334297
3	0xbc1323dc	-0.0089807175
4	0x3c9cc930	0.019138902
5	0xbc159cda	-0.009131635
6	0x3d9ef0ec	0.07760796
7	0x3d641c5f	0.05569112
8	0x3d97ce99	0.07412452
9	0xbdf1c5ce	-0.118053064
10	0xbcc4241f	-0.023943005
11	0x3d0d0f47	0.034438398
12	0xbdbf0b89	-0.09328372
13	0x3c4fcc70	0.012683019
14	0x3d7bf319	0.061511133
15	0xbd93ee25	-0.07223157
16	0xbdb0997d	-0.086230256
17	0xbd37aa23	-0.04483999
18	0x3c95c62f	0.018282978
19	0xbd6062f5	-0.054781873
20	0xbdc05446	-0.09391074
21	0x3d75ff4f	0.060057934
22	0xbd96dcc4	-0.073663265
23	0x3cac84eb	0.021059474
24	0x3b142124	0.0022602761
25	0xbd6fc829	-0.058540497
26	0xbcd79a7e	-0.026318785
27	0xbdcd16df	-0.10014128
28	0xbc3799e9	-0.011206129
29	0x3bcc5dd2	0.00623677
30	0xbd391992	-0.0451904
31	0xbc8edc15	-0.017438928
32	0x3b8bc924	0.004265921
33	0xbd26a9cc	-0.040689275
34	0xbdc727fc	-0.09724423
35	0xbd370cd1	-0.044689957
36	0xbcca8f72	-0.024726603
37	0x3b9a119a	0.0047018053
38	0xbb3f3672	-0.002917674
39	0xbd28da0f	-0.041223582
40	0xbd81d87f	-0.063401215
41	0x3d6998cb	0.05703048
42	0x3ca6e594	0.020373143
43	0xba09ed64	-0.0005261509
44	0x3d2fb0f6	0.042893372
45	0xbc5a0018	-0.013305686
46	0x3da48310	0.08032811
47	0x3d478576	0.048711263
48	0x3b9190e1	0.0044423197
49	0x3d9a40b0	0.075318694
50	0x3da89e00	0.08233261
51	0xbce0ffa4	-0.027465649
52	0xbd26a457	-0.04068407
53	0x3d90c515	0.070688404
54	0xbd4be9cb	-0.04978351
55	0xbd949050	-0.07254088
56	0x3d63f058	0.05564913
57	0x3d108eb0	0.035292327
58	0x3dabdf31	0.0839218
59	0x3ca0cd95	0.01962928
60	0x3d0f892a	0.03504292
61	0x3926b2a8	0.00015897548
62	0x3c924869	0.017856793
63	0xba2d01ec	-0.00065997127
64	0xbd4e09b0	-0.050302207
65	0x3d16b90a	0.03679756
66	0x3bfa9645	0.007647308
67	0xbb86a87f	-0.004109442
68	0xbd84ad20	-0.064783335
69	0xbd206abc	-0.03916429
70	0x3d6ba539	0.057530615
71	0x3d9a4614	0.075328976
72	0x3c0af69f	0.008481651
73	0x3ceae260	0.028672397
74	0x3c6cde6b	0.014457325
75	0xbd2ee07b	-0.04269455
76	0xbd14248a	-0.03616766
77	0x3c60f4e1	0.013730259
78	0x3d236d21	0.039898995
79	0x3d944d85	0.07241348
80	0xbc0a81a3	-0.008453759
81	0x3d96b4ee	0.07358728
82	0x3cc3b740	0.023891091
83	0xbc802a80	-0.015645266
84	0x3c38ba50	0.011274889
85	0x3d00db29	0.031459007
86	0xbd353e73	-0.04424901
87	0x3d5d2a14	0.053995207
88	0x3acf3e5a	0.0015811429
89	0xbd21347d	-0.039356697
90	0x3c96aa26	0.01839168
91	0xbd03b11d	-0.03215133
92	0x3d8ba954	0.06819406
93	0xbb0eacb2	-0.0021770415
94	0x3d40c92d	0.047066856
95	0x3a2b52d4	0.00065354747
96	0x3cca2b49	0.024678843
97	0x3c89414e	0.016754773
98	0x3ccdec41	0.025137069
99	0x3db1a5d2	0.08674206
100	0x3dd9cc0b	0.10634621
101	0xbc9b9a38	-0.018994436
102	0xbd2be99b	-0.04197083
103	0x3cd7bdd9	0.026335644
104	0xbd05553f	-0.032552
105	0x3d86c143	0.065798305
106	0xbc1f5ac7	-0.009726233
107	0x3c15c339	0.009140783
108	0x3c6b74b9	0.014371091
109	0x3cfc8903	0.030827051
110	0xbd357167	-0.044297602
111	0x3cada41e	0.021196421
112	0xbd68a72b	-0.05680005
113	0xbcb281f5	-0.021790484
114	0x3d07022d	0.03296106
115	0xbb4949b8	-0.0030714106
116	0x3d38ec48	0.04514721
117	0xbdeee7b7	-0.1166529
118	0xbd363077	-0.044479813
119	0xbdda2d7e	-0.10653208
120	0x3cdf98c3	0.027294522
121	0x3cb285ab	0.021792253
122	0xbdd000f1	-0.101564296
123	0x3d51d9c3	0.051233064
124	0xbdf30548	-0.11866242
125	0xbd85b102	-0.06527902
126	0xbd8258b3	-0.06364574
127	0x3c4d83b2	0.012543606
128	0xbc86c320	-0.016450465
129	0xbdf8a881	-0.121415146
130	0xbdb45cdc	-0.08806774
131	0xbd6fac92	-0.058514185
132	0xbd9ee093	-0.07757678
133	0xbd9bd5a5	-0.07609109
134	0xbd39166d	-0.045187403
135	0xbdbe459c	-0.09290621
136	0x3cf91614	0.030406035
137	0xbbd2a274	-0.0064280573
138	0xbdc54186	-0.09631638
139	0xbd87e881	-0.066361435
140	0xbd5265bd	-0.051366556
141	0xbca01558	-0.019541427
142	0xbb02ae3b	-0.0019940275
143	0xbddd1c94	-0.107964665
144	0x3cdb709d	0.026787097
145	0x3dbf58fc	0.09343144
146	0x3d079002	0.03309632
147	0x3c7887b5	0.015169074
148	0x3cd9bd58	0.026579544
149	0x3ad46f3d	0.0016207468
150	0x3c51a92c	0.012796681
151	0x3c817f31	0.01580772
152	0xbb8e1abc	-0.004336683
153	0x3d4ceacd	0.05002861
154	0xbc16e997	-0.009210966
155	0xbd2a3dbf	-0.041562792
156	0x3c8ba220	0.01704508
157	0x3cd42b19	0.025899457
158	0xbd4a4727	-0.049384262
159	0xbd6989ef	-0.05701631
160	0xbd02e194	-0.03195341
161	0xbc094370	-0.008377895
162	0xbd6441ca	-0.055726804
163	0xbdcd3fb3	-0.10021915
164	0xbd31f658	-0.043447822
165	0x3ae9b62f	0.0017830784
166	0x3cd61a50	0.026135594
167	0x3d1128f2	0.03543944
168	0xbc432335	-0.0119102495
169	0x3cf998c8	0.03046836
170	0xbc0d2a05	-0.008615975
171	0x3d4e65f5	0.050390203
172	0x3c22a9aa	0.009928146
173	0xbbd849e0	-0.0066006035
174	0x3d99f983	0.07518294
175	0xbd7defaf	-0.06199616
176	0x3d42f39f	0.047595616
177	0x3d8c6efa	0.068571046
178	0x3d3f468f	0.04669815
179	0xbcf9b773	-0.030482983
180	0x3d02e5b2	0.031957336
181	0x3d269ad9	0.040675018
182	0xbc107b9b	-0.008818532
183	0x3be987b0	0.007126771
184	0xbad3cf02	-0.0016159716
185	0xbd2f09f0	-0.042734087
186	0xbd2ef3f4	-0.04271312
187	0x3d79157b	0.0608115
188	0x3a7afccc	0.0009574413
189	0xbd143f57	-0.036193218
190	0x3c9118a4	0.017711945
191	0xbbae4578	-0.00531834
192	0xbcd77c7a	-0.026304472
193	0x3d38ee0a	0.045148887
194	0x3ce89bb2	0.028394554
195	0x3cf8e490	0.030382425
196	0x3cc2bd8c	0.023772024
197	0x3cbd8346	0.023133885
198	0xbd503fb9	-0.05084202
199	0xbca90aa3	-0.020634955
200	0xbd63c014	-0.0556031
201	0xbe136047	-0.14392196
202	0xbd81a24e	-0.06329785
203	0xbd948752	-0.07252373
204	0xbc6c39b1	-0.014418052
205	0xbd431a17	-0.047632303
206	0xbcd0e0e1	-0.025497856
207	0x3c2c7200	0.010525227
208	0xbd16f955	-0.036858875
209	0x3cda3129	0.02663477
210	0xbc2318be	-0.0099546295
211	0x3d8e31ef	0.06943118
212	0xbc8393a9	-0.01606162
213	0x3b2d1b41	0.002641395
214	0xba3458d0	-0.0006879689
215	0xbd4dac11	-0.050212923
216	0x3c14eac0	0.009089172
217	0x3d01b2a8	0.03166452
218	0xbc09278c	-0.008371245
219	0x3c0869f1	0.00832604
220	0x3d3ce5f8	0.046117753
221	0xbd361491	-0.044453207
222	0x3bf6280a	0.0075120972
223	0xbc3b6ea2	-0.011439951
224	0xbda4f5cd	-0.08054695
225	0x3cd55af0	0.026044339
226	0x3ddd1f12	0.10796942
227	0x3db6fc7b	0.089348756
228	0x3d10f1dd	0.03538691
229	0x3d530f5e	0.051528327
230	0xbcd0bc1c	-0.025480323
231	0xbce7fa5d	-0.028317625
232	0xbc24a9c3	-0.01005024
233	0xbd44d565	-0.04805507
234	0x3cddef3c	0.027091615
235	0x3d8bbcea	0.06823142
236	0x3d47b62c	0.048757717
237	0xbd695ddc	-0.056974277
238	0xbca32183	-0.01991344
239	0x3d8fd0c3	0.0702224
240	0x3cd74dae	0.026282158
241	0x3ce3bf4a	0.027801175
242	0x3d288801	0.04114533
243	0xbd671299	-0.05641422
244	0xbdc46f9c	-0.095916
245	0xbd727ba2	-0.059199937
246	0xbca4ad71	-0.020102235
247	0x3c8b7747	0.01702465
248	0x3d5ecc8b	0.054394286
249	0xbc26f8d6	-0.010191163
250	0x3daee117	0.08539026
251	0x3d90af00	0.070646286
252	0x3d608968	0.05481854
253	0x3d0ee418	0.034885496
254	0x3ced87f6	0.028995495
255	0x3c0fa32b	0.00876693

conv2.bias f4 [64]
0	0x3c11e304	0.008904222
1	0x3c0004f8	0.007813685
2	0xbcf7bdc4	-0.030241854
3	0x3cbb5838	0.022869214
4	0x3d4d1401	0.050067905
5	0x3cf1ff9d	0.029540831
6	0xbd724722	-0.05914987
7	0xbc19dd14	-0.009391088
8	0xbb9c3c39	-0.0047679213
9	0xbc1321b7	-0.008980206
10	0x3cab39f7	0.020901663
11	0x3d8fdfa8	0.07025081
12	0x3d34550b	0.044026416
13	0x3d16b43d	0.036792982
14	0xbbf26eb9	-0.007398453
15	0xbb470960	-0.0030370578
16	0x3d084641	0.033270124
17	0x3dad4d16	0.084619686
18	0x3d0aa7d9	0.03385148
19	0x3d3309f1	0.043710653
20	0xbcc69fb6	-0.024246078
21	0xbcc40ea2	-0.023932759
22	0x3d0e6051	0.034759823
23	0x3d910196	0.070803806
24	0xbca56897	-0.020191474
25	0xbc94b374	-0.018151976
26	0x3d3a15d1	0.045430962
27	0xbc98c519	-0.018648671
28	0x3d04308f	0.03227287
29	0x3bd07ecf	0.006362773
30	0xbda41246	-0.08011298
31	0x3c87708a	0.016533155
32	0xbbbb3815	-0.0057134726
33	0x3d2dd980	0.042443752
34	0x3c264912	0.010149257
35	0xbc31e9e6	-0.010858988
36	0xbcb0d84c	-0.021587513
37	0xbcef2010	-0.029190093
38	0x3c9defef	0.019279448
39	0xbcc7bd32	-0.024382208
40	0xbd433e5c	-0.047666892
41	0x3c44cd60	0.012011856
42	0x3c381586	0.0112356
43	0x3ca964ee	0.02067801
44	0xbd2da5ac	-0.042394325
45	0x3d82981c	0.06376669
46	0x3d646f86	0.05577042
47	0x3ca5f52b	0.020258507
48	0x3cd1f117	0.025627656
49	0x3d78e067	0.06076088
50	0x3d647504	0.055775657
51	0x3d66e3c6	0.056369565
52	0xbd077560	-0.033070922
53	0x3ce83ed2	0.028350268
54	0xbdc25272	-0.094883814
55	0xbb651dc5	-0.003496037
56	0xbd3111ce	-0.04322987
57	0xbc9bae4f	-0.019004015
58	0xbc35335b	-0.011059607
59	0x3dc9eb22	0.09859301
60	0xbd08a361	-0.033358935
61	0xbce59523	-0.028025215
62	0x3bc0797a	0.005873856
63	0xbc00cafa	-0.007860893

conv3.weight f4 [128, 64, 3, 3]
0	0xbc8e1bef	-0.017347304
1	0xbcc9da3d	-0.024640197
2	0x3c8f0529	0.017458515
3	0xbce9d61b	-0.028544476
4	0x3d3e7f09	0.04650787
5	0x3d0973bd	0.033557642
6	0x3c5fbfc3	0.013656559
7	0xbc7a7284	-0.015286092
8	0x3bf99df2	0.0076177055
9	0xbd0a6d44	-0.03379561
10	0x3ae880e8	0.0017738612
11	0xbcd97285	-0.026543865
12	0x3ca07aa8	0.019589737
13	0xbc7f1588	-0.015569098
14	0xb9f08c2c	-0.00045880803
15	0x3cd17ba7	0.025571657
16	0x3d94f5d3	0.0727345
17	0xbbb80c72	-0.005616718
18	0x3c8a0706	0.016849052
19	0x3cae772f	0.021297066
20	0x3c72393f	0.014784156
21	0x3c8e1f0d	0.01734879
22	0xbba1ca50	-0.0049374476
23	0xba73f8bc	-0.00093067787
24	0x3d1afc50	0.03783828
25	0xbd44a69a	-0.048010446
26	0x3d916d6d	0.071009494
27	0xbd1aa742	-0.037757166
28	0x3db85443	0.09000447
29	0x3d1678f2	0.036736436
30	0x3d2fd13a	0.042924143
31	0xbd3aa316	-0.045565687
32	0xbba762f0	-0.00510823
33	0xbc9c1bb1	-0.019056173
34	0x3d8ae2a6	0.06781511
35	0xbc249e2f	-0.0100474795
36	0xbbf58a36	-0.0074932827
37	0x3c5c80ac	0.013458412
38	0xbcf37a6b	-0.02972146
39	0x3cac1b10	0.021008998
40	0x3d058227	0.032594826
41	0xbd0c6f19	-0.03428564
42	0xbc2a82e4	-0.010407183
43	0x3d34a438	0.044101924
44	0x3c21ba97	0.009871147
45	0x3d82f01a	0.06393452
46	0xbc83e45d	-0.016100103
47	0x3ce29eb4	0.027663566
48	0x395df7b9	0.00021168486
49	0xbd5b82a2	-0.053591378
50	0xba4c6428	-0.0007796907
51	0x3d15f579	0.036611054
52	0xbd5d7316	-0.054064833
53	0x3d28bd9a	0.041196443
54	0x3bffff99	0.007812452
55	0xbab040ed	-0.0013447084
56	0xbd096a38	-0.033548564
57	0xbd5385bd	-0.051641215
58	0xbdbf21c6	-0.09332614
59	0x3cbc9542	0.02302039
60	0x3b6c7655	0.0036081274
61	0xbc17f62e	-0.009275002
62	0xbc95dbc3	-0.018293267
63	0x3cc7e9a2	0.024403397
64	0xbc86d02b	-0.016456684
65	0x3d2455a9	0.040120754
66	0x3d084a15	0.033273775
67	0x3cfe4556	0.031038921
68	0xbd882b8a	-0.066489294
69	0xbcc74c6d	-0.024328435
70	0xb904701a	-0.00012630262
71	0xbd399c53	-0.045315098
72	0x3cd00e6e	0.025397506
73	0x3d0bf5cb	0.034169953
74	0x3cdedf23	0.02720601
75	0x3d427d15	0.04748257
76	0x3c31d6b2	0.01085441
77	0x3a9253fd	0.0011163946
78	0xbc73a450	-0.014870718
79	0x3c8734f7	0.016504748
80	0xbcddc7bb	-0.027072778
81	0xbcefc8d5	-0.029270569
82	0x3c8fb175	0.017540673
83	0xbcbe6462	-0.023241226
84	0xbd00bfbc	-0.031432852
85	0xb9e6bd5e	-0.00044010108
86	0xbd14cd97	-0.03632888
87	0x3d4708fe	0.04859256
88	0x3d014df8	0.031568497
89	0x3c842e7e	0.01613545
90	0xbd02e05d	-0.03195225
91	0xbc632d98	-0.013865851
92	0xbc0bbc26	-0.008528745
93	0x3d848ff4	0.064727694
94	0xbda8f618	-0.08250064
95	0x3d939bb5	0.07207433
96	0x3cd43b16	0.02590708
97	0x3c7a2665	0.015267943
98	0x3d6ee5d0	0.058324635
99	0x3d704f75	0.058669526
100	0xbcdba120	-0.026810229
101	0xbd3b79b7	-0.045770373
102	0xbd0194ec	-0.031636164
103	0xbc95917a	-0.018257845
104	0x3cbe1853	0.023204958
105	0xbce891d8	-0.028389856
106	0x3d2f0a8c	0.042734668
107	0x3c32d71a	0.010915542
108	0xbbebcf34	-0.0071963314
109	0xbd8398d4	-0.06425634
110	0x3cda78e0	0.026668966
111	0x3ba67cb2	0.005080783
112	0x3d751189	0.059831176
113	0x3d298d80	0.04139471
114	0xbce306f6	-0.02771328
115	0x3cc2e83e	0.023792382
116	0x3cebf5a1	0.028803648
117	0xbd078017	-0.03308114
118	0x3cea59f0	0.028607339
119	0x3cd15224	0.025551863
120	0x3c4cfaab	0.012510936
121	0x3c9dde13	0.019270932
122	0x3d9fe0f1	0.07806576
123	0xbccba128	-0.024857119
124	0x3da14026	0.078735635
125	0x3c28ddf1	0.010306821
126	0xbcf258ad	-0.0295833
127	0xbd610726	-0.054938458
128	0xbc912ba6	-0.017721009
129	0xbd8117c7	-0.06303363
130	0xbcce2a8c	-0.025166772
131	0x3d4e6c3f	0.0503962
132	0x3c522200	0.012825489
133	0xbcabf7f4	-0.020992257
134	0x3cfcdac2	0.03086603
135	0x3b104b0e	0.0022017392
136	0x3a7585a6	0.00093659235
137	0x3d8207ce	0.06349145
138	0x3ca10d92	0.019659791
139	0x3d26ad7e	0.0406928
140	0xbca9b6aa	-0.020716984
141	0x3c733170	0.01484333
142	0x3bb2613b	0.0054437197
143	0x3d584068	0.052795798
144	0x3da1657e	0.07880686
145	0x3d69aec8	0.05705145
146	0x3d28d28a	0.04121641
147	0x3ce277b3	0.027644968
148	0x3cde5868	0.027141765
149	0xbca09f77	-0.019607289
150	0xbcc007c0	-0.023441195
151	0xbd0372b5	-0.032091815
152	0xbcafc864	-0.021457858
153	0xbd1c680f	-0.038185176
154	0x3ca5c5d4	0.020235933
155	0xbd01f542	-0.031728037
156	0x3cc0a186	0.02351452
157	0xbc1bbf75	-0.009506096
158	0x3d22a41b	0.039707284
159	0x3c904463	0.017610734
160	0xbc2d440b	-0.010575305
161	0x3cdd0bb6	0.026983123
162	0x3c80f6bf	0.015742658
163	0x3cbad4b5	0.022806505
164	0x3d392ae3	0.045206916
165	0xbbd25c8b	-0.0064197234
166	0xbcb7ac1f	-0.02242094
167	0xbda97744	-0.08274701
168	0xbd42e275	-0.047579248
169	0xbd0bc87d	-0.034126747
170	0x3d02100d	0.03175359
171	0xbce89816	-0.028392833
172	0x3c86ef72	0.016471598
173	0x3b2a6478	0.0025999825
174	0x3d89057a	0.06690498
175	0xbcd4ef83	-0.025993114
176	0x3c57f897	0.013181827
177	0x3b39a9df	0.002833001
178	0xbc1cff17	-0.0095823025
179	0xbcf2ed50	-0.029654175
180	0x3b91b721	0.0044468795
181	0x3cc81593	0.02442435
182	0x3c59b13a	0.013286883
183	0x3d7f4de1	0.06233013
184	0xbd076fee	-0.03306573
185	0x3a4453b7	0.0007489281
186	0x3c2edd38	0.01067286
187	0x3a6b91b3	0.00089862494
188	0xbcb43e69	-0.022002416
189	0x3c39b81f	0.011335402
190	0xbd0838d5	-0.033257324
191	0x3cdd9084	0.02704645
192	0x3c2bb2b6	0.01047962
193	0xbd2b2e02	-0.041791923
194	0xbc0e333a	-0.008679206
195	0x3d6f7453	0.058460545
196	0xbd120a2a	-0.035654224
197	0x3d041ff9	0.032257054
198	0xbd1db063	-0.038498294
199	0xbb9600f3	-0.00457775
200	0xbd54a7a0	-0.051917672
201	0xbc2d2838	-0.010568671
202	0x3c6adfac	0.014335554
203	0xbd292b32	-0.04130096
204	0x3d879eaf	0.06622063
205	0x3c409e05	0.011756425
206	0xbc8c0687	-0.017092956
207	0x3d5e24c1	0.05423427
208	0x3d14b4d7	0.036305275
209	0xbca45729	-0.020061092
210	0xbc8e7b0a	-0.017392654
211	0xbde68a51	-0.112568505
212	0xbc97b2c8	-0.018517867
213	0x3c4f0d39	0.01263743
214	0xbd5626fb	-0.05228327
215	0xbcd6f5a0	-0.02624017
216	0xba8acd7d	-0.0010589805
217	0x3d8a9cca	0.067681864
218	0xbd15deac	-0.03658931
219	0x3ddf148e	0.10892592
220	0xbd765593	-0.060140204
221	0x3c76f24e	0.015072418
222	0x3c9d349b	0.019190123
223	0x3bd3d680	0.0064647794
224	0xbd2b8a33	-0.041879844
225	0x3af278fe	0.0018499193
226	0x3b124f1c	0.0022324985
227	0x3d753ba1	0.05987132
228	0xbbe11875	-0.0068693706
229	0xbc3ec111	-0.01164271
230	0x3d4fee6d	0.05076449
231	0x3d0bc823	0.034126412
232	0xbcf28738	-0.029605493
233	0x3cba69ab	0.022755465
234	0xbd084dfb	-0.033277493
235	0xbd62de74	-0.05538793
236	0xbd1b399c	-0.037896737
237	0xbd1b17c7	-0.037864473
238	0xbc6af184	-0.014339808
239	0x3dcf8b72	0.10134019
240	0x3d8647ae	0.065566406
241	0x3d13b467	0.036060717
242	0x3d7923ad	0.06082504
243	0x3c5820e8	0.013191439
244	0xbca68654	-0.020327725
245	0x3c8ad4cd	0.016947174
246	0xbc27adea	-0.010234335
247	0x3b2d9fac	0.0026492877
248	0x3c81082a	0.015750963
249	0x3ce7ab5d	0.028279955
250	0x3c5f63a0	0.013634592
251	0x3c5ed69c	0.013600972
252	0xbc31481a	-0.010820413
253	0xbb6a4390	-0.0035745837
254	0xbd892007	-0.06695562
255	0xbbab2825	-0.0052232915

conv3.bias f4 [128]
0	0x3ca22fc0	0.01979816
1	0xbd9384ae	-0.07203041
2	0x3cfd7839	0.030941116
3	0x3d10ae61	0.03532255
4	0x3cce15df	0.025156913
5	0xbb00538c	-0.0019581048
6	0x3c85c8d2	0.01633111
7	0x3be31c2b	0.006930848
8	0xbbea4ab8	-0.0071500205
9	0x3c24ba8a	0.01005424
10	0xbb5fba55	-0.0034138162
11	0xbd0cbdb6	-0.03436061
12	0x3c55f0ea	0.013057927
13	0x3d2860c3	0.041107904
14	0x3c3af6cf	0.011411383
15	0xbd0fd28c	-0.035112903
16	0xbca11974	-0.019665457
17	0x3caae762	0.020862285
18	0x3cec6899	0.02885847
19	0xbc503a19	-0.012709164
20	0xbc96e6e5	-0.018420646
21	0xbc56c358	-0.013108097
22	0x3d46ae42	0.04850603
23	0xbbcc1ebb	-0.0062292493
24	0x3d3ddffd	0.04635619
25	0xbc90a33c	-0.017655961
26	0x3d92f944	0.0717645
27	0xbcb4254a	-0.021990437
28	0xa77e57b8	-3.5297133e-15
29	0xaf85da02	-2.4347463e-10
30	0x3c2aa903	0.010416272
31	0x3d1abcac	0.037777588
32	0xbc1e3faf	-0.009658738
33	0xaa4f82b6	-1.8430643e-13
34	0xbbb9a833	-0.005665803
35	0xbc3ed7df	-0.011648147
36	0x3d0b5fcf	0.034026917
37	0x3b5e97b0	0.0033964925
38	0x3d0e60d4	0.03476031
39	0x3c1d1c9c	0.009589341
40	0xbc6ebbda	-0.0145711545
41	0xbc504b9d	-0.01271334
42	0xbc22f80e	-0.009946836
43	0xad9fa61e	-1.8149978e-11
44	0x3cb4d0fe	0.022072311
45	0xbbf081e8	-0.007339705
46	0xbd0c261d	-0.034216035
47	0x3cc7747d	0.024347538
48	0xba6d980c	-0.0009063489
49	0xbd01b203	-0.031663906
50	0x3cf9af1b	0.030479005
51	0x3d054d5f	0.03254449
52	0x3d0cc981	0.034371857
53	0xbb72ae45	-0.0037030142
54	0x3d60c871	0.054878656
55	0x3c6f0d95	0.014590641
56	0x3d1f6ce3	0.0389222
57	0x3d35ca73	0.044382524
58	0xb9819f8e	-0.00024723675
59	0x3c1b3b78	0.009474628
60	0xb40cae3a	-1.31019e-07
61	0xbd25d6a7	-0.04048791
62	0x3cfdb1dd	0.0309686
63	0xa2946389	-4.0220867e-18
64	0x3d834327	0.06409293
65	0x3d509d45	0.050931234
66	0xbd691d0b	-0.056912463
67	0x3d2dc7c1	0.04242683
68	0xbc6c7d19	-0.0144341225
69	0x3ca106fc	0.01965665
70	0xae112367	-3.3000627e-11
71	0x3d90bf14	0.07067695
72	0x3d626266	0.05526962
73	0x3d6163c0	0.05502677
74	0x3c6479c2	0.013945045
75	0xbb39ea79	-0.0028368516
76	0x3d4a020d	0.049318362
77	0x3c573144	0.013134304
78	0xb112efc6	-2.1382092e-09
79	0x3c83ce21	0.0160895
80	0x3c7ca0cb	0.015419195
81	0x3c6bbcb2	0.01438825
82	0x3d9acfea	0.07559188
83	0xbc137dea	-0.009002188
84	0x3c0f402f	0.00874333
85	0x3c9762e1	0.018479766
86	0xbb656b84	-0.0035006711
87	0x3d03c873	0.032173585
88	0xbcb8870a	-0.02252533
89	0xbc16887e	-0.009187816
90	0x3cc4472f	0.023959724
91	0x3c26071d	0.010133532
92	0xa0ae6bc8	-2.954807e-19
93	0x3cc8ef38	0.02452813
94	0xba24167c	-0.0006259454
95	0xbd2465bd	-0.040136088
96	0x3c8e8fa6	0.017402481
97	0x3d8c1d21	0.068414934
98	0x3bd08f07	0.0063647064
99	0xb55c6e4c	-8.211689e-07
100	0xbb0790cb	-0.0020685669
101	0x3cc59e58	0.024123356
102	0x3c4a77b9	0.012357646
103	0xba603062	-0.00085521315
104	0xbb290a7d	-0.0025793605
105	0xbcea6b36	-0.028615575
106	0x3d0b36e1	0.033987883
107	0x3d003cc8	0.031307966
108	0x3bdcf34f	0.006742872
109	0x3d67811d	0.056519616
110	0x3c613868	0.013746358
111	0xbac7ce2a	-0.0015243937
112	0xbc8e6337	-0.017381294
113	0xad22e315	-9.259056e-12
114	0x3d0a395b	0.033746105
115	0x3d0a53a1	0.03377116
116	0xbba0cd1d	-0.004907264
117	0xaad506e6	-3.7841187e-13
118	0xbd50e584	-0.051000133
119	0x3cfce225	0.030869553
120	0xbd127e70	-0.03576511
121	0xbbea86bc	-0.007157175
122	0x3b723912	0.0036960286
123	0xbcd99963	-0.026562398
124	0xbc845fd6	-0.01615898
125	0x3dae040a	0.08496864
126	0x3d490977	0.049081292
127	0x3d49e566	0.049291037

act_conv1.weight f4 [4, 128, 1, 1]
0	0xbde2ad91	-0.110682614
1	0x3e4a248e	0.19740507
2	0x3df3299d	0.118731715
3	0x3e0b838f	0.13624404
4	0x3c003bd0	0.00782676
5	0x3e051a78	0.12998378
6	0x3d802c44	0.06258443
7	0xbbfaff2c	-0.0076598134
8	0x3bd5ae93	0.006521055
9	0x3c95236a	0.018205363
10	0x3d92df10	0.07171452
11	0xbc294868	-0.010332204
12	0xbda6283c	-0.08113143
13	0xbdddb00b	-0.10824593
14	0xbbaca853	-0.0052690892
15	0x3d371183	0.044694435
16	0x3e118dda	0.14214268
17	0xbd692f11	-0.05692965
18	0xbde6cfc8	-0.112701
19	0xbb249649	-0.002511399
20	0x3da47546	0.08030181
21	0x3cbff662	0.023432914
22	0xbe2eb186	-0.17059907
23	0x3c5a568f	0.013326301
24	0xbc16f4f5	-0.009213676
25	0xbc731b2b	-0.01483802
26	0xbe1950da	-0.14972249
27	0xbd0a7380	-0.033801556
28	0x005bdd30	8.436377e-39
29	0xbb7834e0	-0.0037873313
30	0x3e00742e	0.12544319
31	0x3d2268cf	0.039650735
32	0xbe4310d9	-0.19049396
33	0x804113de	-5.976434e-39
34	0x3dd0d54e	0.10196935
35	0x3c968f7e	0.01837897
36	0xbb17610e	-0.002309862
37	0x3e11424c	0.14185447
38	0x3c7c7866	0.015409565
39	0x3c8e6a8b	0.017384788
40	0x3d98359a	0.07432099
41	0x3b22f358	0.0024864282
42	0xbdaf1abd	-0.08550022
43	0x8097e772	-1.3950187e-38
44	0x3c782512	0.015145557
45	0xbe071e20	-0.13195086
46	0x3db0cd73	0.08632936
47	0x3d23c85a	0.039985992
48	0x3ad02027	0.0015878723
49	0x3e0c0f4b	0.13677709
50	0x3dd31244	0.10306218
51	0x3d7a179d	0.061057676
52	0x3d988e7a	0.0744905
53	0xbb89eb3c	-0.0042089503
54	0x3d8c06e6	0.06837253
55	0xbdcfa1b2	-0.10138263
56	0xbdbe760c	-0.092998594
57	0x3c41d1f6	0.011829844
58	0x00204a46	2.96538e-39
59	0xbd411221	-0.04713643
60	0x8087cbb2	-1.2470864e-38
61	0x3e77d674	0.24202901
62	0x3e024db3	0.12724952
63	0x01784adc	4.5604115e-38
64	0x3b9d2e05	0.0047967457
65	0x3b490fea	0.0030679652
66	0x3df9c98d	0.12196646
67	0x3e06de88	0.13170826
68	0x3de887dd	0.11354039
69	0x3c9e0fb1	0.019294592
70	0x8017878c	-2.160841e-39
71	0xbdbae58b	-0.09125813
72	0x3c83ea07	0.016102804
73	0x3b1f3767	0.0024294497
74	0xbd57743e	-0.05260109
75	0xacf9b776	-7.097374e-12
76	0x3df7ab8e	0.12093268
77	0x3dfd4a58	0.123676956
78	0x800fcfa0	-1.452014e-39
79	0x3d9da648	0.07697731
80	0xbe0e68e0	-0.13907194
81	0x3d05115e	0.032487266
82	0xbd8473fa	-0.06467433
83	0x3e1818cc	0.1485321
84	0xbd9973fe	-0.07492827
85	0x3d3d98d8	0.04628834
86	0x3d6aa4b5	0.057285983
87	0xbdddf4ce	-0.108377084
88	0x3df321bc	0.11871669
89	0x3e04fe40	0.12987614
90	0xbd8460c7	-0.06463771
91	0xbdd7ead9	-0.105428405
92	0x809025bd	-1.323785e-38
93	0xbe14c49f	-0.1452813
94	0xbe657043	-0.22406106
95	0xbd4b071c	-0.049567327
96	0xbd57b5b6	-0.052663527
97	0xbc9308b0	-0.017948478
98	0x3c58c1c5	0.013229792
99	0xb8d939ef	-0.00010358157
100	0x3cf1f8d3	0.029537594
101	0x3dcd32f6	0.10019486
102	0x3d8c0234	0.06836358
103	0xbe0069cb	-0.12540357
104	0x3d5597a7	0.05214658
105	0x3d13e93d	0.036111105
106	0xbd96cafa	-0.073629335
107	0x3dd615b5	0.10453359
108	0x3d6f6816	0.058448873
109	0x3d6c8a83	0.057749283
110	0x3de758ae	0.11296211
111	0x3d98c1c4	0.07458833
112	0xbdc26189	-0.094912596
113	0x0147d6be	3.6704597e-38
114	0x3d2e162a	0.042501606
115	0x3da6f2fb	0.081518136
116	0x3d35bced	0.044369627
117	0x80065118	-5.80104e-40
118	0x3e79e211	0.24402644
119	0x3db894dc	0.09012768
120	0x3df53cf9	0.1197452
121	0x3db18198	0.08667296
122	0x3da05784	0.07829192
123	0x3dc74c6d	0.09731374
124	0xbd32d27d	-0.04365777
125	0xbc58dcca	-0.013236234
126	0x3df60c85	0.12014107
127	0xbe18005c	-0.14843887
128	0xbc2d7f8a	-0.01058949
129	0xbd208583	-0.039189827
130	0xbd969b43	-0.073538326
131	0xbdb01b3c	-0.085989445
132	0x3d12ae1f	0.035810586
133	0xbd3c6008	-0.04599002
134	0x3d928c32	0.071556464
135	0x3db11761	0.08647037
136	0xbc12e83e	-0.008966504
137	0xbdf18c8a	-0.11794384
138	0xbcf033cd	-0.029321576
139	0x3e03d46e	0.12874004
140	0x3de8c49a	0.11365624
141	0x3da8cb34	0.08241883
142	0xbe123c21	-0.1428075
143	0xbe279348	-0.16364777
144	0xbcf6151c	-0.030039363
145	0x3cb5ed79	0.022207962
146	0xbd89e0e8	-0.067323506
147	0x3d9567ed	0.07295213
148	0xbdca484c	-0.09877071
149	0xbde1f061	-0.11032177
150	0x3da2edc9	0.0795551
151	0xbd9d8604	-0.07691577
152	0x3c4aacf2	0.012370335
153	0x3d98643d	0.07440994
154	0xbbbb2fad	-0.0057124705
155	0xbd07cc6c	-0.033153936
156	0x0063238e	9.104469e-39
157	0x3a4eb0f5	0.0007884645
158	0xbdc756f5	-0.097333826
159	0xbdac744c	-0.08420619
160	0xbd8e2226	-0.06940107
161	0x80b7fdaa	-1.6896893e-38
162	0x3d49cc31	0.049266998
163	0x3d316a22	0.043314107
164	0x3ddde6b4	0.10835019
165	0x3d818f1d	0.06326125
166	0xbd92d8e3	-0.07170274
167	0xbb259a72	-0.0025269059
168	0xbcfbe22f	-0.030747501
169	0xbc24df67	-0.010063029
170	0x3e15b0b0	0.14618182
171	0x80078ffc	-6.945e-40
172	0x3d72d2ac	0.059282944
173	0x3d681a55	0.056665737
174	0xbd7ea9f5	-0.062173802
175	0x3d52c446	0.051456712
176	0xbb2f2853	-0.0026726916
177	0xbc297149	-0.010341951
178	0x3dc8184c	0.09770259
179	0x3da89899	0.08232231
180	0xbda830d0	-0.08212435
181	0x3b40985f	0.0029387695
182	0x3dd4a6a7	0.10383349
183	0xbda71955	-0.081591286
184	0xbcbe3b2d	-0.023221577
185	0x3d1364f6	0.035984956
186	0x87ac5759	-2.5931022e-34
187	0x3d1707a8	0.036872536
188	0x0091b3b5	1.3380614e-38
189	0x3de9a96a	0.11409266
190	0x3d53a875	0.051674325
191	0x800854c3	-7.65091e-40
192	0x3d9b4863	0.07582166
193	0xbc674789	-0.014116176
194	0xbcc13d90	-0.023588926
195	0xbcaaed8d	-0.020865226
196	0x3bfdf30f	0.007749922
197	0x3dced5e7	0.100993924
198	0x009eeae4	1.4594271e-38
199	0xbdbf0925	-0.09327916
200	0x3c37a729	0.011209288
201	0xbda0271c	-0.078199595
202	0x3dce5a2e	0.10075794
203	0x3be53e28	0.006995935
204	0xbbd67139	-0.006544259
205	0xbe15098d	-0.14554425
206	0x80046bc7	-4.06005e-40
207	0xbab0ccd3	-0.0013488777
208	0x3be9c409	0.007133965
209	0x3ddd42c8	0.10803753
210	0xbcf25c23	-0.02958495
211	0xbd21d158	-0.039506286
212	0xbdc9f234	-0.0986065
213	0xbe00e66e	-0.12587902
214	0xbcd94b2d	-0.026525104
215	0x3dcb5757	0.09928768
216	0xbd44d82b	-0.048057716
217	0xbca4555f	-0.02006024
218	0xbd03ea71	-0.032206003
219	0xbd654e08	-0.05598262
220	0x005ff028	8.810524e-39
221	0x3c6fec5f	0.014643758
222	0x3d3a91e8	0.045549303
223	0x3dcd2e3b	0.100185834
224	0x3dbb8f9d	0.091582514
225	0x3c603c6a	0.013686279
226	0x3dd26bd5	0.102744736
227	0xbb56be18	-0.0032767113
228	0x3d8a9b18	0.06767863
229	0xbc7f29c5	-0.0155739235
230	0x3da3a0dc	0.07989666
231	0x3dc69add	0.096975066
232	0xbda5b449	-0.08091027
233	0xbdfa6851	-0.12226928
234	0xbc3b3592	-0.011426346
235	0x3d0b3b89	0.033992324
236	0x3db09a2a	0.086231545
237	0xbdbc6f1e	-0.092008814
238	0xbce8c163	-0.028412526
239	0x3d63b8c1	0.055596117
240	0x3e511485	0.20417984
241	0x0054dfa1	7.794405e-39
242	0x3ce33795	0.027736465
243	0x3de3fba4	0.11131981
244	0xbd43a124	-0.047761098
245	0x807f041a	-1.166458e-38
246	0xbd503718	-0.05083379
247	0xbd79efea	-0.061019816
248	0xbd3478b8	-0.04406044
249	0xbe0450a8	-0.12921393
250	0xbdb27aba	-0.087148145
251	0x3c05fbd1	0.0081777135
252	0x3d6bfbea	0.05761329
253	0xbdc96883	-0.09834387
254	0xbd4b4101	-0.04962254
255	0xba89e03b	-0.0010519096

act_conv1.bias f4 [4]
0	0xbd3bc0f2	-0.045838304
1	0x3cbc5c12	0.022993121
2	0x3d0552f0	0.0325498
3	0xbd89ba88	-0.06725031

act_fc1.weight f4 [121, 484]
0	0x3c58aaeb	0.013224344
1	0xbd1b1670	-0.037863195
2	0xbd974e5e	-0.07387994
3	0xbd0b79c7	-0.034051683
4	0xbc0d5b59	-0.008627736
5	0xbcca380c	-0.024684928
6	0x3d180c0b	0.03712086
7	0xbcf1b78e	-0.029506471
8	0x3c95890b	0.018253824
9	0xbce43a01	-0.02785969
10	0xbcbe2a3a	-0.023213495
11	0x3d028852	0.031868286
12	0xbc8ce53e	-0.017199155
13	0x3c5e9dce	0.013587428
14	0x3c1b17f6	0.009466162
15	0x3b7d2f79	0.0038633032
16	0x3cbb0e50	0.022833973
17	0x3c99b156	0.018761318
18	0xbcc6005a	-0.02417009
19	0x3c257976	0.010099759
20	0xbc935c0f	-0.017988233
21	0x3c39c62a	0.01133875
22	0xbd7916dd	-0.06081282
23	0x3cec437a	0.02884077
24	0xbd3f836b	-0.04675619
25	0xbb1d7f3b	-0.0024032134
26	0xbc8ac7b6	-0.016940933
27	0x3c2cb2e0	0.010540694
28	0xbd3756e2	-0.044760592
29	0x3b149bb9	0.0022675826
30	0xbc64c4d6	-0.013962945
31	0x3b5cbd1e	0.0033682059
32	0xbb8defbb	-0.0043315566
33	0xbca11777	-0.01966451
34	0xbd02e470	-0.031956136
35	0xbc5e8efc	-0.013583895
36	0xbd442371	-0.047885362
37	0xbc9783f9	-0.018495547
38	0xbc3e9c32	-0.01163392
39	0x3c3cbbbc	0.011519369
40	0xbc946e15	-0.018118897
41	0x3c89cde2	0.016821805
42	0xbb0c2ca6	-0.0021388917
43	0xbc9d0d98	-0.019171521
44	0x3c04aed9	0.008098328
45	0x3bc32a2a	0.005955954
46	0xbd445a09	-0.047937427
47	0x3d0176b7	0.031607356
48	0xbca3a83b	-0.01997768
49	0xbbd9a9c6	-0.006642553
50	0xbccdebf8	-0.025136933
51	0x3c3edb10	0.011648908
52	0xbd3b6276	-0.045748197
53	0x3cfcb6a3	0.030848807
54	0x3d5c437a	0.05377529
55	0x3cb2dfb2	0.021835182
56	0xbd4f9283	-0.050676834
57	0x3be52a17	0.006993543
58	0xbc9b0ed5	-0.01892797
59	0xbc426791	-0.0118655125
60	0xbbf4db0f	-0.007472403
61	0xbbb038a6	-0.005377847
62	0xbcae38b3	-0.02126727
63	0xbd20c2a5	-0.039248127
64	0x3bf4d60f	0.007471807
65	0xbc873525	-0.016504833
66	0xbd19d681	-0.037558082
67	0x3b1fa317	0.0024358684
68	0xbcb4a0dd	-0.022049362
69	0xba179ada	-0.00057832676
70	0xbb408a4d	-0.0029379309
71	0x3c708058	0.014679037
72	0xbcc824df	-0.024431644
73	0xbbeed17e	-0.007288157
74	0x3cd93f92	0.02651957
75	0xbc2ed40e	-0.010670675
76	0xbcadc6e8	-0.02121301
77	0x3bd738f7	0.00656807
78	0xbc818de7	-0.015814735
79	0xbc826857	-0.015918894
80	0x3cd9c8a8	0.026584938
81	0xbcd5352c	-0.02602633
82	0xbc0bb55e	-0.008527128
83	0x3c70ea31	0.014704273
84	0xbc712512	-0.014718311
85	0x3cb30dc3	0.021857148
86	0x3c64dcbd	0.013968644
87	0xbcc896e2	-0.024486009
88	0x3cdc35c2	0.026881102
89	0x3d76f0b3	0.060288142
90	0x3c86a531	0.016436191
91	0xbb92142d	-0.0044579715
92	0xbd571ae1	-0.052515868
93	0x3c7ccb1f	0.015429287
94	0xbd7e62d7	-0.06210598
95	0xbcfcda5b	-0.030865839
96	0xbcfa5954	-0.030560173
97	0x39ac44da	0.00032857695
98	0xbd3f249f	-0.046665784
99	0xbd73ac08	-0.059490234
100	0x3e27c2ae	0.16382858
101	0xbca6b8c1	-0.02035177
102	0xbd5b7328	-0.05357662
103	0xbbdf1a85	-0.0068085813
104	0xbb935c8e	-0.0044971174
105	0x3c629a21	0.0138306925
106	0xbd0e9094	-0.03480585
107	0x3d0bda64	0.03414382
108	0xbd52f266	-0.0515007
109	0xbd0559d9	-0.03255639
110	0xbf5eea5a	-0.8707634
111	0x3cbe2dc2	0.023215178
112	0x3d1dd55b	0.03853355
113	0x3c2e5d8f	0.010642423
114	0xbd3cafa0	-0.046065927
115	0x3d283f76	0.041076146
116	0xbc68929d	-0.014195112
117	0x3cc58057	0.024109049
118	0xbceb2595	-0.028704444
119	0x3cbd9595	0.023142615
120	0x3c0aa945	0.008463209
121	0xbc3af282	-0.011410357
122	0xbb02d099	-0.001996076
123	0x3ca42253	0.020035898
124	0xbc7f7e62	-0.015594097
125	0x3bf99ef1	0.0076178242
126	0x3d368cb7	0.04456779
127	0x3c96c603	0.018404966
128	0x3c0e0e6c	0.008670431
129	0x3c9031ab	0.017601809
130	0x3d706a5d	0.058695186
131	0x3b7ba67a	0.0038398788
132	0x3c8fd5e9	0.017558055
133	0x3c8708b4	0.016483642
134	0xbd8382ad	-0.06421409
135	0xbb538868	-0.003227735
136	0xbc1e514e	-0.009662939
137	0xbac2190a	-0.0014808488
138	0x3c664f15	0.014056941
139	0xbb618d84	-0.0034416625
140	0x3d452598	0.048131555
141	0x3d329a4e	0.043604188
142	0x3ce4316e	0.027855601
143	0x3d5bd47d	0.05366944
144	0xbd4f43bb	-0.050601702
145	0xbc861ee5	-0.016372154
146	0xbd994a9e	-0.07484935
147	0xbbd80222	-0.006592051
148	0xbd723b24	-0.059138432
149	0x3d53f6a1	0.051748876
150	0xbc4add91	-0.012381927
151	0x3cedecaa	0.029043514
152	0x3c86fea4	0.016478844
153	0x3c58120b	0.0131878955
154	0x3ca12ab4	0.019673683
155	0xbd3f9206	-0.04677012
156	0xbbe3e895	-0.006955216
157	0x3c4b3c3d	0.012404499
158	0xbd591601	-0.0529995
159	0x3c9c20a8	0.01905854
160	0x3d564e86	0.05232098
161	0x3dbfd552	0.093668595
162	0xbbbc72e2	-0.005751
163	0x3c36881b	0.0111408485
164	0x3c59770b	0.013273011
165	0x3ca5fddf	0.020262657
166	0xbb79a738	-0.0038094055
167	0x3a82f8e4	0.0009992388
168	0x3c9f99d3	0.019482529
169	0xbc9514f6	-0.018198472
170	0xbd2b33e1	-0.041797522
171	0x3cf2fed7	0.029662533
172	0x3d31e7a8	0.043433815
173	0x3d64e1ba	0.055879332
174	0xbd19bfa5	-0.037536282
175	0xbc893036	-0.016746622
176	0x3c3e7fd3	0.011627155
177	0x3af2853c	0.0018502842
178	0xbd5d2a5f	-0.053995486
179	0xbdbf269d	-0.09333537
180	0x3d7e442f	0.062076744
181	0xbe3d96a0	-0.1851449
182	0xbd86b23f	-0.065769665
183	0x3cdec238	0.02719222
184	0xbc921a6a	-0.01783486
185	0xbc9cd2c5	-0.019143471
186	0xbd13d4b8	-0.036091536
187	0x3d186c95	0.037212927
188	0xbd56d927	-0.052453186
189	0x3d1d92bd	0.03847002
190	0xbdb8e9ec	-0.09028992
191	0xbe0ace40	-0.1355524
192	0x3d605cd4	0.054776028
193	0x3c98685f	0.018604456
194	0xbc4e7c50	-0.012602881
195	0xbc3d5f40	-0.011558354
196	0xbcc965b6	-0.024584632
197	0xbb7c37e7	-0.0038485469
198	0xbaf25bc9	-0.0018490489
199	0x3d227cbc	0.039669737
200	0xbdb11a51	-0.086475976
201	0x3de3fe68	0.111325085
202	0xbcadf634	-0.021235563
203	0xbd84b3f3	-0.06479635
204	0xba801d65	-0.0009774385
205	0xbce7137e	-0.028207537
206	0xbd5ed5dc	-0.05440317
207	0xba3436d8	-0.00068746274
208	0x3aacae60	0.0013174526
209	0x3e1100e0	0.1416049
210	0xbd39e053	-0.045379948
211	0x3e42343b	0.18965237
212	0xbba8cd7e	-0.0051514497
213	0x3d714c0f	0.058910426
214	0xbd63b815	-0.055595476
215	0x3ba12753	0.004918018
216	0xbc882114	-0.016617335
217	0x3ca1af40	0.019736886
218	0xbd6bc43e	-0.057560198
219	0xbbf309fe	-0.0074169626
220	0xbdc0cb30	-0.09413755
221	0x3e1e7452	0.1547406
222	0xbd62fb63	-0.055415522
223	0x3d2d6e56	0.042341553
224	0xbd5794e7	-0.05263224
225	0xbce01829	-0.02735527
226	0xbd2bed36	-0.04197427
227	0xbd43a99b	-0.04776917
228	0xbd76ad37	-0.060223784
229	0x3cf32041	0.029678466
230	0xbc891553	-0.016733801
231	0x3e591d98	0.21202695
232	0xbc6492bc	-0.013951
233	0x3df31bb0	0.11870515
234	0xbd183473	-0.037159394
235	0x3d71554f	0.058919247
236	0xbbe47ac3	-0.006972642
237	0x3d18111f	0.037125703
238	0x3c85ede3	0.016348785
239	0x3d2927b9	0.041297648
240	0xbb1965ba	-0.002340658
241	0xbc7f1399	-0.015568637
242	0xbb2423c9	-0.0025045744
243	0x3a6d2c85	0.00090474664
244	0xbc4469a4	-0.011988077
245	0xbd1b43ec	-0.037906572
246	0x3ce976f3	0.028499102
247	0xbcbf4c93	-0.023351943
248	0xbc2a08d7	-0.010378084
249	0xb9a38b43	-0.0003119354
250	0xbd6e0388	-0.058108836
251	0x3cc09096	0.023506444
252	0x3c0291a1	0.007969291
253	0x3cd44063	0.025909608
254	0x3bf2694c	0.0073978063
255	0x3a4c80cd	0.0007801175

act_fc1.bias f4 [121]
0	0xbcb6ef7e	-0.022330996
1	0xbd2d32ce	-0.04228478
2	0xbcbef084	-0.023308046
3	0xbd643d65	-0.055722613
4	0xbd2d1efa	-0.04226587
5	0xbc999f3c	-0.018752687
6	0xbd0682cf	-0.032839593
7	0xbd48a232	-0.048982807
8	0xbccfb22f	-0.02535352
9	0xbd11c419	-0.035587404
10	0xbd8c2761	-0.068434484
11	0xbd47003c	-0.048584208
12	0xbca8c142	-0.020599965
13	0xbd4925c7	-0.049108293
14	0x3c29920e	0.010349764
15	0xbba141bf	-0.0049211676
16	0xbd276d8d	-0.04087596
17	0xbc9d9733	-0.019237136
18	0x3c87afee	0.016563382
19	0xbd094607	-0.03351405
20	0xbcfe18ba	-0.03101765
21	0xbd1d417d	-0.038392533
22	0xbce2637f	-0.027635334
23	0xbd41d1a8	-0.047319084
24	0x3cb67f26	0.022277426
25	0xbd371f7d	-0.044707764
26	0xbd279168	-0.040910155
27	0xbd17301e	-0.036911123
28	0xbcc5d623	-0.02414996
29	0x3b6bd46f	0.0035984775
30	0x3c75bfd5	0.01499935
31	0xbd1373ef	-0.035999235
32	0xbd01cbcb	-0.031688493
33	0xbd5e117d	-0.054215897
34	0x3ceccf62	0.028907482
35	0xbd383716	-0.04497441
36	0x3cd5b898	0.026088998
37	0xbd966550	-0.073435426
38	0x3d84a267	0.06476288
39	0xbcd6cdc7	-0.02622117
40	0x3cccfdd0	0.025023371
41	0xbd1ca450	-0.038242638
42	0x3c9796dd	0.018504554
43	0xbd10e4ed	-0.03537457
44	0xbd2b9406	-0.041889213
45	0x3b984ee6	0.0046480773
46	0xbda06627	-0.07831984
47	0x3c5c036c	0.01342855
48	0x3e1b871c	0.15188259
49	0xbab92bb5	-0.0014127406
50	0x3e06d8b5	0.13168605
51	0xba1fbf49	-0.00060938724
52	0xbcc7310a	-0.024315376
53	0xbbe0ad65	-0.0068566077
54	0xbd587dd5	-0.052854378
55	0xbc430708	-0.011903532
56	0xbd2972d4	-0.041369274
57	0xbc6500b7	-0.013977221
58	0x3cf7987c	0.030224077
59	0x3c9353e3	0.017984336
60	0x3e15b740	0.14620686
61	0x3d056189	0.03256372
62	0x3c4e89da	0.012606109
63	0xbdad5a18	-0.0846445
64	0xbbd179e1	-0.006392703
65	0xbcc0302f	-0.023460476
66	0xbd6b096d	-0.057382036
67	0xbcb3c51a	-0.021944571
68	0xbd34dfd5	-0.044158775
69	0xbd4a81f8	-0.049440354
70	0x3e072c50	0.13200498
71	0x3c82c38b	0.015962383
72	0x3ddde622	0.1083491
73	0xbd1dc457	-0.038517322
74	0xbd5b7eb1	-0.05358762
75	0xbcf963ad	-0.030443037
76	0xbd5b023a	-0.05346892
77	0xbd1fe8b7	-0.039040294
78	0x3b9fbb1f	0.0048746015
79	0xbd03ab96	-0.03214606
80	0x3cdcbc1d	0.026945168
81	0xbccb8cea	-0.024847466
82	0xbbf14fd8	-0.0073642544
83	0xbceab9b2	-0.028653
84	0x3d02278c	0.031775996
85	0xbd794955	-0.06086095
86	0x3ca1fe7f	0.019774674
87	0xbd556352	-0.052096672
88	0xbc8133f0	-0.015771836
89	0xbd0f6777	-0.03501078
90	0x3d356170	0.044282377
91	0xbd35a9ea	-0.044351496
92	0xbd1345ed	-0.03595536
93	0xbd8a8022	-0.06762721
94	0xbc0e8862	-0.008699508
95	0xbcd7ec21	-0.026357712
96	0x3c3954b5	0.0113117
97	0xbd072833	-0.03299732
98	0xbca4c3f7	-0.020112975
99	0xbd0f5eda	-0.035002567
100	0xbd8ab6ee	-0.06773172
101	0xbd34cd9a	-0.04414139
102	0xbcc503fd	-0.024049753
103	0xbcd43989	-0.025906341
104	0xbc9c8268	-0.019105151
105	0xbc0fb4ae	-0.008771105
106	0xbc32d5e4	-0.010915253
107	0xbd41b194	-0.047288492
108	0xbb7a1db7	-0.0038164684
109	0xbd54b473	-0.051929902
110	0xbd834817	-0.064102344
111	0xbc8a9ddb	-0.016920974
112	0xbd463c01	-0.048397068
113	0xbd21502e	-0.039383106
114	0xbc90b60b	-0.01766493
115	0x38220bf0	3.8634927e-05
116	0xbd277606	-0.04088404
117	0xbd3ffa28	-0.046869427
118	0xbd6967c9	-0.056983743
119	0xbcae1b6d	-0.021253312
120	0xbd47a954	-0.04874547
